{"format": "graph-model", "generatedBy": "2.9.0", "convertedBy": "TensorFlow.js Converter v3.18.0", "signature": {"inputs": {"input_1": {"name": "input_1:0", "dtype": "DT_FLOAT", "tensorShape": {"dim": [{"size": "-1"}, {"size": "256"}, {"size": "128"}, {"size": "3"}]}}}, "outputs": {"MobileNetV3_Small": {"name": "Identity:0", "dtype": "DT_FLOAT", "tensorShape": {"dim": [{"size": "-1"}, {"size": "4"}]}}}}, "modelTopology": {"node": [{"name": "input_1", "op": "Placeholder", "attr": {"shape": {"shape": {"dim": [{"size": "-1"}, {"size": "256"}, {"size": "128"}, {"size": "3"}]}}, "dtype": {"type": "DT_FLOAT"}}}, {"name": "StatefulPartitionedCall/model/MobileNetV3_Small/StatefulPartitionedCall/StatefulPartitionedCall/FirstLayer/Conv3x3/Conv2D_weights", "op": "Const", "attr": {"dtype": {"type": "DT_FLOAT"}, "value": {"tensor": {"dtype": "DT_FLOAT", "tensorShape": {"dim": [{"size": "3"}, {"size": "3"}, {"size": "3"}, {"size": "16"}]}}}}}, {"name": "StatefulPartitionedCall/model/MobileNetV3_Small/StatefulPartitionedCall/StatefulPartitionedCall/FirstLayer/Conv3x3/Conv2D_bn_offset", "op": "Const", "attr": {"dtype": {"type": "DT_FLOAT"}, "value": {"tensor": {"dtype": "DT_FLOAT", "tensorShape": {"dim": [{"size": "16"}]}}}}}, {"name": "StatefulPartitionedCall/model/MobileNetV3_Small/StatefulPartitionedCall/StatefulPartitionedCall/Bneck/Bneck0/Bneck0/Bneck/Expand/Conv1x1/Conv2D_weights", "op": "Const", "attr": {"value": {"tensor": {"dtype": "DT_FLOAT", "tensorShape": {"dim": [{"size": "1"}, {"size": "1"}, {"size": "16"}, {"size": "16"}]}}}, "dtype": {"type": "DT_FLOAT"}}}, {"name": "StatefulPartitionedCall/model/MobileNetV3_Small/StatefulPartitionedCall/StatefulPartitionedCall/Bneck/Bneck0/Bneck0/Bneck/Expand/Conv1x1/Conv2D_bn_offset", "op": "Const", "attr": {"dtype": {"type": "DT_FLOAT"}, "value": {"tensor": {"dtype": "DT_FLOAT", "tensorShape": {"dim": [{"size": "16"}]}}}}}, {"name": "StatefulPartitionedCall/model/MobileNetV3_Small/StatefulPartitionedCall/StatefulPartitionedCall/Bneck/Bneck0/Bneck0/Bneck/Depthwise/DWConv3x3/depthwise_weights", "op": "Const", "attr": {"dtype": {"type": "DT_FLOAT"}, "value": {"tensor": {"dtype": "DT_FLOAT", "tensorShape": {"dim": [{"size": "3"}, {"size": "3"}, {"size": "16"}, {"size": "1"}]}}}}}, {"name": "StatefulPartitionedCall/model/MobileNetV3_Small/StatefulPartitionedCall/StatefulPartitionedCall/Bneck/Bneck0/Bneck0/Bneck/Depthwise/DWConv3x3/depthwise_bn_offset", "op": "Const", "attr": {"value": {"tensor": {"dtype": "DT_FLOAT", "tensorShape": {"dim": [{"size": "16"}]}}}, "dtype": {"type": "DT_FLOAT"}}}, {"name": "StatefulPartitionedCall/model/MobileNetV3_Small/StatefulPartitionedCall/StatefulPartitionedCall/Bneck/Bneck0/Bneck0/Bneck/Project/Conv1x1/Conv2D_weights", "op": "Const", "attr": {"value": {"tensor": {"dtype": "DT_FLOAT", "tensorShape": {"dim": [{"size": "1"}, {"size": "1"}, {"size": "16"}, {"size": "16"}]}}}, "dtype": {"type": "DT_FLOAT"}}}, {"name": "StatefulPartitionedCall/model/MobileNetV3_Small/StatefulPartitionedCall/StatefulPartitionedCall/Bneck/Bneck10/Bneck10/Bneck/Project/Conv1x1/Conv2D_weights", "op": "Const", "attr": {"dtype": {"type": "DT_FLOAT"}, "value": {"tensor": {"dtype": "DT_FLOAT", "tensorShape": {"dim": [{"size": "1"}, {"size": "1"}, {"size": "576"}, {"size": "96"}]}}}}}, {"name": "StatefulPartitionedCall/model/MobileNetV3_Small/StatefulPartitionedCall/StatefulPartitionedCall/Bneck/Bneck0/Bneck0/Bneck/Project/Conv1x1/Conv2D_bn_offset", "op": "Const", "attr": {"dtype": {"type": "DT_FLOAT"}, "value": {"tensor": {"dtype": "DT_FLOAT", "tensorShape": {"dim": [{"size": "16"}]}}}}}, {"name": "StatefulPartitionedCall/model/MobileNetV3_Small/StatefulPartitionedCall/StatefulPartitionedCall/Bneck/Bneck1/Bneck1/Bneck/Expand/Conv1x1/Conv2D_weights", "op": "Const", "attr": {"value": {"tensor": {"dtype": "DT_FLOAT", "tensorShape": {"dim": [{"size": "1"}, {"size": "1"}, {"size": "16"}, {"size": "72"}]}}}, "dtype": {"type": "DT_FLOAT"}}}, {"name": "StatefulPartitionedCall/model/MobileNetV3_Small/StatefulPartitionedCall/StatefulPartitionedCall/Bneck/Bneck1/Bneck1/Bneck/Expand/Conv1x1/Conv2D_bn_offset", "op": "Const", "attr": {"dtype": {"type": "DT_FLOAT"}, "value": {"tensor": {"dtype": "DT_FLOAT", "tensorShape": {"dim": [{"size": "72"}]}}}}}, {"name": "StatefulPartitionedCall/model/MobileNetV3_Small/StatefulPartitionedCall/StatefulPartitionedCall/Bneck/Bneck10/Bneck10/Bneck/Project/Conv1x1/Conv2D_bn_offset", "op": "Const", "attr": {"value": {"tensor": {"dtype": "DT_FLOAT", "tensorShape": {"dim": [{"size": "96"}]}}}, "dtype": {"type": "DT_FLOAT"}}}, {"name": "StatefulPartitionedCall/model/MobileNetV3_Small/StatefulPartitionedCall/StatefulPartitionedCall/Bneck/Bneck1/Bneck1/Bneck/Depthwise/DWConv3x3/depthwise_weights", "op": "Const", "attr": {"value": {"tensor": {"dtype": "DT_FLOAT", "tensorShape": {"dim": [{"size": "3"}, {"size": "3"}, {"size": "72"}, {"size": "1"}]}}}, "dtype": {"type": "DT_FLOAT"}}}, {"name": "StatefulPartitionedCall/model/MobileNetV3_Small/StatefulPartitionedCall/StatefulPartitionedCall/Bneck/Bneck1/Bneck1/Bneck/Depthwise/DWConv3x3/depthwise_bn_offset", "op": "Const", "attr": {"value": {"tensor": {"dtype": "DT_FLOAT", "tensorShape": {"dim": [{"size": "72"}]}}}, "dtype": {"type": "DT_FLOAT"}}}, {"name": "StatefulPartitionedCall/model/MobileNetV3_Small/StatefulPartitionedCall/StatefulPartitionedCall/Bneck/Bneck1/Bneck1/Bneck/Project/Conv1x1/Conv2D_weights", "op": "Const", "attr": {"dtype": {"type": "DT_FLOAT"}, "value": {"tensor": {"dtype": "DT_FLOAT", "tensorShape": {"dim": [{"size": "1"}, {"size": "1"}, {"size": "72"}, {"size": "24"}]}}}}}, {"name": "StatefulPartitionedCall/model/MobileNetV3_Small/StatefulPartitionedCall/StatefulPartitionedCall/Bneck/Bneck1/Bneck1/Bneck/Project/Conv1x1/Conv2D_bn_offset", "op": "Const", "attr": {"value": {"tensor": {"dtype": "DT_FLOAT", "tensorShape": {"dim": [{"size": "24"}]}}}, "dtype": {"type": "DT_FLOAT"}}}, {"name": "StatefulPartitionedCall/model/MobileNetV3_Small/StatefulPartitionedCall/StatefulPartitionedCall/Bneck/Bneck2/Bneck2/Bneck/Expand/Conv1x1/Conv2D_weights", "op": "Const", "attr": {"value": {"tensor": {"dtype": "DT_FLOAT", "tensorShape": {"dim": [{"size": "1"}, {"size": "1"}, {"size": "24"}, {"size": "88"}]}}}, "dtype": {"type": "DT_FLOAT"}}}, {"name": "StatefulPartitionedCall/model/MobileNetV3_Small/StatefulPartitionedCall/StatefulPartitionedCall/Bneck/Bneck2/Bneck2/Bneck/Expand/Conv1x1/Conv2D_bn_offset", "op": "Const", "attr": {"value": {"tensor": {"dtype": "DT_FLOAT", "tensorShape": {"dim": [{"size": "88"}]}}}, "dtype": {"type": "DT_FLOAT"}}}, {"name": "StatefulPartitionedCall/model/MobileNetV3_Small/StatefulPartitionedCall/StatefulPartitionedCall/LastStage/ConvNormAct/Conv1x1/Conv2D_weights", "op": "Const", "attr": {"dtype": {"type": "DT_FLOAT"}, "value": {"tensor": {"dtype": "DT_FLOAT", "tensorShape": {"dim": [{"size": "1"}, {"size": "1"}, {"size": "96"}, {"size": "576"}]}}}}}, {"name": "StatefulPartitionedCall/model/MobileNetV3_Small/StatefulPartitionedCall/StatefulPartitionedCall/Bneck/Bneck2/Bneck2/Bneck/Depthwise/DWConv3x3/depthwise_weights", "op": "Const", "attr": {"value": {"tensor": {"dtype": "DT_FLOAT", "tensorShape": {"dim": [{"size": "3"}, {"size": "3"}, {"size": "88"}, {"size": "1"}]}}}, "dtype": {"type": "DT_FLOAT"}}}, {"name": "StatefulPartitionedCall/model/MobileNetV3_Small/StatefulPartitionedCall/StatefulPartitionedCall/Bneck/Bneck2/Bneck2/Bneck/Depthwise/DWConv3x3/depthwise_bn_offset", "op": "Const", "attr": {"value": {"tensor": {"dtype": "DT_FLOAT", "tensorShape": {"dim": [{"size": "88"}]}}}, "dtype": {"type": "DT_FLOAT"}}}, {"name": "StatefulPartitionedCall/model/MobileNetV3_Small/StatefulPartitionedCall/StatefulPartitionedCall/Bneck/Bneck2/Bneck2/Bneck/Project/Conv1x1/Conv2D_weights", "op": "Const", "attr": {"dtype": {"type": "DT_FLOAT"}, "value": {"tensor": {"dtype": "DT_FLOAT", "tensorShape": {"dim": [{"size": "1"}, {"size": "1"}, {"size": "88"}, {"size": "24"}]}}}}}, {"name": "StatefulPartitionedCall/model/MobileNetV3_Small/StatefulPartitionedCall/StatefulPartitionedCall/Bneck/Bneck2/Bneck2/Bneck/Project/Conv1x1/Conv2D_bn_offset", "op": "Const", "attr": {"dtype": {"type": "DT_FLOAT"}, "value": {"tensor": {"dtype": "DT_FLOAT", "tensorShape": {"dim": [{"size": "24"}]}}}}}, {"name": "StatefulPartitionedCall/model/MobileNetV3_Small/StatefulPartitionedCall/StatefulPartitionedCall/Bneck/Bneck3/Bneck3/Bneck/Expand/Conv1x1/Conv2D_weights", "op": "Const", "attr": {"value": {"tensor": {"dtype": "DT_FLOAT", "tensorShape": {"dim": [{"size": "1"}, {"size": "1"}, {"size": "24"}, {"size": "96"}]}}}, "dtype": {"type": "DT_FLOAT"}}}, {"name": "StatefulPartitionedCall/model/MobileNetV3_Small/StatefulPartitionedCall/StatefulPartitionedCall/LastStage/ConvNormAct/Conv1x1/Conv2D_bn_offset", "op": "Const", "attr": {"dtype": {"type": "DT_FLOAT"}, "value": {"tensor": {"dtype": "DT_FLOAT", "tensorShape": {"dim": [{"size": "576"}]}}}}}, {"name": "StatefulPartitionedCall/model/MobileNetV3_Small/StatefulPartitionedCall/StatefulPartitionedCall/Bneck/Bneck3/Bneck3/Bneck/Expand/Conv1x1/Conv2D_bn_offset", "op": "Const", "attr": {"value": {"tensor": {"dtype": "DT_FLOAT", "tensorShape": {"dim": [{"size": "96"}]}}}, "dtype": {"type": "DT_FLOAT"}}}, {"name": "StatefulPartitionedCall/model/MobileNetV3_Small/StatefulPartitionedCall/StatefulPartitionedCall/Bneck/Bneck3/Bneck3/Bneck/Depthwise/DWConv5x5/depthwise_weights", "op": "Const", "attr": {"value": {"tensor": {"dtype": "DT_FLOAT", "tensorShape": {"dim": [{"size": "5"}, {"size": "5"}, {"size": "96"}, {"size": "1"}]}}}, "dtype": {"type": "DT_FLOAT"}}}, {"name": "StatefulPartitionedCall/model/MobileNetV3_Small/StatefulPartitionedCall/StatefulPartitionedCall/Bneck/Bneck3/Bneck3/Bneck/Depthwise/DWConv5x5/depthwise_bn_offset", "op": "Const", "attr": {"value": {"tensor": {"dtype": "DT_FLOAT", "tensorShape": {"dim": [{"size": "96"}]}}}, "dtype": {"type": "DT_FLOAT"}}}, {"name": "StatefulPartitionedCall/model/MobileNetV3_Small/StatefulPartitionedCall/StatefulPartitionedCall/Bneck/Bneck3/Bneck3/Bneck/Project/Conv1x1/Conv2D_weights", "op": "Const", "attr": {"value": {"tensor": {"dtype": "DT_FLOAT", "tensorShape": {"dim": [{"size": "1"}, {"size": "1"}, {"size": "96"}, {"size": "40"}]}}}, "dtype": {"type": "DT_FLOAT"}}}, {"name": "StatefulPartitionedCall/model/MobileNetV3_Small/StatefulPartitionedCall/StatefulPartitionedCall/Bneck/Bneck3/Bneck3/Bneck/Project/Conv1x1/Conv2D_bn_offset", "op": "Const", "attr": {"value": {"tensor": {"dtype": "DT_FLOAT", "tensorShape": {"dim": [{"size": "40"}]}}}, "dtype": {"type": "DT_FLOAT"}}}, {"name": "StatefulPartitionedCall/model/MobileNetV3_Small/StatefulPartitionedCall/StatefulPartitionedCall/Bneck/Bneck4/Bneck4/Bneck/Expand/Conv1x1/Conv2D_weights", "op": "Const", "attr": {"dtype": {"type": "DT_FLOAT"}, "value": {"tensor": {"dtype": "DT_FLOAT", "tensorShape": {"dim": [{"size": "1"}, {"size": "1"}, {"size": "40"}, {"size": "240"}]}}}}}, {"name": "StatefulPartitionedCall/model/MobileNetV3_Small/StatefulPartitionedCall/StatefulPartitionedCall/Bneck/Bneck4/Bneck4/Bneck/Expand/Conv1x1/Conv2D_bn_offset", "op": "Const", "attr": {"dtype": {"type": "DT_FLOAT"}, "value": {"tensor": {"dtype": "DT_FLOAT", "tensorShape": {"dim": [{"size": "240"}]}}}}}, {"name": "StatefulPartitionedCall/model/MobileNetV3_Small/StatefulPartitionedCall/StatefulPartitionedCall/Bneck/Bneck4/Bneck4/Bneck/Depthwise/DWConv5x5/depthwise_weights", "op": "Const", "attr": {"dtype": {"type": "DT_FLOAT"}, "value": {"tensor": {"dtype": "DT_FLOAT", "tensorShape": {"dim": [{"size": "5"}, {"size": "5"}, {"size": "240"}, {"size": "1"}]}}}}}, {"name": "StatefulPartitionedCall/model/MobileNetV3_Small/StatefulPartitionedCall/StatefulPartitionedCall/Bneck/Bneck4/Bneck4/Bneck/Depthwise/DWConv5x5/depthwise_bn_offset", "op": "Const", "attr": {"value": {"tensor": {"dtype": "DT_FLOAT", "tensorShape": {"dim": [{"size": "240"}]}}}, "dtype": {"type": "DT_FLOAT"}}}, {"name": "StatefulPartitionedCall/model/MobileNetV3_Small/StatefulPartitionedCall/StatefulPartitionedCall/Bneck/Bneck4/Bneck4/Bneck/Project/Conv1x1/Conv2D_weights", "op": "Const", "attr": {"value": {"tensor": {"dtype": "DT_FLOAT", "tensorShape": {"dim": [{"size": "1"}, {"size": "1"}, {"size": "240"}, {"size": "40"}]}}}, "dtype": {"type": "DT_FLOAT"}}}, {"name": "StatefulPartitionedCall/model/MobileNetV3_Small/StatefulPartitionedCall/StatefulPartitionedCall/Bneck/Bneck4/Bneck4/Bneck/Project/Conv1x1/Conv2D_bn_offset", "op": "Const", "attr": {"dtype": {"type": "DT_FLOAT"}, "value": {"tensor": {"dtype": "DT_FLOAT", "tensorShape": {"dim": [{"size": "40"}]}}}}}, {"name": "StatefulPartitionedCall/model/MobileNetV3_Small/StatefulPartitionedCall/StatefulPartitionedCall/Bneck/Bneck5/Bneck5/Bneck/Expand/Conv1x1/Conv2D_weights", "op": "Const", "attr": {"value": {"tensor": {"dtype": "DT_FLOAT", "tensorShape": {"dim": [{"size": "1"}, {"size": "1"}, {"size": "40"}, {"size": "240"}]}}}, "dtype": {"type": "DT_FLOAT"}}}, {"name": "StatefulPartitionedCall/model/MobileNetV3_Small/StatefulPartitionedCall/StatefulPartitionedCall/Bneck/Bneck5/Bneck5/Bneck/Expand/Conv1x1/Conv2D_bn_offset", "op": "Const", "attr": {"value": {"tensor": {"dtype": "DT_FLOAT", "tensorShape": {"dim": [{"size": "240"}]}}}, "dtype": {"type": "DT_FLOAT"}}}, {"name": "StatefulPartitionedCall/model/MobileNetV3_Small/StatefulPartitionedCall/StatefulPartitionedCall/Bneck/Bneck5/Bneck5/Bneck/Depthwise/DWConv5x5/depthwise_weights", "op": "Const", "attr": {"dtype": {"type": "DT_FLOAT"}, "value": {"tensor": {"dtype": "DT_FLOAT", "tensorShape": {"dim": [{"size": "5"}, {"size": "5"}, {"size": "240"}, {"size": "1"}]}}}}}, {"name": "StatefulPartitionedCall/model/MobileNetV3_Small/StatefulPartitionedCall/StatefulPartitionedCall/Bneck/Bneck5/Bneck5/Bneck/Depthwise/DWConv5x5/depthwise_bn_offset", "op": "Const", "attr": {"dtype": {"type": "DT_FLOAT"}, "value": {"tensor": {"dtype": "DT_FLOAT", "tensorShape": {"dim": [{"size": "240"}]}}}}}, {"name": "StatefulPartitionedCall/model/MobileNetV3_Small/StatefulPartitionedCall/StatefulPartitionedCall/Bneck/Bneck5/Bneck5/Bneck/Project/Conv1x1/Conv2D_weights", "op": "Const", "attr": {"dtype": {"type": "DT_FLOAT"}, "value": {"tensor": {"dtype": "DT_FLOAT", "tensorShape": {"dim": [{"size": "1"}, {"size": "1"}, {"size": "240"}, {"size": "40"}]}}}}}, {"name": "StatefulPartitionedCall/model/MobileNetV3_Small/StatefulPartitionedCall/StatefulPartitionedCall/Bneck/Bneck5/Bneck5/Bneck/Project/Conv1x1/Conv2D_bn_offset", "op": "Const", "attr": {"value": {"tensor": {"dtype": "DT_FLOAT", "tensorShape": {"dim": [{"size": "40"}]}}}, "dtype": {"type": "DT_FLOAT"}}}, {"name": "StatefulPartitionedCall/model/MobileNetV3_Small/StatefulPartitionedCall/StatefulPartitionedCall/Bneck/Bneck6/Bneck6/Bneck/Expand/Conv1x1/Conv2D_weights", "op": "Const", "attr": {"value": {"tensor": {"dtype": "DT_FLOAT", "tensorShape": {"dim": [{"size": "1"}, {"size": "1"}, {"size": "40"}, {"size": "120"}]}}}, "dtype": {"type": "DT_FLOAT"}}}, {"name": "StatefulPartitionedCall/model/MobileNetV3_Small/StatefulPartitionedCall/StatefulPartitionedCall/Bneck/Bneck6/Bneck6/Bneck/Expand/Conv1x1/Conv2D_bn_offset", "op": "Const", "attr": {"value": {"tensor": {"dtype": "DT_FLOAT", "tensorShape": {"dim": [{"size": "120"}]}}}, "dtype": {"type": "DT_FLOAT"}}}, {"name": "StatefulPartitionedCall/model/MobileNetV3_Small/StatefulPartitionedCall/StatefulPartitionedCall/Bneck/Bneck6/Bneck6/Bneck/Depthwise/DWConv5x5/depthwise_weights", "op": "Const", "attr": {"value": {"tensor": {"dtype": "DT_FLOAT", "tensorShape": {"dim": [{"size": "5"}, {"size": "5"}, {"size": "120"}, {"size": "1"}]}}}, "dtype": {"type": "DT_FLOAT"}}}, {"name": "StatefulPartitionedCall/model/MobileNetV3_Small/StatefulPartitionedCall/StatefulPartitionedCall/Bneck/Bneck6/Bneck6/Bneck/Depthwise/DWConv5x5/depthwise_bn_offset", "op": "Const", "attr": {"dtype": {"type": "DT_FLOAT"}, "value": {"tensor": {"dtype": "DT_FLOAT", "tensorShape": {"dim": [{"size": "120"}]}}}}}, {"name": "StatefulPartitionedCall/model/MobileNetV3_Small/StatefulPartitionedCall/StatefulPartitionedCall/Bneck/Bneck6/Bneck6/Bneck/Project/Conv1x1/Conv2D_weights", "op": "Const", "attr": {"dtype": {"type": "DT_FLOAT"}, "value": {"tensor": {"dtype": "DT_FLOAT", "tensorShape": {"dim": [{"size": "1"}, {"size": "1"}, {"size": "120"}, {"size": "48"}]}}}}}, {"name": "StatefulPartitionedCall/model/MobileNetV3_Small/StatefulPartitionedCall/StatefulPartitionedCall/Bneck/Bneck6/Bneck6/Bneck/Project/Conv1x1/Conv2D_bn_offset", "op": "Const", "attr": {"value": {"tensor": {"dtype": "DT_FLOAT", "tensorShape": {"dim": [{"size": "48"}]}}}, "dtype": {"type": "DT_FLOAT"}}}, {"name": "StatefulPartitionedCall/model/MobileNetV3_Small/StatefulPartitionedCall/StatefulPartitionedCall/Bneck/Bneck7/Bneck7/Bneck/Expand/Conv1x1/Conv2D_weights", "op": "Const", "attr": {"dtype": {"type": "DT_FLOAT"}, "value": {"tensor": {"dtype": "DT_FLOAT", "tensorShape": {"dim": [{"size": "1"}, {"size": "1"}, {"size": "48"}, {"size": "144"}]}}}}}, {"name": "StatefulPartitionedCall/model/MobileNetV3_Small/StatefulPartitionedCall/StatefulPartitionedCall/Bneck/Bneck7/Bneck7/Bneck/Expand/Conv1x1/Conv2D_bn_offset", "op": "Const", "attr": {"value": {"tensor": {"dtype": "DT_FLOAT", "tensorShape": {"dim": [{"size": "144"}]}}}, "dtype": {"type": "DT_FLOAT"}}}, {"name": "StatefulPartitionedCall/model/MobileNetV3_Small/StatefulPartitionedCall/StatefulPartitionedCall/Bneck/Bneck7/Bneck7/Bneck/Depthwise/DWConv5x5/depthwise_weights", "op": "Const", "attr": {"dtype": {"type": "DT_FLOAT"}, "value": {"tensor": {"dtype": "DT_FLOAT", "tensorShape": {"dim": [{"size": "5"}, {"size": "5"}, {"size": "144"}, {"size": "1"}]}}}}}, {"name": "StatefulPartitionedCall/model/MobileNetV3_Small/StatefulPartitionedCall/StatefulPartitionedCall/Bneck/Bneck7/Bneck7/Bneck/Depthwise/DWConv5x5/depthwise_bn_offset", "op": "Const", "attr": {"value": {"tensor": {"dtype": "DT_FLOAT", "tensorShape": {"dim": [{"size": "144"}]}}}, "dtype": {"type": "DT_FLOAT"}}}, {"name": "StatefulPartitionedCall/model/MobileNetV3_Small/StatefulPartitionedCall/StatefulPartitionedCall/Bneck/Bneck7/Bneck7/Bneck/Project/Conv1x1/Conv2D_weights", "op": "Const", "attr": {"dtype": {"type": "DT_FLOAT"}, "value": {"tensor": {"dtype": "DT_FLOAT", "tensorShape": {"dim": [{"size": "1"}, {"size": "1"}, {"size": "144"}, {"size": "48"}]}}}}}, {"name": "StatefulPartitionedCall/model/MobileNetV3_Small/StatefulPartitionedCall/StatefulPartitionedCall/Bneck/Bneck7/Bneck7/Bneck/Project/Conv1x1/Conv2D_bn_offset", "op": "Const", "attr": {"value": {"tensor": {"dtype": "DT_FLOAT", "tensorShape": {"dim": [{"size": "48"}]}}}, "dtype": {"type": "DT_FLOAT"}}}, {"name": "StatefulPartitionedCall/model/MobileNetV3_Small/StatefulPartitionedCall/StatefulPartitionedCall/Bneck/Bneck8/Bneck8/Bneck/Expand/Conv1x1/Conv2D_weights", "op": "Const", "attr": {"value": {"tensor": {"dtype": "DT_FLOAT", "tensorShape": {"dim": [{"size": "1"}, {"size": "1"}, {"size": "48"}, {"size": "288"}]}}}, "dtype": {"type": "DT_FLOAT"}}}, {"name": "StatefulPartitionedCall/model/MobileNetV3_Small/StatefulPartitionedCall/StatefulPartitionedCall/Bneck/Bneck8/Bneck8/Bneck/Expand/Conv1x1/Conv2D_bn_offset", "op": "Const", "attr": {"value": {"tensor": {"dtype": "DT_FLOAT", "tensorShape": {"dim": [{"size": "288"}]}}}, "dtype": {"type": "DT_FLOAT"}}}, {"name": "StatefulPartitionedCall/model/MobileNetV3_Small/StatefulPartitionedCall/StatefulPartitionedCall/Bneck/Bneck8/Bneck8/Bneck/Depthwise/DWConv5x5/depthwise_weights", "op": "Const", "attr": {"value": {"tensor": {"dtype": "DT_FLOAT", "tensorShape": {"dim": [{"size": "5"}, {"size": "5"}, {"size": "288"}, {"size": "1"}]}}}, "dtype": {"type": "DT_FLOAT"}}}, {"name": "StatefulPartitionedCall/model/MobileNetV3_Small/StatefulPartitionedCall/StatefulPartitionedCall/Bneck/Bneck8/Bneck8/Bneck/Depthwise/DWConv5x5/depthwise_bn_offset", "op": "Const", "attr": {"value": {"tensor": {"dtype": "DT_FLOAT", "tensorShape": {"dim": [{"size": "288"}]}}}, "dtype": {"type": "DT_FLOAT"}}}, {"name": "StatefulPartitionedCall/model/MobileNetV3_Small/StatefulPartitionedCall/StatefulPartitionedCall/Bneck/Bneck8/Bneck8/Bneck/Project/Conv1x1/Conv2D_weights", "op": "Const", "attr": {"dtype": {"type": "DT_FLOAT"}, "value": {"tensor": {"dtype": "DT_FLOAT", "tensorShape": {"dim": [{"size": "1"}, {"size": "1"}, {"size": "288"}, {"size": "96"}]}}}}}, {"name": "StatefulPartitionedCall/model/MobileNetV3_Small/StatefulPartitionedCall/StatefulPartitionedCall/Bneck/Bneck8/Bneck8/Bneck/Project/Conv1x1/Conv2D_bn_offset", "op": "Const", "attr": {"dtype": {"type": "DT_FLOAT"}, "value": {"tensor": {"dtype": "DT_FLOAT", "tensorShape": {"dim": [{"size": "96"}]}}}}}, {"name": "StatefulPartitionedCall/model/MobileNetV3_Small/StatefulPartitionedCall/StatefulPartitionedCall/Bneck/Bneck9/Bneck9/Bneck/Expand/Conv1x1/Conv2D_weights", "op": "Const", "attr": {"value": {"tensor": {"dtype": "DT_FLOAT", "tensorShape": {"dim": [{"size": "1"}, {"size": "1"}, {"size": "96"}, {"size": "576"}]}}}, "dtype": {"type": "DT_FLOAT"}}}, {"name": "StatefulPartitionedCall/model/MobileNetV3_Small/StatefulPartitionedCall/StatefulPartitionedCall/Bneck/Bneck9/Bneck9/Bneck/Expand/Conv1x1/Conv2D_bn_offset", "op": "Const", "attr": {"dtype": {"type": "DT_FLOAT"}, "value": {"tensor": {"dtype": "DT_FLOAT", "tensorShape": {"dim": [{"size": "576"}]}}}}}, {"name": "StatefulPartitionedCall/model/MobileNetV3_Small/StatefulPartitionedCall/StatefulPartitionedCall/Bneck/Bneck9/Bneck9/Bneck/Depthwise/DWConv5x5/depthwise_weights", "op": "Const", "attr": {"dtype": {"type": "DT_FLOAT"}, "value": {"tensor": {"dtype": "DT_FLOAT", "tensorShape": {"dim": [{"size": "5"}, {"size": "5"}, {"size": "576"}, {"size": "1"}]}}}}}, {"name": "StatefulPartitionedCall/model/MobileNetV3_Small/StatefulPartitionedCall/StatefulPartitionedCall/Bneck/Bneck9/Bneck9/Bneck/Depthwise/DWConv5x5/depthwise_bn_offset", "op": "Const", "attr": {"dtype": {"type": "DT_FLOAT"}, "value": {"tensor": {"dtype": "DT_FLOAT", "tensorShape": {"dim": [{"size": "576"}]}}}}}, {"name": "StatefulPartitionedCall/model/MobileNetV3_Small/StatefulPartitionedCall/StatefulPartitionedCall/Bneck/Bneck9/Bneck9/Bneck/Project/Conv1x1/Conv2D_weights", "op": "Const", "attr": {"dtype": {"type": "DT_FLOAT"}, "value": {"tensor": {"dtype": "DT_FLOAT", "tensorShape": {"dim": [{"size": "1"}, {"size": "1"}, {"size": "576"}, {"size": "96"}]}}}}}, {"name": "StatefulPartitionedCall/model/MobileNetV3_Small/StatefulPartitionedCall/StatefulPartitionedCall/Bneck/Bneck9/Bneck9/Bneck/Project/Conv1x1/Conv2D_bn_offset", "op": "Const", "attr": {"dtype": {"type": "DT_FLOAT"}, "value": {"tensor": {"dtype": "DT_FLOAT", "tensorShape": {"dim": [{"size": "96"}]}}}}}, {"name": "StatefulPartitionedCall/model/MobileNetV3_Small/StatefulPartitionedCall/StatefulPartitionedCall/Bneck/Bneck10/Bneck10/Bneck/Expand/Conv1x1/Conv2D_weights", "op": "Const", "attr": {"value": {"tensor": {"dtype": "DT_FLOAT", "tensorShape": {"dim": [{"size": "1"}, {"size": "1"}, {"size": "96"}, {"size": "576"}]}}}, "dtype": {"type": "DT_FLOAT"}}}, {"name": "StatefulPartitionedCall/model/MobileNetV3_Small/StatefulPartitionedCall/StatefulPartitionedCall/Bneck/Bneck10/Bneck10/Bneck/Expand/Conv1x1/Conv2D_bn_offset", "op": "Const", "attr": {"dtype": {"type": "DT_FLOAT"}, "value": {"tensor": {"dtype": "DT_FLOAT", "tensorShape": {"dim": [{"size": "576"}]}}}}}, {"name": "StatefulPartitionedCall/model/MobileNetV3_Small/StatefulPartitionedCall/StatefulPartitionedCall/Bneck/Bneck10/Bneck10/Bneck/Depthwise/DWConv5x5/depthwise_weights", "op": "Const", "attr": {"value": {"tensor": {"dtype": "DT_FLOAT", "tensorShape": {"dim": [{"size": "5"}, {"size": "5"}, {"size": "576"}, {"size": "1"}]}}}, "dtype": {"type": "DT_FLOAT"}}}, {"name": "StatefulPartitionedCall/model/MobileNetV3_Small/StatefulPartitionedCall/StatefulPartitionedCall/Bneck/Bneck10/Bneck10/Bneck/Depthwise/DWConv5x5/depthwise_bn_offset", "op": "Const", "attr": {"dtype": {"type": "DT_FLOAT"}, "value": {"tensor": {"dtype": "DT_FLOAT", "tensorShape": {"dim": [{"size": "576"}]}}}}}, {"name": "ConstantFolding/StatefulPartitionedCall/model/MobileNetV3_Small/StatefulPartitionedCall/StatefulPartitionedCall/LastStage/ConvNormAct/HardSwish/HardSigmoid/truediv_1_recip", "op": "Const", "input": ["^input_1"], "attr": {"dtype": {"type": "DT_FLOAT"}, "value": {"tensor": {"dtype": "DT_FLOAT", "tensorShape": {}}}}}, {"name": "ConstantFolding/StatefulPartitionedCall/model/MobileNetV3_Small/StatefulPartitionedCall/StatefulPartitionedCall/LastStage/ConvNormAct/HardSwish/HardSigmoid/truediv_recip", "op": "Const", "input": ["^input_1"], "attr": {"dtype": {"type": "DT_FLOAT"}, "value": {"tensor": {"dtype": "DT_FLOAT", "tensorShape": {}}}}}, {"name": "ConstantFolding/StatefulPartitionedCall/model/MobileNetV3_Small/StatefulPartitionedCall/StatefulPartitionedCall/Bneck/Bneck10/Bneck10/Bneck/Depthwise/HardSwish/HardSigmoid/truediv_recip", "op": "Const", "input": ["^input_1"], "attr": {"value": {"tensor": {"dtype": "DT_FLOAT", "tensorShape": {}}}, "dtype": {"type": "DT_FLOAT"}}}, {"name": "ConstantFolding/StatefulPartitionedCall/model/MobileNetV3_Small/StatefulPartitionedCall/StatefulPartitionedCall/Bneck/Bneck10/Bneck10/Bneck/Expand/HardSwish/HardSigmoid/truediv_recip", "op": "Const", "input": ["^input_1"], "attr": {"value": {"tensor": {"dtype": "DT_FLOAT", "tensorShape": {}}}, "dtype": {"type": "DT_FLOAT"}}}, {"name": "ConstantFolding/StatefulPartitionedCall/model/MobileNetV3_Small/StatefulPartitionedCall/StatefulPartitionedCall/Bneck/Bneck9/Bneck9/Bneck/Depthwise/HardSwish/HardSigmoid/truediv_recip", "op": "Const", "input": ["^input_1"], "attr": {"dtype": {"type": "DT_FLOAT"}, "value": {"tensor": {"dtype": "DT_FLOAT", "tensorShape": {}}}}}, {"name": "ConstantFolding/StatefulPartitionedCall/model/MobileNetV3_Small/StatefulPartitionedCall/StatefulPartitionedCall/Bneck/Bneck9/Bneck9/Bneck/Expand/HardSwish/HardSigmoid/truediv_recip", "op": "Const", "input": ["^input_1"], "attr": {"dtype": {"type": "DT_FLOAT"}, "value": {"tensor": {"dtype": "DT_FLOAT", "tensorShape": {}}}}}, {"name": "ConstantFolding/StatefulPartitionedCall/model/MobileNetV3_Small/StatefulPartitionedCall/StatefulPartitionedCall/Bneck/Bneck8/Bneck8/Bneck/Depthwise/HardSwish/HardSigmoid/truediv_recip", "op": "Const", "input": ["^input_1"], "attr": {"value": {"tensor": {"dtype": "DT_FLOAT", "tensorShape": {}}}, "dtype": {"type": "DT_FLOAT"}}}, {"name": "ConstantFolding/StatefulPartitionedCall/model/MobileNetV3_Small/StatefulPartitionedCall/StatefulPartitionedCall/Bneck/Bneck8/Bneck8/Bneck/Expand/HardSwish/HardSigmoid/truediv_recip", "op": "Const", "input": ["^input_1"], "attr": {"dtype": {"type": "DT_FLOAT"}, "value": {"tensor": {"dtype": "DT_FLOAT", "tensorShape": {}}}}}, {"name": "ConstantFolding/StatefulPartitionedCall/model/MobileNetV3_Small/StatefulPartitionedCall/StatefulPartitionedCall/Bneck/Bneck7/Bneck7/Bneck/Depthwise/HardSwish/HardSigmoid/truediv_recip", "op": "Const", "input": ["^input_1"], "attr": {"dtype": {"type": "DT_FLOAT"}, "value": {"tensor": {"dtype": "DT_FLOAT", "tensorShape": {}}}}}, {"name": "ConstantFolding/StatefulPartitionedCall/model/MobileNetV3_Small/StatefulPartitionedCall/StatefulPartitionedCall/Bneck/Bneck7/Bneck7/Bneck/Expand/HardSwish/HardSigmoid/truediv_recip", "op": "Const", "input": ["^input_1"], "attr": {"value": {"tensor": {"dtype": "DT_FLOAT", "tensorShape": {}}}, "dtype": {"type": "DT_FLOAT"}}}, {"name": "ConstantFolding/StatefulPartitionedCall/model/MobileNetV3_Small/StatefulPartitionedCall/StatefulPartitionedCall/Bneck/Bneck6/Bneck6/Bneck/Depthwise/HardSwish/HardSigmoid/truediv_recip", "op": "Const", "input": ["^input_1"], "attr": {"dtype": {"type": "DT_FLOAT"}, "value": {"tensor": {"dtype": "DT_FLOAT", "tensorShape": {}}}}}, {"name": "ConstantFolding/StatefulPartitionedCall/model/MobileNetV3_Small/StatefulPartitionedCall/StatefulPartitionedCall/Bneck/Bneck6/Bneck6/Bneck/Expand/HardSwish/HardSigmoid/truediv_recip", "op": "Const", "input": ["^input_1"], "attr": {"value": {"tensor": {"dtype": "DT_FLOAT", "tensorShape": {}}}, "dtype": {"type": "DT_FLOAT"}}}, {"name": "ConstantFolding/StatefulPartitionedCall/model/MobileNetV3_Small/StatefulPartitionedCall/StatefulPartitionedCall/Bneck/Bneck5/Bneck5/Bneck/Depthwise/HardSwish/HardSigmoid/truediv_recip", "op": "Const", "input": ["^input_1"], "attr": {"dtype": {"type": "DT_FLOAT"}, "value": {"tensor": {"dtype": "DT_FLOAT", "tensorShape": {}}}}}, {"name": "ConstantFolding/StatefulPartitionedCall/model/MobileNetV3_Small/StatefulPartitionedCall/StatefulPartitionedCall/Bneck/Bneck5/Bneck5/Bneck/Expand/HardSwish/HardSigmoid/truediv_recip", "op": "Const", "input": ["^input_1"], "attr": {"value": {"tensor": {"dtype": "DT_FLOAT", "tensorShape": {}}}, "dtype": {"type": "DT_FLOAT"}}}, {"name": "ConstantFolding/StatefulPartitionedCall/model/MobileNetV3_Small/StatefulPartitionedCall/StatefulPartitionedCall/Bneck/Bneck4/Bneck4/Bneck/Depthwise/HardSwish/HardSigmoid/truediv_recip", "op": "Const", "input": ["^input_1"], "attr": {"value": {"tensor": {"dtype": "DT_FLOAT", "tensorShape": {}}}, "dtype": {"type": "DT_FLOAT"}}}, {"name": "ConstantFolding/StatefulPartitionedCall/model/MobileNetV3_Small/StatefulPartitionedCall/StatefulPartitionedCall/Bneck/Bneck4/Bneck4/Bneck/Expand/HardSwish/HardSigmoid/truediv_recip", "op": "Const", "input": ["^input_1"], "attr": {"dtype": {"type": "DT_FLOAT"}, "value": {"tensor": {"dtype": "DT_FLOAT", "tensorShape": {}}}}}, {"name": "ConstantFolding/StatefulPartitionedCall/model/MobileNetV3_Small/StatefulPartitionedCall/StatefulPartitionedCall/Bneck/Bneck3/Bneck3/Bneck/Depthwise/HardSwish/HardSigmoid/truediv_recip", "op": "Const", "input": ["^input_1"], "attr": {"value": {"tensor": {"dtype": "DT_FLOAT", "tensorShape": {}}}, "dtype": {"type": "DT_FLOAT"}}}, {"name": "ConstantFolding/StatefulPartitionedCall/model/MobileNetV3_Small/StatefulPartitionedCall/StatefulPartitionedCall/Bneck/Bneck3/Bneck3/Bneck/Expand/HardSwish/HardSigmoid/truediv_recip", "op": "Const", "input": ["^input_1"], "attr": {"value": {"tensor": {"dtype": "DT_FLOAT", "tensorShape": {}}}, "dtype": {"type": "DT_FLOAT"}}}, {"name": "ConstantFolding/StatefulPartitionedCall/model/MobileNetV3_Small/StatefulPartitionedCall/StatefulPartitionedCall/FirstLayer/HardSwish/HardSigmoid/truediv_recip", "op": "Const", "input": ["^input_1"], "attr": {"value": {"tensor": {"dtype": "DT_FLOAT", "tensorShape": {}}}, "dtype": {"type": "DT_FLOAT"}}}, {"name": "StatefulPartitionedCall/model/MobileNetV3_Small/StatefulPartitionedCall/StatefulPartitionedCall/FirstLayer/Padding1x1/Pad/paddings", "op": "Const", "input": ["^input_1"], "attr": {"value": {"tensor": {"dtype": "DT_INT32", "tensorShape": {"dim": [{"size": "4"}, {"size": "2"}]}}}, "dtype": {"type": "DT_INT32"}}}, {"name": "StatefulPartitionedCall/model/MobileNetV3_Small/StatefulPartitionedCall/StatefulPartitionedCall/FirstLayer/HardSwish/HardSigmoid/add/y", "op": "Const", "input": ["^input_1"], "attr": {"value": {"tensor": {"dtype": "DT_FLOAT", "tensorShape": {}}}, "dtype": {"type": "DT_FLOAT"}}}, {"name": "StatefulPartitionedCall/model/MobileNetV3_Small/StatefulPartitionedCall/StatefulPartitionedCall/Bneck/Bneck0/Bneck0/Bneck/Depthwise/Padding1x1/Pad/paddings", "op": "Const", "input": ["^input_1"], "attr": {"value": {"tensor": {"dtype": "DT_INT32", "tensorShape": {"dim": [{"size": "4"}, {"size": "2"}]}}}, "dtype": {"type": "DT_INT32"}}}, {"name": "StatefulPartitionedCall/model/MobileNetV3_Small/StatefulPartitionedCall/StatefulPartitionedCall/Bneck/Bneck0/Bneck0/Bneck/Depthwise/SEBottleneck/Squeeze/Conv1x1/Conv2D/ReadVariableOp", "op": "Const", "input": ["^input_1"], "attr": {"value": {"tensor": {"dtype": "DT_FLOAT", "tensorShape": {"dim": [{"size": "1"}, {"size": "1"}, {"size": "16"}, {"size": "4"}]}}}, "dtype": {"type": "DT_FLOAT"}}}, {"name": "StatefulPartitionedCall/model/MobileNetV3_Small/StatefulPartitionedCall/StatefulPartitionedCall/Bneck/Bneck0/Bneck0/Bneck/Depthwise/SEBottleneck/Excite/Conv1x1/Conv2D/ReadVariableOp", "op": "Const", "input": ["^input_1"], "attr": {"value": {"tensor": {"dtype": "DT_FLOAT", "tensorShape": {"dim": [{"size": "1"}, {"size": "1"}, {"size": "4"}, {"size": "16"}]}}}, "dtype": {"type": "DT_FLOAT"}}}, {"name": "StatefulPartitionedCall/model/MobileNetV3_Small/StatefulPartitionedCall/StatefulPartitionedCall/Bneck/Bneck0/Bneck0/Bneck/Depthwise/SEBottleneck/Excite/HardSigmoid/add/y", "op": "Const", "input": ["^input_1"], "attr": {"value": {"tensor": {"dtype": "DT_FLOAT", "tensorShape": {}}}, "dtype": {"type": "DT_FLOAT"}}}, {"name": "ConstantFolding/StatefulPartitionedCall/model/MobileNetV3_Small/StatefulPartitionedCall/StatefulPartitionedCall/Bneck/Bneck0/Bneck0/Bneck/Depthwise/SEBottleneck/Excite/HardSigmoid/truediv_recip", "op": "Const", "input": ["^input_1"], "attr": {"dtype": {"type": "DT_FLOAT"}, "value": {"tensor": {"dtype": "DT_FLOAT", "tensorShape": {}}}}}, {"name": "StatefulPartitionedCall/model/MobileNetV3_Small/StatefulPartitionedCall/StatefulPartitionedCall/Bneck/Bneck1/Bneck1/Bneck/Depthwise/Padding1x1/Pad/paddings", "op": "Const", "input": ["^input_1"], "attr": {"value": {"tensor": {"dtype": "DT_INT32", "tensorShape": {"dim": [{"size": "4"}, {"size": "2"}]}}}, "dtype": {"type": "DT_INT32"}}}, {"name": "StatefulPartitionedCall/model/MobileNetV3_Small/StatefulPartitionedCall/StatefulPartitionedCall/Bneck/Bneck2/Bneck2/Bneck/Depthwise/Padding1x1/Pad/paddings", "op": "Const", "input": ["^input_1"], "attr": {"dtype": {"type": "DT_INT32"}, "value": {"tensor": {"dtype": "DT_INT32", "tensorShape": {"dim": [{"size": "4"}, {"size": "2"}]}}}}}, {"name": "StatefulPartitionedCall/model/MobileNetV3_Small/StatefulPartitionedCall/StatefulPartitionedCall/Bneck/Bneck3/Bneck3/Bneck/Expand/HardSwish/HardSigmoid/add/y", "op": "Const", "input": ["^input_1"], "attr": {"value": {"tensor": {"dtype": "DT_FLOAT", "tensorShape": {}}}, "dtype": {"type": "DT_FLOAT"}}}, {"name": "StatefulPartitionedCall/model/MobileNetV3_Small/StatefulPartitionedCall/StatefulPartitionedCall/Bneck/Bneck3/Bneck3/Bneck/Depthwise/Padding2x2/Pad/paddings", "op": "Const", "input": ["^input_1"], "attr": {"dtype": {"type": "DT_INT32"}, "value": {"tensor": {"dtype": "DT_INT32", "tensorShape": {"dim": [{"size": "4"}, {"size": "2"}]}}}}}, {"name": "StatefulPartitionedCall/model/MobileNetV3_Small/StatefulPartitionedCall/StatefulPartitionedCall/Bneck/Bneck3/Bneck3/Bneck/Depthwise/SEBottleneck/Squeeze/Conv1x1/Conv2D/ReadVariableOp", "op": "Const", "input": ["^input_1"], "attr": {"value": {"tensor": {"dtype": "DT_FLOAT", "tensorShape": {"dim": [{"size": "1"}, {"size": "1"}, {"size": "96"}, {"size": "24"}]}}}, "dtype": {"type": "DT_FLOAT"}}}, {"name": "StatefulPartitionedCall/model/MobileNetV3_Small/StatefulPartitionedCall/StatefulPartitionedCall/Bneck/Bneck3/Bneck3/Bneck/Depthwise/SEBottleneck/Excite/Conv1x1/Conv2D/ReadVariableOp", "op": "Const", "input": ["^input_1"], "attr": {"value": {"tensor": {"dtype": "DT_FLOAT", "tensorShape": {"dim": [{"size": "1"}, {"size": "1"}, {"size": "24"}, {"size": "96"}]}}}, "dtype": {"type": "DT_FLOAT"}}}, {"name": "StatefulPartitionedCall/model/MobileNetV3_Small/StatefulPartitionedCall/StatefulPartitionedCall/Bneck/Bneck3/Bneck3/Bneck/Depthwise/SEBottleneck/Excite/HardSigmoid/add/y", "op": "Const", "input": ["^input_1"], "attr": {"dtype": {"type": "DT_FLOAT"}, "value": {"tensor": {"dtype": "DT_FLOAT", "tensorShape": {}}}}}, {"name": "ConstantFolding/StatefulPartitionedCall/model/MobileNetV3_Small/StatefulPartitionedCall/StatefulPartitionedCall/Bneck/Bneck3/Bneck3/Bneck/Depthwise/SEBottleneck/Excite/HardSigmoid/truediv_recip", "op": "Const", "input": ["^input_1"], "attr": {"value": {"tensor": {"dtype": "DT_FLOAT", "tensorShape": {}}}, "dtype": {"type": "DT_FLOAT"}}}, {"name": "StatefulPartitionedCall/model/MobileNetV3_Small/StatefulPartitionedCall/StatefulPartitionedCall/Bneck/Bneck3/Bneck3/Bneck/Depthwise/HardSwish/HardSigmoid/add/y", "op": "Const", "input": ["^input_1"], "attr": {"dtype": {"type": "DT_FLOAT"}, "value": {"tensor": {"dtype": "DT_FLOAT", "tensorShape": {}}}}}, {"name": "StatefulPartitionedCall/model/MobileNetV3_Small/StatefulPartitionedCall/StatefulPartitionedCall/Bneck/Bneck4/Bneck4/Bneck/Expand/HardSwish/HardSigmoid/add/y", "op": "Const", "input": ["^input_1"], "attr": {"value": {"tensor": {"dtype": "DT_FLOAT", "tensorShape": {}}}, "dtype": {"type": "DT_FLOAT"}}}, {"name": "StatefulPartitionedCall/model/MobileNetV3_Small/StatefulPartitionedCall/StatefulPartitionedCall/Bneck/Bneck4/Bneck4/Bneck/Depthwise/Padding2x2/Pad/paddings", "op": "Const", "input": ["^input_1"], "attr": {"dtype": {"type": "DT_INT32"}, "value": {"tensor": {"dtype": "DT_INT32", "tensorShape": {"dim": [{"size": "4"}, {"size": "2"}]}}}}}, {"name": "StatefulPartitionedCall/model/MobileNetV3_Small/StatefulPartitionedCall/StatefulPartitionedCall/Bneck/Bneck4/Bneck4/Bneck/Depthwise/SEBottleneck/Squeeze/Conv1x1/Conv2D/ReadVariableOp", "op": "Const", "input": ["^input_1"], "attr": {"dtype": {"type": "DT_FLOAT"}, "value": {"tensor": {"dtype": "DT_FLOAT", "tensorShape": {"dim": [{"size": "1"}, {"size": "1"}, {"size": "240"}, {"size": "60"}]}}}}}, {"name": "StatefulPartitionedCall/model/MobileNetV3_Small/StatefulPartitionedCall/StatefulPartitionedCall/Bneck/Bneck4/Bneck4/Bneck/Depthwise/SEBottleneck/Excite/Conv1x1/Conv2D/ReadVariableOp", "op": "Const", "input": ["^input_1"], "attr": {"value": {"tensor": {"dtype": "DT_FLOAT", "tensorShape": {"dim": [{"size": "1"}, {"size": "1"}, {"size": "60"}, {"size": "240"}]}}}, "dtype": {"type": "DT_FLOAT"}}}, {"name": "StatefulPartitionedCall/model/MobileNetV3_Small/StatefulPartitionedCall/StatefulPartitionedCall/Bneck/Bneck4/Bneck4/Bneck/Depthwise/SEBottleneck/Excite/HardSigmoid/add/y", "op": "Const", "input": ["^input_1"], "attr": {"dtype": {"type": "DT_FLOAT"}, "value": {"tensor": {"dtype": "DT_FLOAT", "tensorShape": {}}}}}, {"name": "ConstantFolding/StatefulPartitionedCall/model/MobileNetV3_Small/StatefulPartitionedCall/StatefulPartitionedCall/Bneck/Bneck4/Bneck4/Bneck/Depthwise/SEBottleneck/Excite/HardSigmoid/truediv_recip", "op": "Const", "input": ["^input_1"], "attr": {"value": {"tensor": {"dtype": "DT_FLOAT", "tensorShape": {}}}, "dtype": {"type": "DT_FLOAT"}}}, {"name": "StatefulPartitionedCall/model/MobileNetV3_Small/StatefulPartitionedCall/StatefulPartitionedCall/Bneck/Bneck4/Bneck4/Bneck/Depthwise/HardSwish/HardSigmoid/add/y", "op": "Const", "input": ["^input_1"], "attr": {"dtype": {"type": "DT_FLOAT"}, "value": {"tensor": {"dtype": "DT_FLOAT", "tensorShape": {}}}}}, {"name": "StatefulPartitionedCall/model/MobileNetV3_Small/StatefulPartitionedCall/StatefulPartitionedCall/Bneck/Bneck5/Bneck5/Bneck/Expand/HardSwish/HardSigmoid/add/y", "op": "Const", "input": ["^input_1"], "attr": {"dtype": {"type": "DT_FLOAT"}, "value": {"tensor": {"dtype": "DT_FLOAT", "tensorShape": {}}}}}, {"name": "StatefulPartitionedCall/model/MobileNetV3_Small/StatefulPartitionedCall/StatefulPartitionedCall/Bneck/Bneck5/Bneck5/Bneck/Depthwise/Padding2x2/Pad/paddings", "op": "Const", "input": ["^input_1"], "attr": {"dtype": {"type": "DT_INT32"}, "value": {"tensor": {"dtype": "DT_INT32", "tensorShape": {"dim": [{"size": "4"}, {"size": "2"}]}}}}}, {"name": "StatefulPartitionedCall/model/MobileNetV3_Small/StatefulPartitionedCall/StatefulPartitionedCall/Bneck/Bneck5/Bneck5/Bneck/Depthwise/SEBottleneck/Squeeze/Conv1x1/Conv2D/ReadVariableOp", "op": "Const", "input": ["^input_1"], "attr": {"dtype": {"type": "DT_FLOAT"}, "value": {"tensor": {"dtype": "DT_FLOAT", "tensorShape": {"dim": [{"size": "1"}, {"size": "1"}, {"size": "240"}, {"size": "60"}]}}}}}, {"name": "StatefulPartitionedCall/model/MobileNetV3_Small/StatefulPartitionedCall/StatefulPartitionedCall/Bneck/Bneck5/Bneck5/Bneck/Depthwise/SEBottleneck/Excite/Conv1x1/Conv2D/ReadVariableOp", "op": "Const", "input": ["^input_1"], "attr": {"dtype": {"type": "DT_FLOAT"}, "value": {"tensor": {"dtype": "DT_FLOAT", "tensorShape": {"dim": [{"size": "1"}, {"size": "1"}, {"size": "60"}, {"size": "240"}]}}}}}, {"name": "StatefulPartitionedCall/model/MobileNetV3_Small/StatefulPartitionedCall/StatefulPartitionedCall/Bneck/Bneck5/Bneck5/Bneck/Depthwise/SEBottleneck/Excite/HardSigmoid/add/y", "op": "Const", "input": ["^input_1"], "attr": {"dtype": {"type": "DT_FLOAT"}, "value": {"tensor": {"dtype": "DT_FLOAT", "tensorShape": {}}}}}, {"name": "ConstantFolding/StatefulPartitionedCall/model/MobileNetV3_Small/StatefulPartitionedCall/StatefulPartitionedCall/Bneck/Bneck5/Bneck5/Bneck/Depthwise/SEBottleneck/Excite/HardSigmoid/truediv_recip", "op": "Const", "input": ["^input_1"], "attr": {"value": {"tensor": {"dtype": "DT_FLOAT", "tensorShape": {}}}, "dtype": {"type": "DT_FLOAT"}}}, {"name": "StatefulPartitionedCall/model/MobileNetV3_Small/StatefulPartitionedCall/StatefulPartitionedCall/Bneck/Bneck5/Bneck5/Bneck/Depthwise/HardSwish/HardSigmoid/add/y", "op": "Const", "input": ["^input_1"], "attr": {"dtype": {"type": "DT_FLOAT"}, "value": {"tensor": {"dtype": "DT_FLOAT", "tensorShape": {}}}}}, {"name": "StatefulPartitionedCall/model/MobileNetV3_Small/StatefulPartitionedCall/StatefulPartitionedCall/Bneck/Bneck6/Bneck6/Bneck/Expand/HardSwish/HardSigmoid/add/y", "op": "Const", "input": ["^input_1"], "attr": {"value": {"tensor": {"dtype": "DT_FLOAT", "tensorShape": {}}}, "dtype": {"type": "DT_FLOAT"}}}, {"name": "StatefulPartitionedCall/model/MobileNetV3_Small/StatefulPartitionedCall/StatefulPartitionedCall/Bneck/Bneck6/Bneck6/Bneck/Depthwise/Padding2x2/Pad/paddings", "op": "Const", "input": ["^input_1"], "attr": {"dtype": {"type": "DT_INT32"}, "value": {"tensor": {"dtype": "DT_INT32", "tensorShape": {"dim": [{"size": "4"}, {"size": "2"}]}}}}}, {"name": "StatefulPartitionedCall/model/MobileNetV3_Small/StatefulPartitionedCall/StatefulPartitionedCall/Bneck/Bneck6/Bneck6/Bneck/Depthwise/SEBottleneck/Squeeze/Conv1x1/Conv2D/ReadVariableOp", "op": "Const", "input": ["^input_1"], "attr": {"value": {"tensor": {"dtype": "DT_FLOAT", "tensorShape": {"dim": [{"size": "1"}, {"size": "1"}, {"size": "120"}, {"size": "30"}]}}}, "dtype": {"type": "DT_FLOAT"}}}, {"name": "StatefulPartitionedCall/model/MobileNetV3_Small/StatefulPartitionedCall/StatefulPartitionedCall/Bneck/Bneck6/Bneck6/Bneck/Depthwise/SEBottleneck/Excite/Conv1x1/Conv2D/ReadVariableOp", "op": "Const", "input": ["^input_1"], "attr": {"dtype": {"type": "DT_FLOAT"}, "value": {"tensor": {"dtype": "DT_FLOAT", "tensorShape": {"dim": [{"size": "1"}, {"size": "1"}, {"size": "30"}, {"size": "120"}]}}}}}, {"name": "StatefulPartitionedCall/model/MobileNetV3_Small/StatefulPartitionedCall/StatefulPartitionedCall/Bneck/Bneck6/Bneck6/Bneck/Depthwise/SEBottleneck/Excite/HardSigmoid/add/y", "op": "Const", "input": ["^input_1"], "attr": {"value": {"tensor": {"dtype": "DT_FLOAT", "tensorShape": {}}}, "dtype": {"type": "DT_FLOAT"}}}, {"name": "ConstantFolding/StatefulPartitionedCall/model/MobileNetV3_Small/StatefulPartitionedCall/StatefulPartitionedCall/Bneck/Bneck6/Bneck6/Bneck/Depthwise/SEBottleneck/Excite/HardSigmoid/truediv_recip", "op": "Const", "input": ["^input_1"], "attr": {"dtype": {"type": "DT_FLOAT"}, "value": {"tensor": {"dtype": "DT_FLOAT", "tensorShape": {}}}}}, {"name": "StatefulPartitionedCall/model/MobileNetV3_Small/StatefulPartitionedCall/StatefulPartitionedCall/Bneck/Bneck6/Bneck6/Bneck/Depthwise/HardSwish/HardSigmoid/add/y", "op": "Const", "input": ["^input_1"], "attr": {"value": {"tensor": {"dtype": "DT_FLOAT", "tensorShape": {}}}, "dtype": {"type": "DT_FLOAT"}}}, {"name": "StatefulPartitionedCall/model/MobileNetV3_Small/StatefulPartitionedCall/StatefulPartitionedCall/Bneck/Bneck7/Bneck7/Bneck/Expand/HardSwish/HardSigmoid/add/y", "op": "Const", "input": ["^input_1"], "attr": {"dtype": {"type": "DT_FLOAT"}, "value": {"tensor": {"dtype": "DT_FLOAT", "tensorShape": {}}}}}, {"name": "StatefulPartitionedCall/model/MobileNetV3_Small/StatefulPartitionedCall/StatefulPartitionedCall/Bneck/Bneck7/Bneck7/Bneck/Depthwise/Padding2x2/Pad/paddings", "op": "Const", "input": ["^input_1"], "attr": {"dtype": {"type": "DT_INT32"}, "value": {"tensor": {"dtype": "DT_INT32", "tensorShape": {"dim": [{"size": "4"}, {"size": "2"}]}}}}}, {"name": "StatefulPartitionedCall/model/MobileNetV3_Small/StatefulPartitionedCall/StatefulPartitionedCall/Bneck/Bneck7/Bneck7/Bneck/Depthwise/SEBottleneck/Squeeze/Conv1x1/Conv2D/ReadVariableOp", "op": "Const", "input": ["^input_1"], "attr": {"dtype": {"type": "DT_FLOAT"}, "value": {"tensor": {"dtype": "DT_FLOAT", "tensorShape": {"dim": [{"size": "1"}, {"size": "1"}, {"size": "144"}, {"size": "36"}]}}}}}, {"name": "StatefulPartitionedCall/model/MobileNetV3_Small/StatefulPartitionedCall/StatefulPartitionedCall/Bneck/Bneck7/Bneck7/Bneck/Depthwise/SEBottleneck/Excite/Conv1x1/Conv2D/ReadVariableOp", "op": "Const", "input": ["^input_1"], "attr": {"value": {"tensor": {"dtype": "DT_FLOAT", "tensorShape": {"dim": [{"size": "1"}, {"size": "1"}, {"size": "36"}, {"size": "144"}]}}}, "dtype": {"type": "DT_FLOAT"}}}, {"name": "StatefulPartitionedCall/model/MobileNetV3_Small/StatefulPartitionedCall/StatefulPartitionedCall/Bneck/Bneck7/Bneck7/Bneck/Depthwise/SEBottleneck/Excite/HardSigmoid/add/y", "op": "Const", "input": ["^input_1"], "attr": {"dtype": {"type": "DT_FLOAT"}, "value": {"tensor": {"dtype": "DT_FLOAT", "tensorShape": {}}}}}, {"name": "ConstantFolding/StatefulPartitionedCall/model/MobileNetV3_Small/StatefulPartitionedCall/StatefulPartitionedCall/Bneck/Bneck7/Bneck7/Bneck/Depthwise/SEBottleneck/Excite/HardSigmoid/truediv_recip", "op": "Const", "input": ["^input_1"], "attr": {"dtype": {"type": "DT_FLOAT"}, "value": {"tensor": {"dtype": "DT_FLOAT", "tensorShape": {}}}}}, {"name": "StatefulPartitionedCall/model/MobileNetV3_Small/StatefulPartitionedCall/StatefulPartitionedCall/Bneck/Bneck7/Bneck7/Bneck/Depthwise/HardSwish/HardSigmoid/add/y", "op": "Const", "input": ["^input_1"], "attr": {"dtype": {"type": "DT_FLOAT"}, "value": {"tensor": {"dtype": "DT_FLOAT", "tensorShape": {}}}}}, {"name": "StatefulPartitionedCall/model/MobileNetV3_Small/StatefulPartitionedCall/StatefulPartitionedCall/Bneck/Bneck8/Bneck8/Bneck/Expand/HardSwish/HardSigmoid/add/y", "op": "Const", "input": ["^input_1"], "attr": {"value": {"tensor": {"dtype": "DT_FLOAT", "tensorShape": {}}}, "dtype": {"type": "DT_FLOAT"}}}, {"name": "StatefulPartitionedCall/model/MobileNetV3_Small/StatefulPartitionedCall/StatefulPartitionedCall/Bneck/Bneck8/Bneck8/Bneck/Depthwise/Padding2x2/Pad/paddings", "op": "Const", "input": ["^input_1"], "attr": {"value": {"tensor": {"dtype": "DT_INT32", "tensorShape": {"dim": [{"size": "4"}, {"size": "2"}]}}}, "dtype": {"type": "DT_INT32"}}}, {"name": "StatefulPartitionedCall/model/MobileNetV3_Small/StatefulPartitionedCall/StatefulPartitionedCall/Bneck/Bneck8/Bneck8/Bneck/Depthwise/SEBottleneck/Squeeze/Conv1x1/Conv2D/ReadVariableOp", "op": "Const", "input": ["^input_1"], "attr": {"dtype": {"type": "DT_FLOAT"}, "value": {"tensor": {"dtype": "DT_FLOAT", "tensorShape": {"dim": [{"size": "1"}, {"size": "1"}, {"size": "288"}, {"size": "72"}]}}}}}, {"name": "StatefulPartitionedCall/model/MobileNetV3_Small/StatefulPartitionedCall/StatefulPartitionedCall/Bneck/Bneck8/Bneck8/Bneck/Depthwise/SEBottleneck/Excite/Conv1x1/Conv2D/ReadVariableOp", "op": "Const", "input": ["^input_1"], "attr": {"dtype": {"type": "DT_FLOAT"}, "value": {"tensor": {"dtype": "DT_FLOAT", "tensorShape": {"dim": [{"size": "1"}, {"size": "1"}, {"size": "72"}, {"size": "288"}]}}}}}, {"name": "StatefulPartitionedCall/model/MobileNetV3_Small/StatefulPartitionedCall/StatefulPartitionedCall/Bneck/Bneck8/Bneck8/Bneck/Depthwise/SEBottleneck/Excite/HardSigmoid/add/y", "op": "Const", "input": ["^input_1"], "attr": {"dtype": {"type": "DT_FLOAT"}, "value": {"tensor": {"dtype": "DT_FLOAT", "tensorShape": {}}}}}, {"name": "ConstantFolding/StatefulPartitionedCall/model/MobileNetV3_Small/StatefulPartitionedCall/StatefulPartitionedCall/Bneck/Bneck8/Bneck8/Bneck/Depthwise/SEBottleneck/Excite/HardSigmoid/truediv_recip", "op": "Const", "input": ["^input_1"], "attr": {"dtype": {"type": "DT_FLOAT"}, "value": {"tensor": {"dtype": "DT_FLOAT", "tensorShape": {}}}}}, {"name": "StatefulPartitionedCall/model/MobileNetV3_Small/StatefulPartitionedCall/StatefulPartitionedCall/Bneck/Bneck8/Bneck8/Bneck/Depthwise/HardSwish/HardSigmoid/add/y", "op": "Const", "input": ["^input_1"], "attr": {"value": {"tensor": {"dtype": "DT_FLOAT", "tensorShape": {}}}, "dtype": {"type": "DT_FLOAT"}}}, {"name": "StatefulPartitionedCall/model/MobileNetV3_Small/StatefulPartitionedCall/StatefulPartitionedCall/Bneck/Bneck9/Bneck9/Bneck/Expand/HardSwish/HardSigmoid/add/y", "op": "Const", "input": ["^input_1"], "attr": {"dtype": {"type": "DT_FLOAT"}, "value": {"tensor": {"dtype": "DT_FLOAT", "tensorShape": {}}}}}, {"name": "StatefulPartitionedCall/model/MobileNetV3_Small/StatefulPartitionedCall/StatefulPartitionedCall/Bneck/Bneck9/Bneck9/Bneck/Depthwise/Padding2x2/Pad/paddings", "op": "Const", "input": ["^input_1"], "attr": {"value": {"tensor": {"dtype": "DT_INT32", "tensorShape": {"dim": [{"size": "4"}, {"size": "2"}]}}}, "dtype": {"type": "DT_INT32"}}}, {"name": "StatefulPartitionedCall/model/MobileNetV3_Small/StatefulPartitionedCall/StatefulPartitionedCall/Bneck/Bneck9/Bneck9/Bneck/Depthwise/SEBottleneck/Squeeze/Conv1x1/Conv2D/ReadVariableOp", "op": "Const", "input": ["^input_1"], "attr": {"value": {"tensor": {"dtype": "DT_FLOAT", "tensorShape": {"dim": [{"size": "1"}, {"size": "1"}, {"size": "576"}, {"size": "144"}]}}}, "dtype": {"type": "DT_FLOAT"}}}, {"name": "StatefulPartitionedCall/model/MobileNetV3_Small/StatefulPartitionedCall/StatefulPartitionedCall/Bneck/Bneck9/Bneck9/Bneck/Depthwise/SEBottleneck/Excite/Conv1x1/Conv2D/ReadVariableOp", "op": "Const", "input": ["^input_1"], "attr": {"dtype": {"type": "DT_FLOAT"}, "value": {"tensor": {"dtype": "DT_FLOAT", "tensorShape": {"dim": [{"size": "1"}, {"size": "1"}, {"size": "144"}, {"size": "576"}]}}}}}, {"name": "StatefulPartitionedCall/model/MobileNetV3_Small/StatefulPartitionedCall/StatefulPartitionedCall/Bneck/Bneck9/Bneck9/Bneck/Depthwise/SEBottleneck/Excite/HardSigmoid/add/y", "op": "Const", "input": ["^input_1"], "attr": {"dtype": {"type": "DT_FLOAT"}, "value": {"tensor": {"dtype": "DT_FLOAT", "tensorShape": {}}}}}, {"name": "ConstantFolding/StatefulPartitionedCall/model/MobileNetV3_Small/StatefulPartitionedCall/StatefulPartitionedCall/Bneck/Bneck9/Bneck9/Bneck/Depthwise/SEBottleneck/Excite/HardSigmoid/truediv_recip", "op": "Const", "input": ["^input_1"], "attr": {"dtype": {"type": "DT_FLOAT"}, "value": {"tensor": {"dtype": "DT_FLOAT", "tensorShape": {}}}}}, {"name": "StatefulPartitionedCall/model/MobileNetV3_Small/StatefulPartitionedCall/StatefulPartitionedCall/Bneck/Bneck9/Bneck9/Bneck/Depthwise/HardSwish/HardSigmoid/add/y", "op": "Const", "input": ["^input_1"], "attr": {"dtype": {"type": "DT_FLOAT"}, "value": {"tensor": {"dtype": "DT_FLOAT", "tensorShape": {}}}}}, {"name": "StatefulPartitionedCall/model/MobileNetV3_Small/StatefulPartitionedCall/StatefulPartitionedCall/Bneck/Bneck10/Bneck10/Bneck/Expand/HardSwish/HardSigmoid/add/y", "op": "Const", "input": ["^input_1"], "attr": {"value": {"tensor": {"dtype": "DT_FLOAT", "tensorShape": {}}}, "dtype": {"type": "DT_FLOAT"}}}, {"name": "StatefulPartitionedCall/model/MobileNetV3_Small/StatefulPartitionedCall/StatefulPartitionedCall/Bneck/Bneck10/Bneck10/Bneck/Depthwise/Padding2x2/Pad/paddings", "op": "Const", "input": ["^input_1"], "attr": {"value": {"tensor": {"dtype": "DT_INT32", "tensorShape": {"dim": [{"size": "4"}, {"size": "2"}]}}}, "dtype": {"type": "DT_INT32"}}}, {"name": "StatefulPartitionedCall/model/MobileNetV3_Small/StatefulPartitionedCall/StatefulPartitionedCall/Bneck/Bneck10/Bneck10/Bneck/Depthwise/SEBottleneck/Squeeze/Conv1x1/Conv2D/ReadVariableOp", "op": "Const", "input": ["^input_1"], "attr": {"value": {"tensor": {"dtype": "DT_FLOAT", "tensorShape": {"dim": [{"size": "1"}, {"size": "1"}, {"size": "576"}, {"size": "144"}]}}}, "dtype": {"type": "DT_FLOAT"}}}, {"name": "StatefulPartitionedCall/model/MobileNetV3_Small/StatefulPartitionedCall/StatefulPartitionedCall/Bneck/Bneck10/Bneck10/Bneck/Depthwise/SEBottleneck/Excite/Conv1x1/Conv2D/ReadVariableOp", "op": "Const", "input": ["^input_1"], "attr": {"dtype": {"type": "DT_FLOAT"}, "value": {"tensor": {"dtype": "DT_FLOAT", "tensorShape": {"dim": [{"size": "1"}, {"size": "1"}, {"size": "144"}, {"size": "576"}]}}}}}, {"name": "StatefulPartitionedCall/model/MobileNetV3_Small/StatefulPartitionedCall/StatefulPartitionedCall/Bneck/Bneck10/Bneck10/Bneck/Depthwise/SEBottleneck/Excite/HardSigmoid/add/y", "op": "Const", "input": ["^input_1"], "attr": {"dtype": {"type": "DT_FLOAT"}, "value": {"tensor": {"dtype": "DT_FLOAT", "tensorShape": {}}}}}, {"name": "ConstantFolding/StatefulPartitionedCall/model/MobileNetV3_Small/StatefulPartitionedCall/StatefulPartitionedCall/Bneck/Bneck10/Bneck10/Bneck/Depthwise/SEBottleneck/Excite/HardSigmoid/truediv_recip", "op": "Const", "input": ["^input_1"], "attr": {"dtype": {"type": "DT_FLOAT"}, "value": {"tensor": {"dtype": "DT_FLOAT", "tensorShape": {}}}}}, {"name": "StatefulPartitionedCall/model/MobileNetV3_Small/StatefulPartitionedCall/StatefulPartitionedCall/Bneck/Bneck10/Bneck10/Bneck/Depthwise/HardSwish/HardSigmoid/add/y", "op": "Const", "input": ["^input_1"], "attr": {"value": {"tensor": {"dtype": "DT_FLOAT", "tensorShape": {}}}, "dtype": {"type": "DT_FLOAT"}}}, {"name": "StatefulPartitionedCall/model/MobileNetV3_Small/StatefulPartitionedCall/StatefulPartitionedCall/LastStage/ConvNormAct/HardSwish/HardSigmoid/add/y", "op": "Const", "input": ["^input_1"], "attr": {"dtype": {"type": "DT_FLOAT"}, "value": {"tensor": {"dtype": "DT_FLOAT", "tensorShape": {}}}}}, {"name": "StatefulPartitionedCall/model/MobileNetV3_Small/StatefulPartitionedCall/StatefulPartitionedCall/LastStage/ConvNormAct/Conv1x1/Conv2D_1/ReadVariableOp", "op": "Const", "input": ["^input_1"], "attr": {"value": {"tensor": {"dtype": "DT_FLOAT", "tensorShape": {"dim": [{"size": "1"}, {"size": "1"}, {"size": "576"}, {"size": "1280"}]}}}, "dtype": {"type": "DT_FLOAT"}}}, {"name": "StatefulPartitionedCall/model/MobileNetV3_Small/StatefulPartitionedCall/StatefulPartitionedCall/LastStage/ConvNormAct/Conv1x1/BiasAdd/ReadVariableOp", "op": "Const", "input": ["^input_1"], "attr": {"value": {"tensor": {"dtype": "DT_FLOAT", "tensorShape": {"dim": [{"size": "1280"}]}}}, "dtype": {"type": "DT_FLOAT"}}}, {"name": "StatefulPartitionedCall/model/MobileNetV3_Small/StatefulPartitionedCall/StatefulPartitionedCall/LastStage/ConvNormAct/HardSwish/HardSigmoid/add_1/y", "op": "Const", "input": ["^input_1"], "attr": {"dtype": {"type": "DT_FLOAT"}, "value": {"tensor": {"dtype": "DT_FLOAT", "tensorShape": {}}}}}, {"name": "StatefulPartitionedCall/model/MobileNetV3_Small/StatefulPartitionedCall/StatefulPartitionedCall/LastStage/ConvNormAct/Conv1x1/Conv2D_2/ReadVariableOp", "op": "Const", "input": ["^input_1"], "attr": {"dtype": {"type": "DT_FLOAT"}, "value": {"tensor": {"dtype": "DT_FLOAT", "tensorShape": {"dim": [{"size": "1"}, {"size": "1"}, {"size": "1280"}, {"size": "4"}]}}}}}, {"name": "StatefulPartitionedCall/model/MobileNetV3_Small/StatefulPartitionedCall/StatefulPartitionedCall/LastStage/ConvNormAct/Conv1x1/BiasAdd_1/ReadVariableOp", "op": "Const", "input": ["^input_1"], "attr": {"value": {"tensor": {"dtype": "DT_FLOAT", "tensorShape": {"dim": [{"size": "4"}]}}}, "dtype": {"type": "DT_FLOAT"}}}, {"name": "StatefulPartitionedCall/model/MobileNetV3_Small/StatefulPartitionedCall/StatefulPartitionedCall/FirstLayer/Padding1x1/Pad", "op": "Pad", "input": ["input_1", "StatefulPartitionedCall/model/MobileNetV3_Small/StatefulPartitionedCall/StatefulPartitionedCall/FirstLayer/Padding1x1/Pad/paddings"], "attr": {"Tpaddings": {"type": "DT_INT32"}, "T": {"type": "DT_FLOAT"}}}, {"name": "StatefulPartitionedCall/model/MobileNetV3_Small/StatefulPartitionedCall/StatefulPartitionedCall/FirstLayer/BatchNormalization/BatchNormalization/FusedBatchNormV3", "op": "_FusedConv2D", "input": ["StatefulPartitionedCall/model/MobileNetV3_Small/StatefulPartitionedCall/StatefulPartitionedCall/FirstLayer/Padding1x1/Pad", "StatefulPartitionedCall/model/MobileNetV3_Small/StatefulPartitionedCall/StatefulPartitionedCall/FirstLayer/Conv3x3/Conv2D_weights", "StatefulPartitionedCall/model/MobileNetV3_Small/StatefulPartitionedCall/StatefulPartitionedCall/FirstLayer/Conv3x3/Conv2D_bn_offset"], "device": "/device:CPU:0", "attr": {"strides": {"list": {"i": ["1", "2", "2", "1"]}}, "data_format": {"s": "TkhXQw=="}, "dilations": {"list": {"i": ["1", "1", "1", "1"]}}, "epsilon": {"f": 0.0}, "padding": {"s": "VkFMSUQ="}, "use_cudnn_on_gpu": {"b": true}, "explicit_paddings": {"list": {}}, "num_args": {"i": "1"}, "T": {"type": "DT_FLOAT"}, "fused_ops": {"list": {"s": ["Qmlhc0FkZA=="]}}}}, {"name": "StatefulPartitionedCall/model/MobileNetV3_Small/StatefulPartitionedCall/StatefulPartitionedCall/FirstLayer/HardSwish/HardSigmoid/truediv", "op": "Mul", "input": ["ConstantFolding/StatefulPartitionedCall/model/MobileNetV3_Small/StatefulPartitionedCall/StatefulPartitionedCall/FirstLayer/HardSwish/HardSigmoid/truediv_recip", "StatefulPartitionedCall/model/MobileNetV3_Small/StatefulPartitionedCall/StatefulPartitionedCall/FirstLayer/BatchNormalization/BatchNormalization/FusedBatchNormV3"], "attr": {"_grappler_ArithmeticOptimizer_MinimizeBroadcasts": {"b": true}, "T": {"type": "DT_FLOAT"}}}, {"name": "StatefulPartitionedCall/model/MobileNetV3_Small/StatefulPartitionedCall/StatefulPartitionedCall/FirstLayer/HardSwish/HardSigmoid/add", "op": "AddV2", "input": ["StatefulPartitionedCall/model/MobileNetV3_Small/StatefulPartitionedCall/StatefulPartitionedCall/FirstLayer/BatchNormalization/BatchNormalization/FusedBatchNormV3", "StatefulPartitionedCall/model/MobileNetV3_Small/StatefulPartitionedCall/StatefulPartitionedCall/FirstLayer/HardSwish/HardSigmoid/add/y"], "attr": {"T": {"type": "DT_FLOAT"}}}, {"name": "StatefulPartitionedCall/model/MobileNetV3_Small/StatefulPartitionedCall/StatefulPartitionedCall/FirstLayer/HardSwish/HardSigmoid/ReLU6/ReLU6/Relu6", "op": "Relu6", "input": ["StatefulPartitionedCall/model/MobileNetV3_Small/StatefulPartitionedCall/StatefulPartitionedCall/FirstLayer/HardSwish/HardSigmoid/add"], "attr": {"T": {"type": "DT_FLOAT"}}}, {"name": "StatefulPartitionedCall/model/MobileNetV3_Small/StatefulPartitionedCall/StatefulPartitionedCall/FirstLayer/HardSwish/mul", "op": "Mul", "input": ["StatefulPartitionedCall/model/MobileNetV3_Small/StatefulPartitionedCall/StatefulPartitionedCall/FirstLayer/HardSwish/HardSigmoid/truediv", "StatefulPartitionedCall/model/MobileNetV3_Small/StatefulPartitionedCall/StatefulPartitionedCall/FirstLayer/HardSwish/HardSigmoid/ReLU6/ReLU6/Relu6"], "attr": {"_grappler_ArithmeticOptimizer_MinimizeBroadcasts": {"b": true}, "T": {"type": "DT_FLOAT"}}}, {"name": "StatefulPartitionedCall/model/MobileNetV3_Small/StatefulPartitionedCall/StatefulPartitionedCall/Bneck/Bneck0/Bneck0/Bneck/Expand/ReLU/Relu", "op": "_FusedConv2D", "input": ["StatefulPartitionedCall/model/MobileNetV3_Small/StatefulPartitionedCall/StatefulPartitionedCall/FirstLayer/HardSwish/mul", "StatefulPartitionedCall/model/MobileNetV3_Small/StatefulPartitionedCall/StatefulPartitionedCall/Bneck/Bneck0/Bneck0/Bneck/Expand/Conv1x1/Conv2D_weights", "StatefulPartitionedCall/model/MobileNetV3_Small/StatefulPartitionedCall/StatefulPartitionedCall/Bneck/Bneck0/Bneck0/Bneck/Expand/Conv1x1/Conv2D_bn_offset"], "device": "/device:CPU:0", "attr": {"padding": {"s": "VkFMSUQ="}, "epsilon": {"f": 0.0}, "data_format": {"s": "TkhXQw=="}, "T": {"type": "DT_FLOAT"}, "dilations": {"list": {"i": ["1", "1", "1", "1"]}}, "use_cudnn_on_gpu": {"b": true}, "fused_ops": {"list": {"s": ["Qmlhc0FkZA==", "UmVsdQ=="]}}, "explicit_paddings": {"list": {}}, "strides": {"list": {"i": ["1", "1", "1", "1"]}}, "num_args": {"i": "1"}}}, {"name": "StatefulPartitionedCall/model/MobileNetV3_Small/StatefulPartitionedCall/StatefulPartitionedCall/Bneck/Bneck0/Bneck0/Bneck/Depthwise/Padding1x1/Pad", "op": "Pad", "input": ["StatefulPartitionedCall/model/MobileNetV3_Small/StatefulPartitionedCall/StatefulPartitionedCall/Bneck/Bneck0/Bneck0/Bneck/Expand/ReLU/Relu", "StatefulPartitionedCall/model/MobileNetV3_Small/StatefulPartitionedCall/StatefulPartitionedCall/Bneck/Bneck0/Bneck0/Bneck/Depthwise/Padding1x1/Pad/paddings"], "attr": {"T": {"type": "DT_FLOAT"}, "Tpaddings": {"type": "DT_INT32"}}}, {"name": "StatefulPartitionedCall/model/MobileNetV3_Small/StatefulPartitionedCall/StatefulPartitionedCall/Bneck/Bneck0/Bneck0/Bneck/Depthwise/DWConv3x3/depthwise", "op": "FusedDepthwiseConv2dNative", "input": ["StatefulPartitionedCall/model/MobileNetV3_Small/StatefulPartitionedCall/StatefulPartitionedCall/Bneck/Bneck0/Bneck0/Bneck/Depthwise/Padding1x1/Pad", "StatefulPartitionedCall/model/MobileNetV3_Small/StatefulPartitionedCall/StatefulPartitionedCall/Bneck/Bneck0/Bneck0/Bneck/Depthwise/DWConv3x3/depthwise_weights", "StatefulPartitionedCall/model/MobileNetV3_Small/StatefulPartitionedCall/StatefulPartitionedCall/Bneck/Bneck0/Bneck0/Bneck/Depthwise/DWConv3x3/depthwise_bn_offset"], "attr": {"dilations": {"list": {"i": ["1", "1", "1", "1"]}}, "fused_ops": {"list": {"s": ["Qmlhc0FkZA=="]}}, "padding": {"s": "VkFMSUQ="}, "T": {"type": "DT_FLOAT"}, "explicit_paddings": {"list": {}}, "num_args": {"i": "1"}, "data_format": {"s": "TkhXQw=="}, "strides": {"list": {"i": ["1", "2", "2", "1"]}}}}, {"name": "StatefulPartitionedCall/model/MobileNetV3_Small/StatefulPartitionedCall/StatefulPartitionedCall/Bneck/Bneck0/Bneck0/Bneck/Depthwise/SEBottleneck/GlobalAveragePooling2D/AvgPool64x32/AvgPool", "op": "AvgPool", "input": ["StatefulPartitionedCall/model/MobileNetV3_Small/StatefulPartitionedCall/StatefulPartitionedCall/Bneck/Bneck0/Bneck0/Bneck/Depthwise/DWConv3x3/depthwise"], "attr": {"strides": {"list": {"i": ["1", "64", "32", "1"]}}, "padding": {"s": "VkFMSUQ="}, "data_format": {"s": "TkhXQw=="}, "ksize": {"list": {"i": ["1", "64", "32", "1"]}}, "T": {"type": "DT_FLOAT"}}}, {"name": "StatefulPartitionedCall/model/MobileNetV3_Small/StatefulPartitionedCall/StatefulPartitionedCall/Bneck/Bneck0/Bneck0/Bneck/Depthwise/SEBottleneck/Squeeze/Conv1x1/Conv2D", "op": "Conv2D", "input": ["StatefulPartitionedCall/model/MobileNetV3_Small/StatefulPartitionedCall/StatefulPartitionedCall/Bneck/Bneck0/Bneck0/Bneck/Depthwise/SEBottleneck/GlobalAveragePooling2D/AvgPool64x32/AvgPool", "StatefulPartitionedCall/model/MobileNetV3_Small/StatefulPartitionedCall/StatefulPartitionedCall/Bneck/Bneck0/Bneck0/Bneck/Depthwise/SEBottleneck/Squeeze/Conv1x1/Conv2D/ReadVariableOp"], "device": "/device:CPU:0", "attr": {"explicit_paddings": {"list": {}}, "strides": {"list": {"i": ["1", "1", "1", "1"]}}, "padding": {"s": "VkFMSUQ="}, "dilations": {"list": {"i": ["1", "1", "1", "1"]}}, "data_format": {"s": "TkhXQw=="}, "use_cudnn_on_gpu": {"b": true}, "T": {"type": "DT_FLOAT"}}}, {"name": "StatefulPartitionedCall/model/MobileNetV3_Small/StatefulPartitionedCall/StatefulPartitionedCall/Bneck/Bneck0/Bneck0/Bneck/Depthwise/SEBottleneck/Squeeze/ReLU/Relu", "op": "Relu", "input": ["StatefulPartitionedCall/model/MobileNetV3_Small/StatefulPartitionedCall/StatefulPartitionedCall/Bneck/Bneck0/Bneck0/Bneck/Depthwise/SEBottleneck/Squeeze/Conv1x1/Conv2D"], "attr": {"T": {"type": "DT_FLOAT"}}}, {"name": "StatefulPartitionedCall/model/MobileNetV3_Small/StatefulPartitionedCall/StatefulPartitionedCall/Bneck/Bneck0/Bneck0/Bneck/Depthwise/SEBottleneck/Excite/Conv1x1/Conv2D", "op": "Conv2D", "input": ["StatefulPartitionedCall/model/MobileNetV3_Small/StatefulPartitionedCall/StatefulPartitionedCall/Bneck/Bneck0/Bneck0/Bneck/Depthwise/SEBottleneck/Squeeze/ReLU/Relu", "StatefulPartitionedCall/model/MobileNetV3_Small/StatefulPartitionedCall/StatefulPartitionedCall/Bneck/Bneck0/Bneck0/Bneck/Depthwise/SEBottleneck/Excite/Conv1x1/Conv2D/ReadVariableOp"], "device": "/device:CPU:0", "attr": {"explicit_paddings": {"list": {}}, "padding": {"s": "VkFMSUQ="}, "strides": {"list": {"i": ["1", "1", "1", "1"]}}, "data_format": {"s": "TkhXQw=="}, "dilations": {"list": {"i": ["1", "1", "1", "1"]}}, "T": {"type": "DT_FLOAT"}, "use_cudnn_on_gpu": {"b": true}}}, {"name": "StatefulPartitionedCall/model/MobileNetV3_Small/StatefulPartitionedCall/StatefulPartitionedCall/Bneck/Bneck0/Bneck0/Bneck/Depthwise/SEBottleneck/Excite/HardSigmoid/add", "op": "AddV2", "input": ["StatefulPartitionedCall/model/MobileNetV3_Small/StatefulPartitionedCall/StatefulPartitionedCall/Bneck/Bneck0/Bneck0/Bneck/Depthwise/SEBottleneck/Excite/Conv1x1/Conv2D", "StatefulPartitionedCall/model/MobileNetV3_Small/StatefulPartitionedCall/StatefulPartitionedCall/Bneck/Bneck0/Bneck0/Bneck/Depthwise/SEBottleneck/Excite/HardSigmoid/add/y"], "attr": {"T": {"type": "DT_FLOAT"}}}, {"name": "StatefulPartitionedCall/model/MobileNetV3_Small/StatefulPartitionedCall/StatefulPartitionedCall/Bneck/Bneck0/Bneck0/Bneck/Depthwise/SEBottleneck/Excite/HardSigmoid/ReLU6/ReLU6/Relu6", "op": "Relu6", "input": ["StatefulPartitionedCall/model/MobileNetV3_Small/StatefulPartitionedCall/StatefulPartitionedCall/Bneck/Bneck0/Bneck0/Bneck/Depthwise/SEBottleneck/Excite/HardSigmoid/add"], "attr": {"T": {"type": "DT_FLOAT"}}}, {"name": "StatefulPartitionedCall/model/MobileNetV3_Small/StatefulPartitionedCall/StatefulPartitionedCall/Bneck/Bneck0/Bneck0/Bneck/Depthwise/SEBottleneck/Excite/HardSigmoid/truediv", "op": "Mul", "input": ["StatefulPartitionedCall/model/MobileNetV3_Small/StatefulPartitionedCall/StatefulPartitionedCall/Bneck/Bneck0/Bneck0/Bneck/Depthwise/SEBottleneck/Excite/HardSigmoid/ReLU6/ReLU6/Relu6", "ConstantFolding/StatefulPartitionedCall/model/MobileNetV3_Small/StatefulPartitionedCall/StatefulPartitionedCall/Bneck/Bneck0/Bneck0/Bneck/Depthwise/SEBottleneck/Excite/HardSigmoid/truediv_recip"], "attr": {"T": {"type": "DT_FLOAT"}}}, {"name": "StatefulPartitionedCall/model/MobileNetV3_Small/StatefulPartitionedCall/StatefulPartitionedCall/Bneck/Bneck0/Bneck0/Bneck/Depthwise/SEBottleneck/mul", "op": "Mul", "input": ["StatefulPartitionedCall/model/MobileNetV3_Small/StatefulPartitionedCall/StatefulPartitionedCall/Bneck/Bneck0/Bneck0/Bneck/Depthwise/DWConv3x3/depthwise", "StatefulPartitionedCall/model/MobileNetV3_Small/StatefulPartitionedCall/StatefulPartitionedCall/Bneck/Bneck0/Bneck0/Bneck/Depthwise/SEBottleneck/Excite/HardSigmoid/truediv"], "attr": {"T": {"type": "DT_FLOAT"}}}, {"name": "StatefulPartitionedCall/model/MobileNetV3_Small/StatefulPartitionedCall/StatefulPartitionedCall/Bneck/Bneck0/Bneck0/Bneck/Depthwise/ReLU/Relu", "op": "Relu", "input": ["StatefulPartitionedCall/model/MobileNetV3_Small/StatefulPartitionedCall/StatefulPartitionedCall/Bneck/Bneck0/Bneck0/Bneck/Depthwise/SEBottleneck/mul"], "attr": {"T": {"type": "DT_FLOAT"}}}, {"name": "StatefulPartitionedCall/model/MobileNetV3_Small/StatefulPartitionedCall/StatefulPartitionedCall/Bneck/Bneck0/Bneck0/Bneck/Project/BatchNormalization/BatchNormalization/FusedBatchNormV3", "op": "_FusedConv2D", "input": ["StatefulPartitionedCall/model/MobileNetV3_Small/StatefulPartitionedCall/StatefulPartitionedCall/Bneck/Bneck0/Bneck0/Bneck/Depthwise/ReLU/Relu", "StatefulPartitionedCall/model/MobileNetV3_Small/StatefulPartitionedCall/StatefulPartitionedCall/Bneck/Bneck0/Bneck0/Bneck/Project/Conv1x1/Conv2D_weights", "StatefulPartitionedCall/model/MobileNetV3_Small/StatefulPartitionedCall/StatefulPartitionedCall/Bneck/Bneck0/Bneck0/Bneck/Project/Conv1x1/Conv2D_bn_offset"], "device": "/device:CPU:0", "attr": {"num_args": {"i": "1"}, "T": {"type": "DT_FLOAT"}, "strides": {"list": {"i": ["1", "1", "1", "1"]}}, "use_cudnn_on_gpu": {"b": true}, "dilations": {"list": {"i": ["1", "1", "1", "1"]}}, "epsilon": {"f": 0.0}, "padding": {"s": "VkFMSUQ="}, "data_format": {"s": "TkhXQw=="}, "fused_ops": {"list": {"s": ["Qmlhc0FkZA=="]}}, "explicit_paddings": {"list": {}}}}, {"name": "StatefulPartitionedCall/model/MobileNetV3_Small/StatefulPartitionedCall/StatefulPartitionedCall/Bneck/Bneck1/Bneck1/Bneck/Expand/ReLU/Relu", "op": "_FusedConv2D", "input": ["StatefulPartitionedCall/model/MobileNetV3_Small/StatefulPartitionedCall/StatefulPartitionedCall/Bneck/Bneck0/Bneck0/Bneck/Project/BatchNormalization/BatchNormalization/FusedBatchNormV3", "StatefulPartitionedCall/model/MobileNetV3_Small/StatefulPartitionedCall/StatefulPartitionedCall/Bneck/Bneck1/Bneck1/Bneck/Expand/Conv1x1/Conv2D_weights", "StatefulPartitionedCall/model/MobileNetV3_Small/StatefulPartitionedCall/StatefulPartitionedCall/Bneck/Bneck1/Bneck1/Bneck/Expand/Conv1x1/Conv2D_bn_offset"], "device": "/device:CPU:0", "attr": {"use_cudnn_on_gpu": {"b": true}, "explicit_paddings": {"list": {}}, "T": {"type": "DT_FLOAT"}, "num_args": {"i": "1"}, "padding": {"s": "VkFMSUQ="}, "dilations": {"list": {"i": ["1", "1", "1", "1"]}}, "strides": {"list": {"i": ["1", "1", "1", "1"]}}, "epsilon": {"f": 0.0}, "data_format": {"s": "TkhXQw=="}, "fused_ops": {"list": {"s": ["Qmlhc0FkZA==", "UmVsdQ=="]}}}}, {"name": "StatefulPartitionedCall/model/MobileNetV3_Small/StatefulPartitionedCall/StatefulPartitionedCall/Bneck/Bneck1/Bneck1/Bneck/Depthwise/Padding1x1/Pad", "op": "Pad", "input": ["StatefulPartitionedCall/model/MobileNetV3_Small/StatefulPartitionedCall/StatefulPartitionedCall/Bneck/Bneck1/Bneck1/Bneck/Expand/ReLU/Relu", "StatefulPartitionedCall/model/MobileNetV3_Small/StatefulPartitionedCall/StatefulPartitionedCall/Bneck/Bneck1/Bneck1/Bneck/Depthwise/Padding1x1/Pad/paddings"], "attr": {"Tpaddings": {"type": "DT_INT32"}, "T": {"type": "DT_FLOAT"}}}, {"name": "StatefulPartitionedCall/model/MobileNetV3_Small/StatefulPartitionedCall/StatefulPartitionedCall/Bneck/Bneck1/Bneck1/Bneck/Depthwise/DWConv3x3/depthwise", "op": "FusedDepthwiseConv2dNative", "input": ["StatefulPartitionedCall/model/MobileNetV3_Small/StatefulPartitionedCall/StatefulPartitionedCall/Bneck/Bneck1/Bneck1/Bneck/Depthwise/Padding1x1/Pad", "StatefulPartitionedCall/model/MobileNetV3_Small/StatefulPartitionedCall/StatefulPartitionedCall/Bneck/Bneck1/Bneck1/Bneck/Depthwise/DWConv3x3/depthwise_weights", "StatefulPartitionedCall/model/MobileNetV3_Small/StatefulPartitionedCall/StatefulPartitionedCall/Bneck/Bneck1/Bneck1/Bneck/Depthwise/DWConv3x3/depthwise_bn_offset"], "attr": {"strides": {"list": {"i": ["1", "2", "2", "1"]}}, "dilations": {"list": {"i": ["1", "1", "1", "1"]}}, "fused_ops": {"list": {"s": ["Qmlhc0FkZA==", "UmVsdQ=="]}}, "explicit_paddings": {"list": {}}, "T": {"type": "DT_FLOAT"}, "num_args": {"i": "1"}, "data_format": {"s": "TkhXQw=="}, "padding": {"s": "VkFMSUQ="}}}, {"name": "StatefulPartitionedCall/model/MobileNetV3_Small/StatefulPartitionedCall/StatefulPartitionedCall/Bneck/Bneck1/Bneck1/Bneck/Project/BatchNormalization/BatchNormalization/FusedBatchNormV3", "op": "_FusedConv2D", "input": ["StatefulPartitionedCall/model/MobileNetV3_Small/StatefulPartitionedCall/StatefulPartitionedCall/Bneck/Bneck1/Bneck1/Bneck/Depthwise/DWConv3x3/depthwise", "StatefulPartitionedCall/model/MobileNetV3_Small/StatefulPartitionedCall/StatefulPartitionedCall/Bneck/Bneck1/Bneck1/Bneck/Project/Conv1x1/Conv2D_weights", "StatefulPartitionedCall/model/MobileNetV3_Small/StatefulPartitionedCall/StatefulPartitionedCall/Bneck/Bneck1/Bneck1/Bneck/Project/Conv1x1/Conv2D_bn_offset"], "device": "/device:CPU:0", "attr": {"explicit_paddings": {"list": {}}, "use_cudnn_on_gpu": {"b": true}, "T": {"type": "DT_FLOAT"}, "strides": {"list": {"i": ["1", "1", "1", "1"]}}, "data_format": {"s": "TkhXQw=="}, "num_args": {"i": "1"}, "epsilon": {"f": 0.0}, "fused_ops": {"list": {"s": ["Qmlhc0FkZA=="]}}, "dilations": {"list": {"i": ["1", "1", "1", "1"]}}, "padding": {"s": "VkFMSUQ="}}}, {"name": "StatefulPartitionedCall/model/MobileNetV3_Small/StatefulPartitionedCall/StatefulPartitionedCall/Bneck/Bneck2/Bneck2/Bneck/Expand/ReLU/Relu", "op": "_FusedConv2D", "input": ["StatefulPartitionedCall/model/MobileNetV3_Small/StatefulPartitionedCall/StatefulPartitionedCall/Bneck/Bneck1/Bneck1/Bneck/Project/BatchNormalization/BatchNormalization/FusedBatchNormV3", "StatefulPartitionedCall/model/MobileNetV3_Small/StatefulPartitionedCall/StatefulPartitionedCall/Bneck/Bneck2/Bneck2/Bneck/Expand/Conv1x1/Conv2D_weights", "StatefulPartitionedCall/model/MobileNetV3_Small/StatefulPartitionedCall/StatefulPartitionedCall/Bneck/Bneck2/Bneck2/Bneck/Expand/Conv1x1/Conv2D_bn_offset"], "device": "/device:CPU:0", "attr": {"data_format": {"s": "TkhXQw=="}, "strides": {"list": {"i": ["1", "1", "1", "1"]}}, "T": {"type": "DT_FLOAT"}, "fused_ops": {"list": {"s": ["Qmlhc0FkZA==", "UmVsdQ=="]}}, "num_args": {"i": "1"}, "dilations": {"list": {"i": ["1", "1", "1", "1"]}}, "epsilon": {"f": 0.0}, "use_cudnn_on_gpu": {"b": true}, "explicit_paddings": {"list": {}}, "padding": {"s": "VkFMSUQ="}}}, {"name": "StatefulPartitionedCall/model/MobileNetV3_Small/StatefulPartitionedCall/StatefulPartitionedCall/Bneck/Bneck2/Bneck2/Bneck/Depthwise/Padding1x1/Pad", "op": "Pad", "input": ["StatefulPartitionedCall/model/MobileNetV3_Small/StatefulPartitionedCall/StatefulPartitionedCall/Bneck/Bneck2/Bneck2/Bneck/Expand/ReLU/Relu", "StatefulPartitionedCall/model/MobileNetV3_Small/StatefulPartitionedCall/StatefulPartitionedCall/Bneck/Bneck2/Bneck2/Bneck/Depthwise/Padding1x1/Pad/paddings"], "attr": {"T": {"type": "DT_FLOAT"}, "Tpaddings": {"type": "DT_INT32"}}}, {"name": "StatefulPartitionedCall/model/MobileNetV3_Small/StatefulPartitionedCall/StatefulPartitionedCall/Bneck/Bneck2/Bneck2/Bneck/Depthwise/DWConv3x3/depthwise", "op": "FusedDepthwiseConv2dNative", "input": ["StatefulPartitionedCall/model/MobileNetV3_Small/StatefulPartitionedCall/StatefulPartitionedCall/Bneck/Bneck2/Bneck2/Bneck/Depthwise/Padding1x1/Pad", "StatefulPartitionedCall/model/MobileNetV3_Small/StatefulPartitionedCall/StatefulPartitionedCall/Bneck/Bneck2/Bneck2/Bneck/Depthwise/DWConv3x3/depthwise_weights", "StatefulPartitionedCall/model/MobileNetV3_Small/StatefulPartitionedCall/StatefulPartitionedCall/Bneck/Bneck2/Bneck2/Bneck/Depthwise/DWConv3x3/depthwise_bn_offset"], "attr": {"strides": {"list": {"i": ["1", "1", "1", "1"]}}, "T": {"type": "DT_FLOAT"}, "explicit_paddings": {"list": {}}, "fused_ops": {"list": {"s": ["Qmlhc0FkZA==", "UmVsdQ=="]}}, "dilations": {"list": {"i": ["1", "1", "1", "1"]}}, "data_format": {"s": "TkhXQw=="}, "num_args": {"i": "1"}, "padding": {"s": "VkFMSUQ="}}}, {"name": "StatefulPartitionedCall/model/MobileNetV3_Small/StatefulPartitionedCall/StatefulPartitionedCall/Bneck/Bneck2/Bneck2/Bneck/Project/BatchNormalization/BatchNormalization/FusedBatchNormV3", "op": "_FusedConv2D", "input": ["StatefulPartitionedCall/model/MobileNetV3_Small/StatefulPartitionedCall/StatefulPartitionedCall/Bneck/Bneck2/Bneck2/Bneck/Depthwise/DWConv3x3/depthwise", "StatefulPartitionedCall/model/MobileNetV3_Small/StatefulPartitionedCall/StatefulPartitionedCall/Bneck/Bneck2/Bneck2/Bneck/Project/Conv1x1/Conv2D_weights", "StatefulPartitionedCall/model/MobileNetV3_Small/StatefulPartitionedCall/StatefulPartitionedCall/Bneck/Bneck2/Bneck2/Bneck/Project/Conv1x1/Conv2D_bn_offset"], "device": "/device:CPU:0", "attr": {"T": {"type": "DT_FLOAT"}, "epsilon": {"f": 0.0}, "num_args": {"i": "1"}, "fused_ops": {"list": {"s": ["Qmlhc0FkZA=="]}}, "strides": {"list": {"i": ["1", "1", "1", "1"]}}, "use_cudnn_on_gpu": {"b": true}, "padding": {"s": "VkFMSUQ="}, "explicit_paddings": {"list": {}}, "data_format": {"s": "TkhXQw=="}, "dilations": {"list": {"i": ["1", "1", "1", "1"]}}}}, {"name": "StatefulPartitionedCall/model/MobileNetV3_Small/StatefulPartitionedCall/StatefulPartitionedCall/Bneck/Bneck2/Bneck2/Bneck/add", "op": "AddV2", "input": ["StatefulPartitionedCall/model/MobileNetV3_Small/StatefulPartitionedCall/StatefulPartitionedCall/Bneck/Bneck1/Bneck1/Bneck/Project/BatchNormalization/BatchNormalization/FusedBatchNormV3", "StatefulPartitionedCall/model/MobileNetV3_Small/StatefulPartitionedCall/StatefulPartitionedCall/Bneck/Bneck2/Bneck2/Bneck/Project/BatchNormalization/BatchNormalization/FusedBatchNormV3"], "attr": {"T": {"type": "DT_FLOAT"}}}, {"name": "StatefulPartitionedCall/model/MobileNetV3_Small/StatefulPartitionedCall/StatefulPartitionedCall/Bneck/Bneck3/Bneck3/Bneck/Expand/BatchNormalization/BatchNormalization/FusedBatchNormV3", "op": "_FusedConv2D", "input": ["StatefulPartitionedCall/model/MobileNetV3_Small/StatefulPartitionedCall/StatefulPartitionedCall/Bneck/Bneck2/Bneck2/Bneck/add", "StatefulPartitionedCall/model/MobileNetV3_Small/StatefulPartitionedCall/StatefulPartitionedCall/Bneck/Bneck3/Bneck3/Bneck/Expand/Conv1x1/Conv2D_weights", "StatefulPartitionedCall/model/MobileNetV3_Small/StatefulPartitionedCall/StatefulPartitionedCall/Bneck/Bneck3/Bneck3/Bneck/Expand/Conv1x1/Conv2D_bn_offset"], "device": "/device:CPU:0", "attr": {"explicit_paddings": {"list": {}}, "num_args": {"i": "1"}, "padding": {"s": "VkFMSUQ="}, "strides": {"list": {"i": ["1", "1", "1", "1"]}}, "epsilon": {"f": 0.0}, "T": {"type": "DT_FLOAT"}, "use_cudnn_on_gpu": {"b": true}, "dilations": {"list": {"i": ["1", "1", "1", "1"]}}, "data_format": {"s": "TkhXQw=="}, "fused_ops": {"list": {"s": ["Qmlhc0FkZA=="]}}}}, {"name": "StatefulPartitionedCall/model/MobileNetV3_Small/StatefulPartitionedCall/StatefulPartitionedCall/Bneck/Bneck3/Bneck3/Bneck/Expand/HardSwish/HardSigmoid/truediv", "op": "Mul", "input": ["ConstantFolding/StatefulPartitionedCall/model/MobileNetV3_Small/StatefulPartitionedCall/StatefulPartitionedCall/Bneck/Bneck3/Bneck3/Bneck/Expand/HardSwish/HardSigmoid/truediv_recip", "StatefulPartitionedCall/model/MobileNetV3_Small/StatefulPartitionedCall/StatefulPartitionedCall/Bneck/Bneck3/Bneck3/Bneck/Expand/BatchNormalization/BatchNormalization/FusedBatchNormV3"], "attr": {"_grappler_ArithmeticOptimizer_MinimizeBroadcasts": {"b": true}, "T": {"type": "DT_FLOAT"}}}, {"name": "StatefulPartitionedCall/model/MobileNetV3_Small/StatefulPartitionedCall/StatefulPartitionedCall/Bneck/Bneck3/Bneck3/Bneck/Expand/HardSwish/HardSigmoid/add", "op": "AddV2", "input": ["StatefulPartitionedCall/model/MobileNetV3_Small/StatefulPartitionedCall/StatefulPartitionedCall/Bneck/Bneck3/Bneck3/Bneck/Expand/BatchNormalization/BatchNormalization/FusedBatchNormV3", "StatefulPartitionedCall/model/MobileNetV3_Small/StatefulPartitionedCall/StatefulPartitionedCall/Bneck/Bneck3/Bneck3/Bneck/Expand/HardSwish/HardSigmoid/add/y"], "attr": {"T": {"type": "DT_FLOAT"}}}, {"name": "StatefulPartitionedCall/model/MobileNetV3_Small/StatefulPartitionedCall/StatefulPartitionedCall/Bneck/Bneck3/Bneck3/Bneck/Expand/HardSwish/HardSigmoid/ReLU6/ReLU6/Relu6", "op": "Relu6", "input": ["StatefulPartitionedCall/model/MobileNetV3_Small/StatefulPartitionedCall/StatefulPartitionedCall/Bneck/Bneck3/Bneck3/Bneck/Expand/HardSwish/HardSigmoid/add"], "attr": {"T": {"type": "DT_FLOAT"}}}, {"name": "StatefulPartitionedCall/model/MobileNetV3_Small/StatefulPartitionedCall/StatefulPartitionedCall/Bneck/Bneck3/Bneck3/Bneck/Expand/HardSwish/mul", "op": "Mul", "input": ["StatefulPartitionedCall/model/MobileNetV3_Small/StatefulPartitionedCall/StatefulPartitionedCall/Bneck/Bneck3/Bneck3/Bneck/Expand/HardSwish/HardSigmoid/truediv", "StatefulPartitionedCall/model/MobileNetV3_Small/StatefulPartitionedCall/StatefulPartitionedCall/Bneck/Bneck3/Bneck3/Bneck/Expand/HardSwish/HardSigmoid/ReLU6/ReLU6/Relu6"], "attr": {"_grappler_ArithmeticOptimizer_MinimizeBroadcasts": {"b": true}, "T": {"type": "DT_FLOAT"}}}, {"name": "StatefulPartitionedCall/model/MobileNetV3_Small/StatefulPartitionedCall/StatefulPartitionedCall/Bneck/Bneck3/Bneck3/Bneck/Depthwise/Padding2x2/Pad", "op": "Pad", "input": ["StatefulPartitionedCall/model/MobileNetV3_Small/StatefulPartitionedCall/StatefulPartitionedCall/Bneck/Bneck3/Bneck3/Bneck/Expand/HardSwish/mul", "StatefulPartitionedCall/model/MobileNetV3_Small/StatefulPartitionedCall/StatefulPartitionedCall/Bneck/Bneck3/Bneck3/Bneck/Depthwise/Padding2x2/Pad/paddings"], "attr": {"T": {"type": "DT_FLOAT"}, "Tpaddings": {"type": "DT_INT32"}}}, {"name": "StatefulPartitionedCall/model/MobileNetV3_Small/StatefulPartitionedCall/StatefulPartitionedCall/Bneck/Bneck3/Bneck3/Bneck/Depthwise/DWConv5x5/depthwise", "op": "FusedDepthwiseConv2dNative", "input": ["StatefulPartitionedCall/model/MobileNetV3_Small/StatefulPartitionedCall/StatefulPartitionedCall/Bneck/Bneck3/Bneck3/Bneck/Depthwise/Padding2x2/Pad", "StatefulPartitionedCall/model/MobileNetV3_Small/StatefulPartitionedCall/StatefulPartitionedCall/Bneck/Bneck3/Bneck3/Bneck/Depthwise/DWConv5x5/depthwise_weights", "StatefulPartitionedCall/model/MobileNetV3_Small/StatefulPartitionedCall/StatefulPartitionedCall/Bneck/Bneck3/Bneck3/Bneck/Depthwise/DWConv5x5/depthwise_bn_offset"], "attr": {"data_format": {"s": "TkhXQw=="}, "dilations": {"list": {"i": ["1", "1", "1", "1"]}}, "num_args": {"i": "1"}, "fused_ops": {"list": {"s": ["Qmlhc0FkZA=="]}}, "T": {"type": "DT_FLOAT"}, "strides": {"list": {"i": ["1", "2", "2", "1"]}}, "padding": {"s": "VkFMSUQ="}, "explicit_paddings": {"list": {}}}}, {"name": "StatefulPartitionedCall/model/MobileNetV3_Small/StatefulPartitionedCall/StatefulPartitionedCall/Bneck/Bneck3/Bneck3/Bneck/Depthwise/SEBottleneck/GlobalAveragePooling2D/AvgPool16x8/AvgPool", "op": "AvgPool", "input": ["StatefulPartitionedCall/model/MobileNetV3_Small/StatefulPartitionedCall/StatefulPartitionedCall/Bneck/Bneck3/Bneck3/Bneck/Depthwise/DWConv5x5/depthwise"], "attr": {"padding": {"s": "VkFMSUQ="}, "ksize": {"list": {"i": ["1", "16", "8", "1"]}}, "data_format": {"s": "TkhXQw=="}, "T": {"type": "DT_FLOAT"}, "strides": {"list": {"i": ["1", "16", "8", "1"]}}}}, {"name": "StatefulPartitionedCall/model/MobileNetV3_Small/StatefulPartitionedCall/StatefulPartitionedCall/Bneck/Bneck3/Bneck3/Bneck/Depthwise/SEBottleneck/Squeeze/Conv1x1/Conv2D", "op": "Conv2D", "input": ["StatefulPartitionedCall/model/MobileNetV3_Small/StatefulPartitionedCall/StatefulPartitionedCall/Bneck/Bneck3/Bneck3/Bneck/Depthwise/SEBottleneck/GlobalAveragePooling2D/AvgPool16x8/AvgPool", "StatefulPartitionedCall/model/MobileNetV3_Small/StatefulPartitionedCall/StatefulPartitionedCall/Bneck/Bneck3/Bneck3/Bneck/Depthwise/SEBottleneck/Squeeze/Conv1x1/Conv2D/ReadVariableOp"], "device": "/device:CPU:0", "attr": {"T": {"type": "DT_FLOAT"}, "data_format": {"s": "TkhXQw=="}, "dilations": {"list": {"i": ["1", "1", "1", "1"]}}, "strides": {"list": {"i": ["1", "1", "1", "1"]}}, "padding": {"s": "VkFMSUQ="}, "use_cudnn_on_gpu": {"b": true}, "explicit_paddings": {"list": {}}}}, {"name": "StatefulPartitionedCall/model/MobileNetV3_Small/StatefulPartitionedCall/StatefulPartitionedCall/Bneck/Bneck3/Bneck3/Bneck/Depthwise/SEBottleneck/Squeeze/ReLU/Relu", "op": "Relu", "input": ["StatefulPartitionedCall/model/MobileNetV3_Small/StatefulPartitionedCall/StatefulPartitionedCall/Bneck/Bneck3/Bneck3/Bneck/Depthwise/SEBottleneck/Squeeze/Conv1x1/Conv2D"], "attr": {"T": {"type": "DT_FLOAT"}}}, {"name": "StatefulPartitionedCall/model/MobileNetV3_Small/StatefulPartitionedCall/StatefulPartitionedCall/Bneck/Bneck3/Bneck3/Bneck/Depthwise/SEBottleneck/Excite/Conv1x1/Conv2D", "op": "Conv2D", "input": ["StatefulPartitionedCall/model/MobileNetV3_Small/StatefulPartitionedCall/StatefulPartitionedCall/Bneck/Bneck3/Bneck3/Bneck/Depthwise/SEBottleneck/Squeeze/ReLU/Relu", "StatefulPartitionedCall/model/MobileNetV3_Small/StatefulPartitionedCall/StatefulPartitionedCall/Bneck/Bneck3/Bneck3/Bneck/Depthwise/SEBottleneck/Excite/Conv1x1/Conv2D/ReadVariableOp"], "device": "/device:CPU:0", "attr": {"dilations": {"list": {"i": ["1", "1", "1", "1"]}}, "use_cudnn_on_gpu": {"b": true}, "T": {"type": "DT_FLOAT"}, "padding": {"s": "VkFMSUQ="}, "strides": {"list": {"i": ["1", "1", "1", "1"]}}, "explicit_paddings": {"list": {}}, "data_format": {"s": "TkhXQw=="}}}, {"name": "StatefulPartitionedCall/model/MobileNetV3_Small/StatefulPartitionedCall/StatefulPartitionedCall/Bneck/Bneck3/Bneck3/Bneck/Depthwise/SEBottleneck/Excite/HardSigmoid/add", "op": "AddV2", "input": ["StatefulPartitionedCall/model/MobileNetV3_Small/StatefulPartitionedCall/StatefulPartitionedCall/Bneck/Bneck3/Bneck3/Bneck/Depthwise/SEBottleneck/Excite/Conv1x1/Conv2D", "StatefulPartitionedCall/model/MobileNetV3_Small/StatefulPartitionedCall/StatefulPartitionedCall/Bneck/Bneck3/Bneck3/Bneck/Depthwise/SEBottleneck/Excite/HardSigmoid/add/y"], "attr": {"T": {"type": "DT_FLOAT"}}}, {"name": "StatefulPartitionedCall/model/MobileNetV3_Small/StatefulPartitionedCall/StatefulPartitionedCall/Bneck/Bneck3/Bneck3/Bneck/Depthwise/SEBottleneck/Excite/HardSigmoid/ReLU6/ReLU6/Relu6", "op": "Relu6", "input": ["StatefulPartitionedCall/model/MobileNetV3_Small/StatefulPartitionedCall/StatefulPartitionedCall/Bneck/Bneck3/Bneck3/Bneck/Depthwise/SEBottleneck/Excite/HardSigmoid/add"], "attr": {"T": {"type": "DT_FLOAT"}}}, {"name": "StatefulPartitionedCall/model/MobileNetV3_Small/StatefulPartitionedCall/StatefulPartitionedCall/Bneck/Bneck3/Bneck3/Bneck/Depthwise/SEBottleneck/Excite/HardSigmoid/truediv", "op": "Mul", "input": ["StatefulPartitionedCall/model/MobileNetV3_Small/StatefulPartitionedCall/StatefulPartitionedCall/Bneck/Bneck3/Bneck3/Bneck/Depthwise/SEBottleneck/Excite/HardSigmoid/ReLU6/ReLU6/Relu6", "ConstantFolding/StatefulPartitionedCall/model/MobileNetV3_Small/StatefulPartitionedCall/StatefulPartitionedCall/Bneck/Bneck3/Bneck3/Bneck/Depthwise/SEBottleneck/Excite/HardSigmoid/truediv_recip"], "attr": {"T": {"type": "DT_FLOAT"}}}, {"name": "StatefulPartitionedCall/model/MobileNetV3_Small/StatefulPartitionedCall/StatefulPartitionedCall/Bneck/Bneck3/Bneck3/Bneck/Depthwise/SEBottleneck/mul", "op": "Mul", "input": ["StatefulPartitionedCall/model/MobileNetV3_Small/StatefulPartitionedCall/StatefulPartitionedCall/Bneck/Bneck3/Bneck3/Bneck/Depthwise/DWConv5x5/depthwise", "StatefulPartitionedCall/model/MobileNetV3_Small/StatefulPartitionedCall/StatefulPartitionedCall/Bneck/Bneck3/Bneck3/Bneck/Depthwise/SEBottleneck/Excite/HardSigmoid/truediv"], "attr": {"T": {"type": "DT_FLOAT"}}}, {"name": "StatefulPartitionedCall/model/MobileNetV3_Small/StatefulPartitionedCall/StatefulPartitionedCall/Bneck/Bneck3/Bneck3/Bneck/Depthwise/HardSwish/HardSigmoid/truediv", "op": "Mul", "input": ["ConstantFolding/StatefulPartitionedCall/model/MobileNetV3_Small/StatefulPartitionedCall/StatefulPartitionedCall/Bneck/Bneck3/Bneck3/Bneck/Depthwise/HardSwish/HardSigmoid/truediv_recip", "StatefulPartitionedCall/model/MobileNetV3_Small/StatefulPartitionedCall/StatefulPartitionedCall/Bneck/Bneck3/Bneck3/Bneck/Depthwise/SEBottleneck/mul"], "attr": {"_grappler_ArithmeticOptimizer_MinimizeBroadcasts": {"b": true}, "T": {"type": "DT_FLOAT"}}}, {"name": "StatefulPartitionedCall/model/MobileNetV3_Small/StatefulPartitionedCall/StatefulPartitionedCall/Bneck/Bneck3/Bneck3/Bneck/Depthwise/HardSwish/HardSigmoid/add", "op": "AddV2", "input": ["StatefulPartitionedCall/model/MobileNetV3_Small/StatefulPartitionedCall/StatefulPartitionedCall/Bneck/Bneck3/Bneck3/Bneck/Depthwise/SEBottleneck/mul", "StatefulPartitionedCall/model/MobileNetV3_Small/StatefulPartitionedCall/StatefulPartitionedCall/Bneck/Bneck3/Bneck3/Bneck/Depthwise/HardSwish/HardSigmoid/add/y"], "attr": {"T": {"type": "DT_FLOAT"}}}, {"name": "StatefulPartitionedCall/model/MobileNetV3_Small/StatefulPartitionedCall/StatefulPartitionedCall/Bneck/Bneck3/Bneck3/Bneck/Depthwise/HardSwish/HardSigmoid/ReLU6/ReLU6/Relu6", "op": "Relu6", "input": ["StatefulPartitionedCall/model/MobileNetV3_Small/StatefulPartitionedCall/StatefulPartitionedCall/Bneck/Bneck3/Bneck3/Bneck/Depthwise/HardSwish/HardSigmoid/add"], "attr": {"T": {"type": "DT_FLOAT"}}}, {"name": "StatefulPartitionedCall/model/MobileNetV3_Small/StatefulPartitionedCall/StatefulPartitionedCall/Bneck/Bneck3/Bneck3/Bneck/Depthwise/HardSwish/mul", "op": "Mul", "input": ["StatefulPartitionedCall/model/MobileNetV3_Small/StatefulPartitionedCall/StatefulPartitionedCall/Bneck/Bneck3/Bneck3/Bneck/Depthwise/HardSwish/HardSigmoid/truediv", "StatefulPartitionedCall/model/MobileNetV3_Small/StatefulPartitionedCall/StatefulPartitionedCall/Bneck/Bneck3/Bneck3/Bneck/Depthwise/HardSwish/HardSigmoid/ReLU6/ReLU6/Relu6"], "attr": {"_grappler_ArithmeticOptimizer_MinimizeBroadcasts": {"b": true}, "T": {"type": "DT_FLOAT"}}}, {"name": "StatefulPartitionedCall/model/MobileNetV3_Small/StatefulPartitionedCall/StatefulPartitionedCall/Bneck/Bneck3/Bneck3/Bneck/Project/BatchNormalization/BatchNormalization/FusedBatchNormV3", "op": "_FusedConv2D", "input": ["StatefulPartitionedCall/model/MobileNetV3_Small/StatefulPartitionedCall/StatefulPartitionedCall/Bneck/Bneck3/Bneck3/Bneck/Depthwise/HardSwish/mul", "StatefulPartitionedCall/model/MobileNetV3_Small/StatefulPartitionedCall/StatefulPartitionedCall/Bneck/Bneck3/Bneck3/Bneck/Project/Conv1x1/Conv2D_weights", "StatefulPartitionedCall/model/MobileNetV3_Small/StatefulPartitionedCall/StatefulPartitionedCall/Bneck/Bneck3/Bneck3/Bneck/Project/Conv1x1/Conv2D_bn_offset"], "device": "/device:CPU:0", "attr": {"strides": {"list": {"i": ["1", "1", "1", "1"]}}, "use_cudnn_on_gpu": {"b": true}, "epsilon": {"f": 0.0}, "T": {"type": "DT_FLOAT"}, "dilations": {"list": {"i": ["1", "1", "1", "1"]}}, "fused_ops": {"list": {"s": ["Qmlhc0FkZA=="]}}, "padding": {"s": "VkFMSUQ="}, "explicit_paddings": {"list": {}}, "num_args": {"i": "1"}, "data_format": {"s": "TkhXQw=="}}}, {"name": "StatefulPartitionedCall/model/MobileNetV3_Small/StatefulPartitionedCall/StatefulPartitionedCall/Bneck/Bneck4/Bneck4/Bneck/Expand/BatchNormalization/BatchNormalization/FusedBatchNormV3", "op": "_FusedConv2D", "input": ["StatefulPartitionedCall/model/MobileNetV3_Small/StatefulPartitionedCall/StatefulPartitionedCall/Bneck/Bneck3/Bneck3/Bneck/Project/BatchNormalization/BatchNormalization/FusedBatchNormV3", "StatefulPartitionedCall/model/MobileNetV3_Small/StatefulPartitionedCall/StatefulPartitionedCall/Bneck/Bneck4/Bneck4/Bneck/Expand/Conv1x1/Conv2D_weights", "StatefulPartitionedCall/model/MobileNetV3_Small/StatefulPartitionedCall/StatefulPartitionedCall/Bneck/Bneck4/Bneck4/Bneck/Expand/Conv1x1/Conv2D_bn_offset"], "device": "/device:CPU:0", "attr": {"T": {"type": "DT_FLOAT"}, "explicit_paddings": {"list": {}}, "fused_ops": {"list": {"s": ["Qmlhc0FkZA=="]}}, "epsilon": {"f": 0.0}, "num_args": {"i": "1"}, "dilations": {"list": {"i": ["1", "1", "1", "1"]}}, "padding": {"s": "VkFMSUQ="}, "data_format": {"s": "TkhXQw=="}, "use_cudnn_on_gpu": {"b": true}, "strides": {"list": {"i": ["1", "1", "1", "1"]}}}}, {"name": "StatefulPartitionedCall/model/MobileNetV3_Small/StatefulPartitionedCall/StatefulPartitionedCall/Bneck/Bneck4/Bneck4/Bneck/Expand/HardSwish/HardSigmoid/truediv", "op": "Mul", "input": ["ConstantFolding/StatefulPartitionedCall/model/MobileNetV3_Small/StatefulPartitionedCall/StatefulPartitionedCall/Bneck/Bneck4/Bneck4/Bneck/Expand/HardSwish/HardSigmoid/truediv_recip", "StatefulPartitionedCall/model/MobileNetV3_Small/StatefulPartitionedCall/StatefulPartitionedCall/Bneck/Bneck4/Bneck4/Bneck/Expand/BatchNormalization/BatchNormalization/FusedBatchNormV3"], "attr": {"_grappler_ArithmeticOptimizer_MinimizeBroadcasts": {"b": true}, "T": {"type": "DT_FLOAT"}}}, {"name": "StatefulPartitionedCall/model/MobileNetV3_Small/StatefulPartitionedCall/StatefulPartitionedCall/Bneck/Bneck4/Bneck4/Bneck/Expand/HardSwish/HardSigmoid/add", "op": "AddV2", "input": ["StatefulPartitionedCall/model/MobileNetV3_Small/StatefulPartitionedCall/StatefulPartitionedCall/Bneck/Bneck4/Bneck4/Bneck/Expand/BatchNormalization/BatchNormalization/FusedBatchNormV3", "StatefulPartitionedCall/model/MobileNetV3_Small/StatefulPartitionedCall/StatefulPartitionedCall/Bneck/Bneck4/Bneck4/Bneck/Expand/HardSwish/HardSigmoid/add/y"], "attr": {"T": {"type": "DT_FLOAT"}}}, {"name": "StatefulPartitionedCall/model/MobileNetV3_Small/StatefulPartitionedCall/StatefulPartitionedCall/Bneck/Bneck4/Bneck4/Bneck/Expand/HardSwish/HardSigmoid/ReLU6/ReLU6/Relu6", "op": "Relu6", "input": ["StatefulPartitionedCall/model/MobileNetV3_Small/StatefulPartitionedCall/StatefulPartitionedCall/Bneck/Bneck4/Bneck4/Bneck/Expand/HardSwish/HardSigmoid/add"], "attr": {"T": {"type": "DT_FLOAT"}}}, {"name": "StatefulPartitionedCall/model/MobileNetV3_Small/StatefulPartitionedCall/StatefulPartitionedCall/Bneck/Bneck4/Bneck4/Bneck/Expand/HardSwish/mul", "op": "Mul", "input": ["StatefulPartitionedCall/model/MobileNetV3_Small/StatefulPartitionedCall/StatefulPartitionedCall/Bneck/Bneck4/Bneck4/Bneck/Expand/HardSwish/HardSigmoid/truediv", "StatefulPartitionedCall/model/MobileNetV3_Small/StatefulPartitionedCall/StatefulPartitionedCall/Bneck/Bneck4/Bneck4/Bneck/Expand/HardSwish/HardSigmoid/ReLU6/ReLU6/Relu6"], "attr": {"T": {"type": "DT_FLOAT"}, "_grappler_ArithmeticOptimizer_MinimizeBroadcasts": {"b": true}}}, {"name": "StatefulPartitionedCall/model/MobileNetV3_Small/StatefulPartitionedCall/StatefulPartitionedCall/Bneck/Bneck4/Bneck4/Bneck/Depthwise/Padding2x2/Pad", "op": "Pad", "input": ["StatefulPartitionedCall/model/MobileNetV3_Small/StatefulPartitionedCall/StatefulPartitionedCall/Bneck/Bneck4/Bneck4/Bneck/Expand/HardSwish/mul", "StatefulPartitionedCall/model/MobileNetV3_Small/StatefulPartitionedCall/StatefulPartitionedCall/Bneck/Bneck4/Bneck4/Bneck/Depthwise/Padding2x2/Pad/paddings"], "attr": {"T": {"type": "DT_FLOAT"}, "Tpaddings": {"type": "DT_INT32"}}}, {"name": "StatefulPartitionedCall/model/MobileNetV3_Small/StatefulPartitionedCall/StatefulPartitionedCall/Bneck/Bneck4/Bneck4/Bneck/Depthwise/DWConv5x5/depthwise", "op": "FusedDepthwiseConv2dNative", "input": ["StatefulPartitionedCall/model/MobileNetV3_Small/StatefulPartitionedCall/StatefulPartitionedCall/Bneck/Bneck4/Bneck4/Bneck/Depthwise/Padding2x2/Pad", "StatefulPartitionedCall/model/MobileNetV3_Small/StatefulPartitionedCall/StatefulPartitionedCall/Bneck/Bneck4/Bneck4/Bneck/Depthwise/DWConv5x5/depthwise_weights", "StatefulPartitionedCall/model/MobileNetV3_Small/StatefulPartitionedCall/StatefulPartitionedCall/Bneck/Bneck4/Bneck4/Bneck/Depthwise/DWConv5x5/depthwise_bn_offset"], "attr": {"dilations": {"list": {"i": ["1", "1", "1", "1"]}}, "fused_ops": {"list": {"s": ["Qmlhc0FkZA=="]}}, "padding": {"s": "VkFMSUQ="}, "T": {"type": "DT_FLOAT"}, "explicit_paddings": {"list": {}}, "data_format": {"s": "TkhXQw=="}, "num_args": {"i": "1"}, "strides": {"list": {"i": ["1", "1", "1", "1"]}}}}, {"name": "StatefulPartitionedCall/model/MobileNetV3_Small/StatefulPartitionedCall/StatefulPartitionedCall/Bneck/Bneck4/Bneck4/Bneck/Depthwise/SEBottleneck/GlobalAveragePooling2D/AvgPool16x8/AvgPool", "op": "AvgPool", "input": ["StatefulPartitionedCall/model/MobileNetV3_Small/StatefulPartitionedCall/StatefulPartitionedCall/Bneck/Bneck4/Bneck4/Bneck/Depthwise/DWConv5x5/depthwise"], "attr": {"strides": {"list": {"i": ["1", "16", "8", "1"]}}, "data_format": {"s": "TkhXQw=="}, "padding": {"s": "VkFMSUQ="}, "T": {"type": "DT_FLOAT"}, "ksize": {"list": {"i": ["1", "16", "8", "1"]}}}}, {"name": "StatefulPartitionedCall/model/MobileNetV3_Small/StatefulPartitionedCall/StatefulPartitionedCall/Bneck/Bneck4/Bneck4/Bneck/Depthwise/SEBottleneck/Squeeze/Conv1x1/Conv2D", "op": "Conv2D", "input": ["StatefulPartitionedCall/model/MobileNetV3_Small/StatefulPartitionedCall/StatefulPartitionedCall/Bneck/Bneck4/Bneck4/Bneck/Depthwise/SEBottleneck/GlobalAveragePooling2D/AvgPool16x8/AvgPool", "StatefulPartitionedCall/model/MobileNetV3_Small/StatefulPartitionedCall/StatefulPartitionedCall/Bneck/Bneck4/Bneck4/Bneck/Depthwise/SEBottleneck/Squeeze/Conv1x1/Conv2D/ReadVariableOp"], "device": "/device:CPU:0", "attr": {"use_cudnn_on_gpu": {"b": true}, "dilations": {"list": {"i": ["1", "1", "1", "1"]}}, "strides": {"list": {"i": ["1", "1", "1", "1"]}}, "explicit_paddings": {"list": {}}, "T": {"type": "DT_FLOAT"}, "padding": {"s": "VkFMSUQ="}, "data_format": {"s": "TkhXQw=="}}}, {"name": "StatefulPartitionedCall/model/MobileNetV3_Small/StatefulPartitionedCall/StatefulPartitionedCall/Bneck/Bneck4/Bneck4/Bneck/Depthwise/SEBottleneck/Squeeze/ReLU/Relu", "op": "Relu", "input": ["StatefulPartitionedCall/model/MobileNetV3_Small/StatefulPartitionedCall/StatefulPartitionedCall/Bneck/Bneck4/Bneck4/Bneck/Depthwise/SEBottleneck/Squeeze/Conv1x1/Conv2D"], "attr": {"T": {"type": "DT_FLOAT"}}}, {"name": "StatefulPartitionedCall/model/MobileNetV3_Small/StatefulPartitionedCall/StatefulPartitionedCall/Bneck/Bneck4/Bneck4/Bneck/Depthwise/SEBottleneck/Excite/Conv1x1/Conv2D", "op": "Conv2D", "input": ["StatefulPartitionedCall/model/MobileNetV3_Small/StatefulPartitionedCall/StatefulPartitionedCall/Bneck/Bneck4/Bneck4/Bneck/Depthwise/SEBottleneck/Squeeze/ReLU/Relu", "StatefulPartitionedCall/model/MobileNetV3_Small/StatefulPartitionedCall/StatefulPartitionedCall/Bneck/Bneck4/Bneck4/Bneck/Depthwise/SEBottleneck/Excite/Conv1x1/Conv2D/ReadVariableOp"], "device": "/device:CPU:0", "attr": {"dilations": {"list": {"i": ["1", "1", "1", "1"]}}, "strides": {"list": {"i": ["1", "1", "1", "1"]}}, "use_cudnn_on_gpu": {"b": true}, "data_format": {"s": "TkhXQw=="}, "padding": {"s": "VkFMSUQ="}, "T": {"type": "DT_FLOAT"}, "explicit_paddings": {"list": {}}}}, {"name": "StatefulPartitionedCall/model/MobileNetV3_Small/StatefulPartitionedCall/StatefulPartitionedCall/Bneck/Bneck4/Bneck4/Bneck/Depthwise/SEBottleneck/Excite/HardSigmoid/add", "op": "AddV2", "input": ["StatefulPartitionedCall/model/MobileNetV3_Small/StatefulPartitionedCall/StatefulPartitionedCall/Bneck/Bneck4/Bneck4/Bneck/Depthwise/SEBottleneck/Excite/Conv1x1/Conv2D", "StatefulPartitionedCall/model/MobileNetV3_Small/StatefulPartitionedCall/StatefulPartitionedCall/Bneck/Bneck4/Bneck4/Bneck/Depthwise/SEBottleneck/Excite/HardSigmoid/add/y"], "attr": {"T": {"type": "DT_FLOAT"}}}, {"name": "StatefulPartitionedCall/model/MobileNetV3_Small/StatefulPartitionedCall/StatefulPartitionedCall/Bneck/Bneck4/Bneck4/Bneck/Depthwise/SEBottleneck/Excite/HardSigmoid/ReLU6/ReLU6/Relu6", "op": "Relu6", "input": ["StatefulPartitionedCall/model/MobileNetV3_Small/StatefulPartitionedCall/StatefulPartitionedCall/Bneck/Bneck4/Bneck4/Bneck/Depthwise/SEBottleneck/Excite/HardSigmoid/add"], "attr": {"T": {"type": "DT_FLOAT"}}}, {"name": "StatefulPartitionedCall/model/MobileNetV3_Small/StatefulPartitionedCall/StatefulPartitionedCall/Bneck/Bneck4/Bneck4/Bneck/Depthwise/SEBottleneck/Excite/HardSigmoid/truediv", "op": "Mul", "input": ["StatefulPartitionedCall/model/MobileNetV3_Small/StatefulPartitionedCall/StatefulPartitionedCall/Bneck/Bneck4/Bneck4/Bneck/Depthwise/SEBottleneck/Excite/HardSigmoid/ReLU6/ReLU6/Relu6", "ConstantFolding/StatefulPartitionedCall/model/MobileNetV3_Small/StatefulPartitionedCall/StatefulPartitionedCall/Bneck/Bneck4/Bneck4/Bneck/Depthwise/SEBottleneck/Excite/HardSigmoid/truediv_recip"], "attr": {"T": {"type": "DT_FLOAT"}}}, {"name": "StatefulPartitionedCall/model/MobileNetV3_Small/StatefulPartitionedCall/StatefulPartitionedCall/Bneck/Bneck4/Bneck4/Bneck/Depthwise/SEBottleneck/mul", "op": "Mul", "input": ["StatefulPartitionedCall/model/MobileNetV3_Small/StatefulPartitionedCall/StatefulPartitionedCall/Bneck/Bneck4/Bneck4/Bneck/Depthwise/DWConv5x5/depthwise", "StatefulPartitionedCall/model/MobileNetV3_Small/StatefulPartitionedCall/StatefulPartitionedCall/Bneck/Bneck4/Bneck4/Bneck/Depthwise/SEBottleneck/Excite/HardSigmoid/truediv"], "attr": {"T": {"type": "DT_FLOAT"}}}, {"name": "StatefulPartitionedCall/model/MobileNetV3_Small/StatefulPartitionedCall/StatefulPartitionedCall/Bneck/Bneck4/Bneck4/Bneck/Depthwise/HardSwish/HardSigmoid/truediv", "op": "Mul", "input": ["ConstantFolding/StatefulPartitionedCall/model/MobileNetV3_Small/StatefulPartitionedCall/StatefulPartitionedCall/Bneck/Bneck4/Bneck4/Bneck/Depthwise/HardSwish/HardSigmoid/truediv_recip", "StatefulPartitionedCall/model/MobileNetV3_Small/StatefulPartitionedCall/StatefulPartitionedCall/Bneck/Bneck4/Bneck4/Bneck/Depthwise/SEBottleneck/mul"], "attr": {"T": {"type": "DT_FLOAT"}, "_grappler_ArithmeticOptimizer_MinimizeBroadcasts": {"b": true}}}, {"name": "StatefulPartitionedCall/model/MobileNetV3_Small/StatefulPartitionedCall/StatefulPartitionedCall/Bneck/Bneck4/Bneck4/Bneck/Depthwise/HardSwish/HardSigmoid/add", "op": "AddV2", "input": ["StatefulPartitionedCall/model/MobileNetV3_Small/StatefulPartitionedCall/StatefulPartitionedCall/Bneck/Bneck4/Bneck4/Bneck/Depthwise/SEBottleneck/mul", "StatefulPartitionedCall/model/MobileNetV3_Small/StatefulPartitionedCall/StatefulPartitionedCall/Bneck/Bneck4/Bneck4/Bneck/Depthwise/HardSwish/HardSigmoid/add/y"], "attr": {"T": {"type": "DT_FLOAT"}}}, {"name": "StatefulPartitionedCall/model/MobileNetV3_Small/StatefulPartitionedCall/StatefulPartitionedCall/Bneck/Bneck4/Bneck4/Bneck/Depthwise/HardSwish/HardSigmoid/ReLU6/ReLU6/Relu6", "op": "Relu6", "input": ["StatefulPartitionedCall/model/MobileNetV3_Small/StatefulPartitionedCall/StatefulPartitionedCall/Bneck/Bneck4/Bneck4/Bneck/Depthwise/HardSwish/HardSigmoid/add"], "attr": {"T": {"type": "DT_FLOAT"}}}, {"name": "StatefulPartitionedCall/model/MobileNetV3_Small/StatefulPartitionedCall/StatefulPartitionedCall/Bneck/Bneck4/Bneck4/Bneck/Depthwise/HardSwish/mul", "op": "Mul", "input": ["StatefulPartitionedCall/model/MobileNetV3_Small/StatefulPartitionedCall/StatefulPartitionedCall/Bneck/Bneck4/Bneck4/Bneck/Depthwise/HardSwish/HardSigmoid/truediv", "StatefulPartitionedCall/model/MobileNetV3_Small/StatefulPartitionedCall/StatefulPartitionedCall/Bneck/Bneck4/Bneck4/Bneck/Depthwise/HardSwish/HardSigmoid/ReLU6/ReLU6/Relu6"], "attr": {"T": {"type": "DT_FLOAT"}, "_grappler_ArithmeticOptimizer_MinimizeBroadcasts": {"b": true}}}, {"name": "StatefulPartitionedCall/model/MobileNetV3_Small/StatefulPartitionedCall/StatefulPartitionedCall/Bneck/Bneck4/Bneck4/Bneck/Project/BatchNormalization/BatchNormalization/FusedBatchNormV3", "op": "_FusedConv2D", "input": ["StatefulPartitionedCall/model/MobileNetV3_Small/StatefulPartitionedCall/StatefulPartitionedCall/Bneck/Bneck4/Bneck4/Bneck/Depthwise/HardSwish/mul", "StatefulPartitionedCall/model/MobileNetV3_Small/StatefulPartitionedCall/StatefulPartitionedCall/Bneck/Bneck4/Bneck4/Bneck/Project/Conv1x1/Conv2D_weights", "StatefulPartitionedCall/model/MobileNetV3_Small/StatefulPartitionedCall/StatefulPartitionedCall/Bneck/Bneck4/Bneck4/Bneck/Project/Conv1x1/Conv2D_bn_offset"], "device": "/device:CPU:0", "attr": {"data_format": {"s": "TkhXQw=="}, "dilations": {"list": {"i": ["1", "1", "1", "1"]}}, "fused_ops": {"list": {"s": ["Qmlhc0FkZA=="]}}, "padding": {"s": "VkFMSUQ="}, "epsilon": {"f": 0.0}, "T": {"type": "DT_FLOAT"}, "explicit_paddings": {"list": {}}, "use_cudnn_on_gpu": {"b": true}, "strides": {"list": {"i": ["1", "1", "1", "1"]}}, "num_args": {"i": "1"}}}, {"name": "StatefulPartitionedCall/model/MobileNetV3_Small/StatefulPartitionedCall/StatefulPartitionedCall/Bneck/Bneck4/Bneck4/Bneck/add", "op": "AddV2", "input": ["StatefulPartitionedCall/model/MobileNetV3_Small/StatefulPartitionedCall/StatefulPartitionedCall/Bneck/Bneck3/Bneck3/Bneck/Project/BatchNormalization/BatchNormalization/FusedBatchNormV3", "StatefulPartitionedCall/model/MobileNetV3_Small/StatefulPartitionedCall/StatefulPartitionedCall/Bneck/Bneck4/Bneck4/Bneck/Project/BatchNormalization/BatchNormalization/FusedBatchNormV3"], "attr": {"T": {"type": "DT_FLOAT"}}}, {"name": "StatefulPartitionedCall/model/MobileNetV3_Small/StatefulPartitionedCall/StatefulPartitionedCall/Bneck/Bneck5/Bneck5/Bneck/Expand/BatchNormalization/BatchNormalization/FusedBatchNormV3", "op": "_FusedConv2D", "input": ["StatefulPartitionedCall/model/MobileNetV3_Small/StatefulPartitionedCall/StatefulPartitionedCall/Bneck/Bneck4/Bneck4/Bneck/add", "StatefulPartitionedCall/model/MobileNetV3_Small/StatefulPartitionedCall/StatefulPartitionedCall/Bneck/Bneck5/Bneck5/Bneck/Expand/Conv1x1/Conv2D_weights", "StatefulPartitionedCall/model/MobileNetV3_Small/StatefulPartitionedCall/StatefulPartitionedCall/Bneck/Bneck5/Bneck5/Bneck/Expand/Conv1x1/Conv2D_bn_offset"], "device": "/device:CPU:0", "attr": {"explicit_paddings": {"list": {}}, "num_args": {"i": "1"}, "data_format": {"s": "TkhXQw=="}, "dilations": {"list": {"i": ["1", "1", "1", "1"]}}, "strides": {"list": {"i": ["1", "1", "1", "1"]}}, "T": {"type": "DT_FLOAT"}, "padding": {"s": "VkFMSUQ="}, "fused_ops": {"list": {"s": ["Qmlhc0FkZA=="]}}, "use_cudnn_on_gpu": {"b": true}, "epsilon": {"f": 0.0}}}, {"name": "StatefulPartitionedCall/model/MobileNetV3_Small/StatefulPartitionedCall/StatefulPartitionedCall/Bneck/Bneck5/Bneck5/Bneck/Expand/HardSwish/HardSigmoid/truediv", "op": "Mul", "input": ["ConstantFolding/StatefulPartitionedCall/model/MobileNetV3_Small/StatefulPartitionedCall/StatefulPartitionedCall/Bneck/Bneck5/Bneck5/Bneck/Expand/HardSwish/HardSigmoid/truediv_recip", "StatefulPartitionedCall/model/MobileNetV3_Small/StatefulPartitionedCall/StatefulPartitionedCall/Bneck/Bneck5/Bneck5/Bneck/Expand/BatchNormalization/BatchNormalization/FusedBatchNormV3"], "attr": {"T": {"type": "DT_FLOAT"}, "_grappler_ArithmeticOptimizer_MinimizeBroadcasts": {"b": true}}}, {"name": "StatefulPartitionedCall/model/MobileNetV3_Small/StatefulPartitionedCall/StatefulPartitionedCall/Bneck/Bneck5/Bneck5/Bneck/Expand/HardSwish/HardSigmoid/add", "op": "AddV2", "input": ["StatefulPartitionedCall/model/MobileNetV3_Small/StatefulPartitionedCall/StatefulPartitionedCall/Bneck/Bneck5/Bneck5/Bneck/Expand/BatchNormalization/BatchNormalization/FusedBatchNormV3", "StatefulPartitionedCall/model/MobileNetV3_Small/StatefulPartitionedCall/StatefulPartitionedCall/Bneck/Bneck5/Bneck5/Bneck/Expand/HardSwish/HardSigmoid/add/y"], "attr": {"T": {"type": "DT_FLOAT"}}}, {"name": "StatefulPartitionedCall/model/MobileNetV3_Small/StatefulPartitionedCall/StatefulPartitionedCall/Bneck/Bneck5/Bneck5/Bneck/Expand/HardSwish/HardSigmoid/ReLU6/ReLU6/Relu6", "op": "Relu6", "input": ["StatefulPartitionedCall/model/MobileNetV3_Small/StatefulPartitionedCall/StatefulPartitionedCall/Bneck/Bneck5/Bneck5/Bneck/Expand/HardSwish/HardSigmoid/add"], "attr": {"T": {"type": "DT_FLOAT"}}}, {"name": "StatefulPartitionedCall/model/MobileNetV3_Small/StatefulPartitionedCall/StatefulPartitionedCall/Bneck/Bneck5/Bneck5/Bneck/Expand/HardSwish/mul", "op": "Mul", "input": ["StatefulPartitionedCall/model/MobileNetV3_Small/StatefulPartitionedCall/StatefulPartitionedCall/Bneck/Bneck5/Bneck5/Bneck/Expand/HardSwish/HardSigmoid/truediv", "StatefulPartitionedCall/model/MobileNetV3_Small/StatefulPartitionedCall/StatefulPartitionedCall/Bneck/Bneck5/Bneck5/Bneck/Expand/HardSwish/HardSigmoid/ReLU6/ReLU6/Relu6"], "attr": {"T": {"type": "DT_FLOAT"}, "_grappler_ArithmeticOptimizer_MinimizeBroadcasts": {"b": true}}}, {"name": "StatefulPartitionedCall/model/MobileNetV3_Small/StatefulPartitionedCall/StatefulPartitionedCall/Bneck/Bneck5/Bneck5/Bneck/Depthwise/Padding2x2/Pad", "op": "Pad", "input": ["StatefulPartitionedCall/model/MobileNetV3_Small/StatefulPartitionedCall/StatefulPartitionedCall/Bneck/Bneck5/Bneck5/Bneck/Expand/HardSwish/mul", "StatefulPartitionedCall/model/MobileNetV3_Small/StatefulPartitionedCall/StatefulPartitionedCall/Bneck/Bneck5/Bneck5/Bneck/Depthwise/Padding2x2/Pad/paddings"], "attr": {"T": {"type": "DT_FLOAT"}, "Tpaddings": {"type": "DT_INT32"}}}, {"name": "StatefulPartitionedCall/model/MobileNetV3_Small/StatefulPartitionedCall/StatefulPartitionedCall/Bneck/Bneck5/Bneck5/Bneck/Depthwise/DWConv5x5/depthwise", "op": "FusedDepthwiseConv2dNative", "input": ["StatefulPartitionedCall/model/MobileNetV3_Small/StatefulPartitionedCall/StatefulPartitionedCall/Bneck/Bneck5/Bneck5/Bneck/Depthwise/Padding2x2/Pad", "StatefulPartitionedCall/model/MobileNetV3_Small/StatefulPartitionedCall/StatefulPartitionedCall/Bneck/Bneck5/Bneck5/Bneck/Depthwise/DWConv5x5/depthwise_weights", "StatefulPartitionedCall/model/MobileNetV3_Small/StatefulPartitionedCall/StatefulPartitionedCall/Bneck/Bneck5/Bneck5/Bneck/Depthwise/DWConv5x5/depthwise_bn_offset"], "attr": {"data_format": {"s": "TkhXQw=="}, "num_args": {"i": "1"}, "T": {"type": "DT_FLOAT"}, "strides": {"list": {"i": ["1", "1", "1", "1"]}}, "dilations": {"list": {"i": ["1", "1", "1", "1"]}}, "padding": {"s": "VkFMSUQ="}, "explicit_paddings": {"list": {}}, "fused_ops": {"list": {"s": ["Qmlhc0FkZA=="]}}}}, {"name": "StatefulPartitionedCall/model/MobileNetV3_Small/StatefulPartitionedCall/StatefulPartitionedCall/Bneck/Bneck5/Bneck5/Bneck/Depthwise/SEBottleneck/GlobalAveragePooling2D/AvgPool16x8/AvgPool", "op": "AvgPool", "input": ["StatefulPartitionedCall/model/MobileNetV3_Small/StatefulPartitionedCall/StatefulPartitionedCall/Bneck/Bneck5/Bneck5/Bneck/Depthwise/DWConv5x5/depthwise"], "attr": {"strides": {"list": {"i": ["1", "16", "8", "1"]}}, "T": {"type": "DT_FLOAT"}, "ksize": {"list": {"i": ["1", "16", "8", "1"]}}, "data_format": {"s": "TkhXQw=="}, "padding": {"s": "VkFMSUQ="}}}, {"name": "StatefulPartitionedCall/model/MobileNetV3_Small/StatefulPartitionedCall/StatefulPartitionedCall/Bneck/Bneck5/Bneck5/Bneck/Depthwise/SEBottleneck/Squeeze/Conv1x1/Conv2D", "op": "Conv2D", "input": ["StatefulPartitionedCall/model/MobileNetV3_Small/StatefulPartitionedCall/StatefulPartitionedCall/Bneck/Bneck5/Bneck5/Bneck/Depthwise/SEBottleneck/GlobalAveragePooling2D/AvgPool16x8/AvgPool", "StatefulPartitionedCall/model/MobileNetV3_Small/StatefulPartitionedCall/StatefulPartitionedCall/Bneck/Bneck5/Bneck5/Bneck/Depthwise/SEBottleneck/Squeeze/Conv1x1/Conv2D/ReadVariableOp"], "device": "/device:CPU:0", "attr": {"use_cudnn_on_gpu": {"b": true}, "padding": {"s": "VkFMSUQ="}, "explicit_paddings": {"list": {}}, "dilations": {"list": {"i": ["1", "1", "1", "1"]}}, "strides": {"list": {"i": ["1", "1", "1", "1"]}}, "T": {"type": "DT_FLOAT"}, "data_format": {"s": "TkhXQw=="}}}, {"name": "StatefulPartitionedCall/model/MobileNetV3_Small/StatefulPartitionedCall/StatefulPartitionedCall/Bneck/Bneck5/Bneck5/Bneck/Depthwise/SEBottleneck/Squeeze/ReLU/Relu", "op": "Relu", "input": ["StatefulPartitionedCall/model/MobileNetV3_Small/StatefulPartitionedCall/StatefulPartitionedCall/Bneck/Bneck5/Bneck5/Bneck/Depthwise/SEBottleneck/Squeeze/Conv1x1/Conv2D"], "attr": {"T": {"type": "DT_FLOAT"}}}, {"name": "StatefulPartitionedCall/model/MobileNetV3_Small/StatefulPartitionedCall/StatefulPartitionedCall/Bneck/Bneck5/Bneck5/Bneck/Depthwise/SEBottleneck/Excite/Conv1x1/Conv2D", "op": "Conv2D", "input": ["StatefulPartitionedCall/model/MobileNetV3_Small/StatefulPartitionedCall/StatefulPartitionedCall/Bneck/Bneck5/Bneck5/Bneck/Depthwise/SEBottleneck/Squeeze/ReLU/Relu", "StatefulPartitionedCall/model/MobileNetV3_Small/StatefulPartitionedCall/StatefulPartitionedCall/Bneck/Bneck5/Bneck5/Bneck/Depthwise/SEBottleneck/Excite/Conv1x1/Conv2D/ReadVariableOp"], "device": "/device:CPU:0", "attr": {"explicit_paddings": {"list": {}}, "T": {"type": "DT_FLOAT"}, "use_cudnn_on_gpu": {"b": true}, "padding": {"s": "VkFMSUQ="}, "dilations": {"list": {"i": ["1", "1", "1", "1"]}}, "strides": {"list": {"i": ["1", "1", "1", "1"]}}, "data_format": {"s": "TkhXQw=="}}}, {"name": "StatefulPartitionedCall/model/MobileNetV3_Small/StatefulPartitionedCall/StatefulPartitionedCall/Bneck/Bneck5/Bneck5/Bneck/Depthwise/SEBottleneck/Excite/HardSigmoid/add", "op": "AddV2", "input": ["StatefulPartitionedCall/model/MobileNetV3_Small/StatefulPartitionedCall/StatefulPartitionedCall/Bneck/Bneck5/Bneck5/Bneck/Depthwise/SEBottleneck/Excite/Conv1x1/Conv2D", "StatefulPartitionedCall/model/MobileNetV3_Small/StatefulPartitionedCall/StatefulPartitionedCall/Bneck/Bneck5/Bneck5/Bneck/Depthwise/SEBottleneck/Excite/HardSigmoid/add/y"], "attr": {"T": {"type": "DT_FLOAT"}}}, {"name": "StatefulPartitionedCall/model/MobileNetV3_Small/StatefulPartitionedCall/StatefulPartitionedCall/Bneck/Bneck5/Bneck5/Bneck/Depthwise/SEBottleneck/Excite/HardSigmoid/ReLU6/ReLU6/Relu6", "op": "Relu6", "input": ["StatefulPartitionedCall/model/MobileNetV3_Small/StatefulPartitionedCall/StatefulPartitionedCall/Bneck/Bneck5/Bneck5/Bneck/Depthwise/SEBottleneck/Excite/HardSigmoid/add"], "attr": {"T": {"type": "DT_FLOAT"}}}, {"name": "StatefulPartitionedCall/model/MobileNetV3_Small/StatefulPartitionedCall/StatefulPartitionedCall/Bneck/Bneck5/Bneck5/Bneck/Depthwise/SEBottleneck/Excite/HardSigmoid/truediv", "op": "Mul", "input": ["StatefulPartitionedCall/model/MobileNetV3_Small/StatefulPartitionedCall/StatefulPartitionedCall/Bneck/Bneck5/Bneck5/Bneck/Depthwise/SEBottleneck/Excite/HardSigmoid/ReLU6/ReLU6/Relu6", "ConstantFolding/StatefulPartitionedCall/model/MobileNetV3_Small/StatefulPartitionedCall/StatefulPartitionedCall/Bneck/Bneck5/Bneck5/Bneck/Depthwise/SEBottleneck/Excite/HardSigmoid/truediv_recip"], "attr": {"T": {"type": "DT_FLOAT"}}}, {"name": "StatefulPartitionedCall/model/MobileNetV3_Small/StatefulPartitionedCall/StatefulPartitionedCall/Bneck/Bneck5/Bneck5/Bneck/Depthwise/SEBottleneck/mul", "op": "Mul", "input": ["StatefulPartitionedCall/model/MobileNetV3_Small/StatefulPartitionedCall/StatefulPartitionedCall/Bneck/Bneck5/Bneck5/Bneck/Depthwise/DWConv5x5/depthwise", "StatefulPartitionedCall/model/MobileNetV3_Small/StatefulPartitionedCall/StatefulPartitionedCall/Bneck/Bneck5/Bneck5/Bneck/Depthwise/SEBottleneck/Excite/HardSigmoid/truediv"], "attr": {"T": {"type": "DT_FLOAT"}}}, {"name": "StatefulPartitionedCall/model/MobileNetV3_Small/StatefulPartitionedCall/StatefulPartitionedCall/Bneck/Bneck5/Bneck5/Bneck/Depthwise/HardSwish/HardSigmoid/truediv", "op": "Mul", "input": ["ConstantFolding/StatefulPartitionedCall/model/MobileNetV3_Small/StatefulPartitionedCall/StatefulPartitionedCall/Bneck/Bneck5/Bneck5/Bneck/Depthwise/HardSwish/HardSigmoid/truediv_recip", "StatefulPartitionedCall/model/MobileNetV3_Small/StatefulPartitionedCall/StatefulPartitionedCall/Bneck/Bneck5/Bneck5/Bneck/Depthwise/SEBottleneck/mul"], "attr": {"_grappler_ArithmeticOptimizer_MinimizeBroadcasts": {"b": true}, "T": {"type": "DT_FLOAT"}}}, {"name": "StatefulPartitionedCall/model/MobileNetV3_Small/StatefulPartitionedCall/StatefulPartitionedCall/Bneck/Bneck5/Bneck5/Bneck/Depthwise/HardSwish/HardSigmoid/add", "op": "AddV2", "input": ["StatefulPartitionedCall/model/MobileNetV3_Small/StatefulPartitionedCall/StatefulPartitionedCall/Bneck/Bneck5/Bneck5/Bneck/Depthwise/SEBottleneck/mul", "StatefulPartitionedCall/model/MobileNetV3_Small/StatefulPartitionedCall/StatefulPartitionedCall/Bneck/Bneck5/Bneck5/Bneck/Depthwise/HardSwish/HardSigmoid/add/y"], "attr": {"T": {"type": "DT_FLOAT"}}}, {"name": "StatefulPartitionedCall/model/MobileNetV3_Small/StatefulPartitionedCall/StatefulPartitionedCall/Bneck/Bneck5/Bneck5/Bneck/Depthwise/HardSwish/HardSigmoid/ReLU6/ReLU6/Relu6", "op": "Relu6", "input": ["StatefulPartitionedCall/model/MobileNetV3_Small/StatefulPartitionedCall/StatefulPartitionedCall/Bneck/Bneck5/Bneck5/Bneck/Depthwise/HardSwish/HardSigmoid/add"], "attr": {"T": {"type": "DT_FLOAT"}}}, {"name": "StatefulPartitionedCall/model/MobileNetV3_Small/StatefulPartitionedCall/StatefulPartitionedCall/Bneck/Bneck5/Bneck5/Bneck/Depthwise/HardSwish/mul", "op": "Mul", "input": ["StatefulPartitionedCall/model/MobileNetV3_Small/StatefulPartitionedCall/StatefulPartitionedCall/Bneck/Bneck5/Bneck5/Bneck/Depthwise/HardSwish/HardSigmoid/truediv", "StatefulPartitionedCall/model/MobileNetV3_Small/StatefulPartitionedCall/StatefulPartitionedCall/Bneck/Bneck5/Bneck5/Bneck/Depthwise/HardSwish/HardSigmoid/ReLU6/ReLU6/Relu6"], "attr": {"_grappler_ArithmeticOptimizer_MinimizeBroadcasts": {"b": true}, "T": {"type": "DT_FLOAT"}}}, {"name": "StatefulPartitionedCall/model/MobileNetV3_Small/StatefulPartitionedCall/StatefulPartitionedCall/Bneck/Bneck5/Bneck5/Bneck/Project/BatchNormalization/BatchNormalization/FusedBatchNormV3", "op": "_FusedConv2D", "input": ["StatefulPartitionedCall/model/MobileNetV3_Small/StatefulPartitionedCall/StatefulPartitionedCall/Bneck/Bneck5/Bneck5/Bneck/Depthwise/HardSwish/mul", "StatefulPartitionedCall/model/MobileNetV3_Small/StatefulPartitionedCall/StatefulPartitionedCall/Bneck/Bneck5/Bneck5/Bneck/Project/Conv1x1/Conv2D_weights", "StatefulPartitionedCall/model/MobileNetV3_Small/StatefulPartitionedCall/StatefulPartitionedCall/Bneck/Bneck5/Bneck5/Bneck/Project/Conv1x1/Conv2D_bn_offset"], "device": "/device:CPU:0", "attr": {"fused_ops": {"list": {"s": ["Qmlhc0FkZA=="]}}, "num_args": {"i": "1"}, "strides": {"list": {"i": ["1", "1", "1", "1"]}}, "data_format": {"s": "TkhXQw=="}, "padding": {"s": "VkFMSUQ="}, "T": {"type": "DT_FLOAT"}, "use_cudnn_on_gpu": {"b": true}, "epsilon": {"f": 0.0}, "dilations": {"list": {"i": ["1", "1", "1", "1"]}}, "explicit_paddings": {"list": {}}}}, {"name": "StatefulPartitionedCall/model/MobileNetV3_Small/StatefulPartitionedCall/StatefulPartitionedCall/Bneck/Bneck5/Bneck5/Bneck/add", "op": "AddV2", "input": ["StatefulPartitionedCall/model/MobileNetV3_Small/StatefulPartitionedCall/StatefulPartitionedCall/Bneck/Bneck4/Bneck4/Bneck/add", "StatefulPartitionedCall/model/MobileNetV3_Small/StatefulPartitionedCall/StatefulPartitionedCall/Bneck/Bneck5/Bneck5/Bneck/Project/BatchNormalization/BatchNormalization/FusedBatchNormV3"], "attr": {"T": {"type": "DT_FLOAT"}}}, {"name": "StatefulPartitionedCall/model/MobileNetV3_Small/StatefulPartitionedCall/StatefulPartitionedCall/Bneck/Bneck6/Bneck6/Bneck/Expand/BatchNormalization/BatchNormalization/FusedBatchNormV3", "op": "_FusedConv2D", "input": ["StatefulPartitionedCall/model/MobileNetV3_Small/StatefulPartitionedCall/StatefulPartitionedCall/Bneck/Bneck5/Bneck5/Bneck/add", "StatefulPartitionedCall/model/MobileNetV3_Small/StatefulPartitionedCall/StatefulPartitionedCall/Bneck/Bneck6/Bneck6/Bneck/Expand/Conv1x1/Conv2D_weights", "StatefulPartitionedCall/model/MobileNetV3_Small/StatefulPartitionedCall/StatefulPartitionedCall/Bneck/Bneck6/Bneck6/Bneck/Expand/Conv1x1/Conv2D_bn_offset"], "device": "/device:CPU:0", "attr": {"T": {"type": "DT_FLOAT"}, "explicit_paddings": {"list": {}}, "fused_ops": {"list": {"s": ["Qmlhc0FkZA=="]}}, "epsilon": {"f": 0.0}, "num_args": {"i": "1"}, "dilations": {"list": {"i": ["1", "1", "1", "1"]}}, "data_format": {"s": "TkhXQw=="}, "use_cudnn_on_gpu": {"b": true}, "strides": {"list": {"i": ["1", "1", "1", "1"]}}, "padding": {"s": "VkFMSUQ="}}}, {"name": "StatefulPartitionedCall/model/MobileNetV3_Small/StatefulPartitionedCall/StatefulPartitionedCall/Bneck/Bneck6/Bneck6/Bneck/Expand/HardSwish/HardSigmoid/truediv", "op": "Mul", "input": ["ConstantFolding/StatefulPartitionedCall/model/MobileNetV3_Small/StatefulPartitionedCall/StatefulPartitionedCall/Bneck/Bneck6/Bneck6/Bneck/Expand/HardSwish/HardSigmoid/truediv_recip", "StatefulPartitionedCall/model/MobileNetV3_Small/StatefulPartitionedCall/StatefulPartitionedCall/Bneck/Bneck6/Bneck6/Bneck/Expand/BatchNormalization/BatchNormalization/FusedBatchNormV3"], "attr": {"T": {"type": "DT_FLOAT"}, "_grappler_ArithmeticOptimizer_MinimizeBroadcasts": {"b": true}}}, {"name": "StatefulPartitionedCall/model/MobileNetV3_Small/StatefulPartitionedCall/StatefulPartitionedCall/Bneck/Bneck6/Bneck6/Bneck/Expand/HardSwish/HardSigmoid/add", "op": "AddV2", "input": ["StatefulPartitionedCall/model/MobileNetV3_Small/StatefulPartitionedCall/StatefulPartitionedCall/Bneck/Bneck6/Bneck6/Bneck/Expand/BatchNormalization/BatchNormalization/FusedBatchNormV3", "StatefulPartitionedCall/model/MobileNetV3_Small/StatefulPartitionedCall/StatefulPartitionedCall/Bneck/Bneck6/Bneck6/Bneck/Expand/HardSwish/HardSigmoid/add/y"], "attr": {"T": {"type": "DT_FLOAT"}}}, {"name": "StatefulPartitionedCall/model/MobileNetV3_Small/StatefulPartitionedCall/StatefulPartitionedCall/Bneck/Bneck6/Bneck6/Bneck/Expand/HardSwish/HardSigmoid/ReLU6/ReLU6/Relu6", "op": "Relu6", "input": ["StatefulPartitionedCall/model/MobileNetV3_Small/StatefulPartitionedCall/StatefulPartitionedCall/Bneck/Bneck6/Bneck6/Bneck/Expand/HardSwish/HardSigmoid/add"], "attr": {"T": {"type": "DT_FLOAT"}}}, {"name": "StatefulPartitionedCall/model/MobileNetV3_Small/StatefulPartitionedCall/StatefulPartitionedCall/Bneck/Bneck6/Bneck6/Bneck/Expand/HardSwish/mul", "op": "Mul", "input": ["StatefulPartitionedCall/model/MobileNetV3_Small/StatefulPartitionedCall/StatefulPartitionedCall/Bneck/Bneck6/Bneck6/Bneck/Expand/HardSwish/HardSigmoid/truediv", "StatefulPartitionedCall/model/MobileNetV3_Small/StatefulPartitionedCall/StatefulPartitionedCall/Bneck/Bneck6/Bneck6/Bneck/Expand/HardSwish/HardSigmoid/ReLU6/ReLU6/Relu6"], "attr": {"T": {"type": "DT_FLOAT"}, "_grappler_ArithmeticOptimizer_MinimizeBroadcasts": {"b": true}}}, {"name": "StatefulPartitionedCall/model/MobileNetV3_Small/StatefulPartitionedCall/StatefulPartitionedCall/Bneck/Bneck6/Bneck6/Bneck/Depthwise/Padding2x2/Pad", "op": "Pad", "input": ["StatefulPartitionedCall/model/MobileNetV3_Small/StatefulPartitionedCall/StatefulPartitionedCall/Bneck/Bneck6/Bneck6/Bneck/Expand/HardSwish/mul", "StatefulPartitionedCall/model/MobileNetV3_Small/StatefulPartitionedCall/StatefulPartitionedCall/Bneck/Bneck6/Bneck6/Bneck/Depthwise/Padding2x2/Pad/paddings"], "attr": {"Tpaddings": {"type": "DT_INT32"}, "T": {"type": "DT_FLOAT"}}}, {"name": "StatefulPartitionedCall/model/MobileNetV3_Small/StatefulPartitionedCall/StatefulPartitionedCall/Bneck/Bneck6/Bneck6/Bneck/Depthwise/DWConv5x5/depthwise", "op": "FusedDepthwiseConv2dNative", "input": ["StatefulPartitionedCall/model/MobileNetV3_Small/StatefulPartitionedCall/StatefulPartitionedCall/Bneck/Bneck6/Bneck6/Bneck/Depthwise/Padding2x2/Pad", "StatefulPartitionedCall/model/MobileNetV3_Small/StatefulPartitionedCall/StatefulPartitionedCall/Bneck/Bneck6/Bneck6/Bneck/Depthwise/DWConv5x5/depthwise_weights", "StatefulPartitionedCall/model/MobileNetV3_Small/StatefulPartitionedCall/StatefulPartitionedCall/Bneck/Bneck6/Bneck6/Bneck/Depthwise/DWConv5x5/depthwise_bn_offset"], "attr": {"explicit_paddings": {"list": {}}, "padding": {"s": "VkFMSUQ="}, "strides": {"list": {"i": ["1", "1", "1", "1"]}}, "fused_ops": {"list": {"s": ["Qmlhc0FkZA=="]}}, "T": {"type": "DT_FLOAT"}, "dilations": {"list": {"i": ["1", "1", "1", "1"]}}, "num_args": {"i": "1"}, "data_format": {"s": "TkhXQw=="}}}, {"name": "StatefulPartitionedCall/model/MobileNetV3_Small/StatefulPartitionedCall/StatefulPartitionedCall/Bneck/Bneck6/Bneck6/Bneck/Depthwise/SEBottleneck/GlobalAveragePooling2D/AvgPool16x8/AvgPool", "op": "AvgPool", "input": ["StatefulPartitionedCall/model/MobileNetV3_Small/StatefulPartitionedCall/StatefulPartitionedCall/Bneck/Bneck6/Bneck6/Bneck/Depthwise/DWConv5x5/depthwise"], "attr": {"strides": {"list": {"i": ["1", "16", "8", "1"]}}, "T": {"type": "DT_FLOAT"}, "data_format": {"s": "TkhXQw=="}, "ksize": {"list": {"i": ["1", "16", "8", "1"]}}, "padding": {"s": "VkFMSUQ="}}}, {"name": "StatefulPartitionedCall/model/MobileNetV3_Small/StatefulPartitionedCall/StatefulPartitionedCall/Bneck/Bneck6/Bneck6/Bneck/Depthwise/SEBottleneck/Squeeze/Conv1x1/Conv2D", "op": "Conv2D", "input": ["StatefulPartitionedCall/model/MobileNetV3_Small/StatefulPartitionedCall/StatefulPartitionedCall/Bneck/Bneck6/Bneck6/Bneck/Depthwise/SEBottleneck/GlobalAveragePooling2D/AvgPool16x8/AvgPool", "StatefulPartitionedCall/model/MobileNetV3_Small/StatefulPartitionedCall/StatefulPartitionedCall/Bneck/Bneck6/Bneck6/Bneck/Depthwise/SEBottleneck/Squeeze/Conv1x1/Conv2D/ReadVariableOp"], "device": "/device:CPU:0", "attr": {"padding": {"s": "VkFMSUQ="}, "use_cudnn_on_gpu": {"b": true}, "T": {"type": "DT_FLOAT"}, "strides": {"list": {"i": ["1", "1", "1", "1"]}}, "dilations": {"list": {"i": ["1", "1", "1", "1"]}}, "explicit_paddings": {"list": {}}, "data_format": {"s": "TkhXQw=="}}}, {"name": "StatefulPartitionedCall/model/MobileNetV3_Small/StatefulPartitionedCall/StatefulPartitionedCall/Bneck/Bneck6/Bneck6/Bneck/Depthwise/SEBottleneck/Squeeze/ReLU/Relu", "op": "Relu", "input": ["StatefulPartitionedCall/model/MobileNetV3_Small/StatefulPartitionedCall/StatefulPartitionedCall/Bneck/Bneck6/Bneck6/Bneck/Depthwise/SEBottleneck/Squeeze/Conv1x1/Conv2D"], "attr": {"T": {"type": "DT_FLOAT"}}}, {"name": "StatefulPartitionedCall/model/MobileNetV3_Small/StatefulPartitionedCall/StatefulPartitionedCall/Bneck/Bneck6/Bneck6/Bneck/Depthwise/SEBottleneck/Excite/Conv1x1/Conv2D", "op": "Conv2D", "input": ["StatefulPartitionedCall/model/MobileNetV3_Small/StatefulPartitionedCall/StatefulPartitionedCall/Bneck/Bneck6/Bneck6/Bneck/Depthwise/SEBottleneck/Squeeze/ReLU/Relu", "StatefulPartitionedCall/model/MobileNetV3_Small/StatefulPartitionedCall/StatefulPartitionedCall/Bneck/Bneck6/Bneck6/Bneck/Depthwise/SEBottleneck/Excite/Conv1x1/Conv2D/ReadVariableOp"], "device": "/device:CPU:0", "attr": {"use_cudnn_on_gpu": {"b": true}, "padding": {"s": "VkFMSUQ="}, "explicit_paddings": {"list": {}}, "dilations": {"list": {"i": ["1", "1", "1", "1"]}}, "T": {"type": "DT_FLOAT"}, "strides": {"list": {"i": ["1", "1", "1", "1"]}}, "data_format": {"s": "TkhXQw=="}}}, {"name": "StatefulPartitionedCall/model/MobileNetV3_Small/StatefulPartitionedCall/StatefulPartitionedCall/Bneck/Bneck6/Bneck6/Bneck/Depthwise/SEBottleneck/Excite/HardSigmoid/add", "op": "AddV2", "input": ["StatefulPartitionedCall/model/MobileNetV3_Small/StatefulPartitionedCall/StatefulPartitionedCall/Bneck/Bneck6/Bneck6/Bneck/Depthwise/SEBottleneck/Excite/Conv1x1/Conv2D", "StatefulPartitionedCall/model/MobileNetV3_Small/StatefulPartitionedCall/StatefulPartitionedCall/Bneck/Bneck6/Bneck6/Bneck/Depthwise/SEBottleneck/Excite/HardSigmoid/add/y"], "attr": {"T": {"type": "DT_FLOAT"}}}, {"name": "StatefulPartitionedCall/model/MobileNetV3_Small/StatefulPartitionedCall/StatefulPartitionedCall/Bneck/Bneck6/Bneck6/Bneck/Depthwise/SEBottleneck/Excite/HardSigmoid/ReLU6/ReLU6/Relu6", "op": "Relu6", "input": ["StatefulPartitionedCall/model/MobileNetV3_Small/StatefulPartitionedCall/StatefulPartitionedCall/Bneck/Bneck6/Bneck6/Bneck/Depthwise/SEBottleneck/Excite/HardSigmoid/add"], "attr": {"T": {"type": "DT_FLOAT"}}}, {"name": "StatefulPartitionedCall/model/MobileNetV3_Small/StatefulPartitionedCall/StatefulPartitionedCall/Bneck/Bneck6/Bneck6/Bneck/Depthwise/SEBottleneck/Excite/HardSigmoid/truediv", "op": "Mul", "input": ["StatefulPartitionedCall/model/MobileNetV3_Small/StatefulPartitionedCall/StatefulPartitionedCall/Bneck/Bneck6/Bneck6/Bneck/Depthwise/SEBottleneck/Excite/HardSigmoid/ReLU6/ReLU6/Relu6", "ConstantFolding/StatefulPartitionedCall/model/MobileNetV3_Small/StatefulPartitionedCall/StatefulPartitionedCall/Bneck/Bneck6/Bneck6/Bneck/Depthwise/SEBottleneck/Excite/HardSigmoid/truediv_recip"], "attr": {"T": {"type": "DT_FLOAT"}}}, {"name": "StatefulPartitionedCall/model/MobileNetV3_Small/StatefulPartitionedCall/StatefulPartitionedCall/Bneck/Bneck6/Bneck6/Bneck/Depthwise/SEBottleneck/mul", "op": "Mul", "input": ["StatefulPartitionedCall/model/MobileNetV3_Small/StatefulPartitionedCall/StatefulPartitionedCall/Bneck/Bneck6/Bneck6/Bneck/Depthwise/DWConv5x5/depthwise", "StatefulPartitionedCall/model/MobileNetV3_Small/StatefulPartitionedCall/StatefulPartitionedCall/Bneck/Bneck6/Bneck6/Bneck/Depthwise/SEBottleneck/Excite/HardSigmoid/truediv"], "attr": {"T": {"type": "DT_FLOAT"}}}, {"name": "StatefulPartitionedCall/model/MobileNetV3_Small/StatefulPartitionedCall/StatefulPartitionedCall/Bneck/Bneck6/Bneck6/Bneck/Depthwise/HardSwish/HardSigmoid/truediv", "op": "Mul", "input": ["ConstantFolding/StatefulPartitionedCall/model/MobileNetV3_Small/StatefulPartitionedCall/StatefulPartitionedCall/Bneck/Bneck6/Bneck6/Bneck/Depthwise/HardSwish/HardSigmoid/truediv_recip", "StatefulPartitionedCall/model/MobileNetV3_Small/StatefulPartitionedCall/StatefulPartitionedCall/Bneck/Bneck6/Bneck6/Bneck/Depthwise/SEBottleneck/mul"], "attr": {"T": {"type": "DT_FLOAT"}, "_grappler_ArithmeticOptimizer_MinimizeBroadcasts": {"b": true}}}, {"name": "StatefulPartitionedCall/model/MobileNetV3_Small/StatefulPartitionedCall/StatefulPartitionedCall/Bneck/Bneck6/Bneck6/Bneck/Depthwise/HardSwish/HardSigmoid/add", "op": "AddV2", "input": ["StatefulPartitionedCall/model/MobileNetV3_Small/StatefulPartitionedCall/StatefulPartitionedCall/Bneck/Bneck6/Bneck6/Bneck/Depthwise/SEBottleneck/mul", "StatefulPartitionedCall/model/MobileNetV3_Small/StatefulPartitionedCall/StatefulPartitionedCall/Bneck/Bneck6/Bneck6/Bneck/Depthwise/HardSwish/HardSigmoid/add/y"], "attr": {"T": {"type": "DT_FLOAT"}}}, {"name": "StatefulPartitionedCall/model/MobileNetV3_Small/StatefulPartitionedCall/StatefulPartitionedCall/Bneck/Bneck6/Bneck6/Bneck/Depthwise/HardSwish/HardSigmoid/ReLU6/ReLU6/Relu6", "op": "Relu6", "input": ["StatefulPartitionedCall/model/MobileNetV3_Small/StatefulPartitionedCall/StatefulPartitionedCall/Bneck/Bneck6/Bneck6/Bneck/Depthwise/HardSwish/HardSigmoid/add"], "attr": {"T": {"type": "DT_FLOAT"}}}, {"name": "StatefulPartitionedCall/model/MobileNetV3_Small/StatefulPartitionedCall/StatefulPartitionedCall/Bneck/Bneck6/Bneck6/Bneck/Depthwise/HardSwish/mul", "op": "Mul", "input": ["StatefulPartitionedCall/model/MobileNetV3_Small/StatefulPartitionedCall/StatefulPartitionedCall/Bneck/Bneck6/Bneck6/Bneck/Depthwise/HardSwish/HardSigmoid/truediv", "StatefulPartitionedCall/model/MobileNetV3_Small/StatefulPartitionedCall/StatefulPartitionedCall/Bneck/Bneck6/Bneck6/Bneck/Depthwise/HardSwish/HardSigmoid/ReLU6/ReLU6/Relu6"], "attr": {"_grappler_ArithmeticOptimizer_MinimizeBroadcasts": {"b": true}, "T": {"type": "DT_FLOAT"}}}, {"name": "StatefulPartitionedCall/model/MobileNetV3_Small/StatefulPartitionedCall/StatefulPartitionedCall/Bneck/Bneck6/Bneck6/Bneck/Project/BatchNormalization/BatchNormalization/FusedBatchNormV3", "op": "_FusedConv2D", "input": ["StatefulPartitionedCall/model/MobileNetV3_Small/StatefulPartitionedCall/StatefulPartitionedCall/Bneck/Bneck6/Bneck6/Bneck/Depthwise/HardSwish/mul", "StatefulPartitionedCall/model/MobileNetV3_Small/StatefulPartitionedCall/StatefulPartitionedCall/Bneck/Bneck6/Bneck6/Bneck/Project/Conv1x1/Conv2D_weights", "StatefulPartitionedCall/model/MobileNetV3_Small/StatefulPartitionedCall/StatefulPartitionedCall/Bneck/Bneck6/Bneck6/Bneck/Project/Conv1x1/Conv2D_bn_offset"], "device": "/device:CPU:0", "attr": {"epsilon": {"f": 0.0}, "num_args": {"i": "1"}, "T": {"type": "DT_FLOAT"}, "explicit_paddings": {"list": {}}, "strides": {"list": {"i": ["1", "1", "1", "1"]}}, "fused_ops": {"list": {"s": ["Qmlhc0FkZA=="]}}, "use_cudnn_on_gpu": {"b": true}, "dilations": {"list": {"i": ["1", "1", "1", "1"]}}, "data_format": {"s": "TkhXQw=="}, "padding": {"s": "VkFMSUQ="}}}, {"name": "StatefulPartitionedCall/model/MobileNetV3_Small/StatefulPartitionedCall/StatefulPartitionedCall/Bneck/Bneck7/Bneck7/Bneck/Expand/BatchNormalization/BatchNormalization/FusedBatchNormV3", "op": "_FusedConv2D", "input": ["StatefulPartitionedCall/model/MobileNetV3_Small/StatefulPartitionedCall/StatefulPartitionedCall/Bneck/Bneck6/Bneck6/Bneck/Project/BatchNormalization/BatchNormalization/FusedBatchNormV3", "StatefulPartitionedCall/model/MobileNetV3_Small/StatefulPartitionedCall/StatefulPartitionedCall/Bneck/Bneck7/Bneck7/Bneck/Expand/Conv1x1/Conv2D_weights", "StatefulPartitionedCall/model/MobileNetV3_Small/StatefulPartitionedCall/StatefulPartitionedCall/Bneck/Bneck7/Bneck7/Bneck/Expand/Conv1x1/Conv2D_bn_offset"], "device": "/device:CPU:0", "attr": {"dilations": {"list": {"i": ["1", "1", "1", "1"]}}, "padding": {"s": "VkFMSUQ="}, "fused_ops": {"list": {"s": ["Qmlhc0FkZA=="]}}, "data_format": {"s": "TkhXQw=="}, "explicit_paddings": {"list": {}}, "strides": {"list": {"i": ["1", "1", "1", "1"]}}, "epsilon": {"f": 0.0}, "T": {"type": "DT_FLOAT"}, "num_args": {"i": "1"}, "use_cudnn_on_gpu": {"b": true}}}, {"name": "StatefulPartitionedCall/model/MobileNetV3_Small/StatefulPartitionedCall/StatefulPartitionedCall/Bneck/Bneck7/Bneck7/Bneck/Expand/HardSwish/HardSigmoid/truediv", "op": "Mul", "input": ["ConstantFolding/StatefulPartitionedCall/model/MobileNetV3_Small/StatefulPartitionedCall/StatefulPartitionedCall/Bneck/Bneck7/Bneck7/Bneck/Expand/HardSwish/HardSigmoid/truediv_recip", "StatefulPartitionedCall/model/MobileNetV3_Small/StatefulPartitionedCall/StatefulPartitionedCall/Bneck/Bneck7/Bneck7/Bneck/Expand/BatchNormalization/BatchNormalization/FusedBatchNormV3"], "attr": {"T": {"type": "DT_FLOAT"}, "_grappler_ArithmeticOptimizer_MinimizeBroadcasts": {"b": true}}}, {"name": "StatefulPartitionedCall/model/MobileNetV3_Small/StatefulPartitionedCall/StatefulPartitionedCall/Bneck/Bneck7/Bneck7/Bneck/Expand/HardSwish/HardSigmoid/add", "op": "AddV2", "input": ["StatefulPartitionedCall/model/MobileNetV3_Small/StatefulPartitionedCall/StatefulPartitionedCall/Bneck/Bneck7/Bneck7/Bneck/Expand/BatchNormalization/BatchNormalization/FusedBatchNormV3", "StatefulPartitionedCall/model/MobileNetV3_Small/StatefulPartitionedCall/StatefulPartitionedCall/Bneck/Bneck7/Bneck7/Bneck/Expand/HardSwish/HardSigmoid/add/y"], "attr": {"T": {"type": "DT_FLOAT"}}}, {"name": "StatefulPartitionedCall/model/MobileNetV3_Small/StatefulPartitionedCall/StatefulPartitionedCall/Bneck/Bneck7/Bneck7/Bneck/Expand/HardSwish/HardSigmoid/ReLU6/ReLU6/Relu6", "op": "Relu6", "input": ["StatefulPartitionedCall/model/MobileNetV3_Small/StatefulPartitionedCall/StatefulPartitionedCall/Bneck/Bneck7/Bneck7/Bneck/Expand/HardSwish/HardSigmoid/add"], "attr": {"T": {"type": "DT_FLOAT"}}}, {"name": "StatefulPartitionedCall/model/MobileNetV3_Small/StatefulPartitionedCall/StatefulPartitionedCall/Bneck/Bneck7/Bneck7/Bneck/Expand/HardSwish/mul", "op": "Mul", "input": ["StatefulPartitionedCall/model/MobileNetV3_Small/StatefulPartitionedCall/StatefulPartitionedCall/Bneck/Bneck7/Bneck7/Bneck/Expand/HardSwish/HardSigmoid/truediv", "StatefulPartitionedCall/model/MobileNetV3_Small/StatefulPartitionedCall/StatefulPartitionedCall/Bneck/Bneck7/Bneck7/Bneck/Expand/HardSwish/HardSigmoid/ReLU6/ReLU6/Relu6"], "attr": {"_grappler_ArithmeticOptimizer_MinimizeBroadcasts": {"b": true}, "T": {"type": "DT_FLOAT"}}}, {"name": "StatefulPartitionedCall/model/MobileNetV3_Small/StatefulPartitionedCall/StatefulPartitionedCall/Bneck/Bneck7/Bneck7/Bneck/Depthwise/Padding2x2/Pad", "op": "Pad", "input": ["StatefulPartitionedCall/model/MobileNetV3_Small/StatefulPartitionedCall/StatefulPartitionedCall/Bneck/Bneck7/Bneck7/Bneck/Expand/HardSwish/mul", "StatefulPartitionedCall/model/MobileNetV3_Small/StatefulPartitionedCall/StatefulPartitionedCall/Bneck/Bneck7/Bneck7/Bneck/Depthwise/Padding2x2/Pad/paddings"], "attr": {"Tpaddings": {"type": "DT_INT32"}, "T": {"type": "DT_FLOAT"}}}, {"name": "StatefulPartitionedCall/model/MobileNetV3_Small/StatefulPartitionedCall/StatefulPartitionedCall/Bneck/Bneck7/Bneck7/Bneck/Depthwise/DWConv5x5/depthwise", "op": "FusedDepthwiseConv2dNative", "input": ["StatefulPartitionedCall/model/MobileNetV3_Small/StatefulPartitionedCall/StatefulPartitionedCall/Bneck/Bneck7/Bneck7/Bneck/Depthwise/Padding2x2/Pad", "StatefulPartitionedCall/model/MobileNetV3_Small/StatefulPartitionedCall/StatefulPartitionedCall/Bneck/Bneck7/Bneck7/Bneck/Depthwise/DWConv5x5/depthwise_weights", "StatefulPartitionedCall/model/MobileNetV3_Small/StatefulPartitionedCall/StatefulPartitionedCall/Bneck/Bneck7/Bneck7/Bneck/Depthwise/DWConv5x5/depthwise_bn_offset"], "attr": {"strides": {"list": {"i": ["1", "1", "1", "1"]}}, "fused_ops": {"list": {"s": ["Qmlhc0FkZA=="]}}, "explicit_paddings": {"list": {}}, "padding": {"s": "VkFMSUQ="}, "data_format": {"s": "TkhXQw=="}, "T": {"type": "DT_FLOAT"}, "dilations": {"list": {"i": ["1", "1", "1", "1"]}}, "num_args": {"i": "1"}}}, {"name": "StatefulPartitionedCall/model/MobileNetV3_Small/StatefulPartitionedCall/StatefulPartitionedCall/Bneck/Bneck7/Bneck7/Bneck/Depthwise/SEBottleneck/GlobalAveragePooling2D/AvgPool16x8/AvgPool", "op": "AvgPool", "input": ["StatefulPartitionedCall/model/MobileNetV3_Small/StatefulPartitionedCall/StatefulPartitionedCall/Bneck/Bneck7/Bneck7/Bneck/Depthwise/DWConv5x5/depthwise"], "attr": {"T": {"type": "DT_FLOAT"}, "ksize": {"list": {"i": ["1", "16", "8", "1"]}}, "strides": {"list": {"i": ["1", "16", "8", "1"]}}, "padding": {"s": "VkFMSUQ="}, "data_format": {"s": "TkhXQw=="}}}, {"name": "StatefulPartitionedCall/model/MobileNetV3_Small/StatefulPartitionedCall/StatefulPartitionedCall/Bneck/Bneck7/Bneck7/Bneck/Depthwise/SEBottleneck/Squeeze/Conv1x1/Conv2D", "op": "Conv2D", "input": ["StatefulPartitionedCall/model/MobileNetV3_Small/StatefulPartitionedCall/StatefulPartitionedCall/Bneck/Bneck7/Bneck7/Bneck/Depthwise/SEBottleneck/GlobalAveragePooling2D/AvgPool16x8/AvgPool", "StatefulPartitionedCall/model/MobileNetV3_Small/StatefulPartitionedCall/StatefulPartitionedCall/Bneck/Bneck7/Bneck7/Bneck/Depthwise/SEBottleneck/Squeeze/Conv1x1/Conv2D/ReadVariableOp"], "device": "/device:CPU:0", "attr": {"padding": {"s": "VkFMSUQ="}, "T": {"type": "DT_FLOAT"}, "explicit_paddings": {"list": {}}, "dilations": {"list": {"i": ["1", "1", "1", "1"]}}, "strides": {"list": {"i": ["1", "1", "1", "1"]}}, "data_format": {"s": "TkhXQw=="}, "use_cudnn_on_gpu": {"b": true}}}, {"name": "StatefulPartitionedCall/model/MobileNetV3_Small/StatefulPartitionedCall/StatefulPartitionedCall/Bneck/Bneck7/Bneck7/Bneck/Depthwise/SEBottleneck/Squeeze/ReLU/Relu", "op": "Relu", "input": ["StatefulPartitionedCall/model/MobileNetV3_Small/StatefulPartitionedCall/StatefulPartitionedCall/Bneck/Bneck7/Bneck7/Bneck/Depthwise/SEBottleneck/Squeeze/Conv1x1/Conv2D"], "attr": {"T": {"type": "DT_FLOAT"}}}, {"name": "StatefulPartitionedCall/model/MobileNetV3_Small/StatefulPartitionedCall/StatefulPartitionedCall/Bneck/Bneck7/Bneck7/Bneck/Depthwise/SEBottleneck/Excite/Conv1x1/Conv2D", "op": "Conv2D", "input": ["StatefulPartitionedCall/model/MobileNetV3_Small/StatefulPartitionedCall/StatefulPartitionedCall/Bneck/Bneck7/Bneck7/Bneck/Depthwise/SEBottleneck/Squeeze/ReLU/Relu", "StatefulPartitionedCall/model/MobileNetV3_Small/StatefulPartitionedCall/StatefulPartitionedCall/Bneck/Bneck7/Bneck7/Bneck/Depthwise/SEBottleneck/Excite/Conv1x1/Conv2D/ReadVariableOp"], "device": "/device:CPU:0", "attr": {"padding": {"s": "VkFMSUQ="}, "use_cudnn_on_gpu": {"b": true}, "explicit_paddings": {"list": {}}, "strides": {"list": {"i": ["1", "1", "1", "1"]}}, "dilations": {"list": {"i": ["1", "1", "1", "1"]}}, "data_format": {"s": "TkhXQw=="}, "T": {"type": "DT_FLOAT"}}}, {"name": "StatefulPartitionedCall/model/MobileNetV3_Small/StatefulPartitionedCall/StatefulPartitionedCall/Bneck/Bneck7/Bneck7/Bneck/Depthwise/SEBottleneck/Excite/HardSigmoid/add", "op": "AddV2", "input": ["StatefulPartitionedCall/model/MobileNetV3_Small/StatefulPartitionedCall/StatefulPartitionedCall/Bneck/Bneck7/Bneck7/Bneck/Depthwise/SEBottleneck/Excite/Conv1x1/Conv2D", "StatefulPartitionedCall/model/MobileNetV3_Small/StatefulPartitionedCall/StatefulPartitionedCall/Bneck/Bneck7/Bneck7/Bneck/Depthwise/SEBottleneck/Excite/HardSigmoid/add/y"], "attr": {"T": {"type": "DT_FLOAT"}}}, {"name": "StatefulPartitionedCall/model/MobileNetV3_Small/StatefulPartitionedCall/StatefulPartitionedCall/Bneck/Bneck7/Bneck7/Bneck/Depthwise/SEBottleneck/Excite/HardSigmoid/ReLU6/ReLU6/Relu6", "op": "Relu6", "input": ["StatefulPartitionedCall/model/MobileNetV3_Small/StatefulPartitionedCall/StatefulPartitionedCall/Bneck/Bneck7/Bneck7/Bneck/Depthwise/SEBottleneck/Excite/HardSigmoid/add"], "attr": {"T": {"type": "DT_FLOAT"}}}, {"name": "StatefulPartitionedCall/model/MobileNetV3_Small/StatefulPartitionedCall/StatefulPartitionedCall/Bneck/Bneck7/Bneck7/Bneck/Depthwise/SEBottleneck/Excite/HardSigmoid/truediv", "op": "Mul", "input": ["StatefulPartitionedCall/model/MobileNetV3_Small/StatefulPartitionedCall/StatefulPartitionedCall/Bneck/Bneck7/Bneck7/Bneck/Depthwise/SEBottleneck/Excite/HardSigmoid/ReLU6/ReLU6/Relu6", "ConstantFolding/StatefulPartitionedCall/model/MobileNetV3_Small/StatefulPartitionedCall/StatefulPartitionedCall/Bneck/Bneck7/Bneck7/Bneck/Depthwise/SEBottleneck/Excite/HardSigmoid/truediv_recip"], "attr": {"T": {"type": "DT_FLOAT"}}}, {"name": "StatefulPartitionedCall/model/MobileNetV3_Small/StatefulPartitionedCall/StatefulPartitionedCall/Bneck/Bneck7/Bneck7/Bneck/Depthwise/SEBottleneck/mul", "op": "Mul", "input": ["StatefulPartitionedCall/model/MobileNetV3_Small/StatefulPartitionedCall/StatefulPartitionedCall/Bneck/Bneck7/Bneck7/Bneck/Depthwise/DWConv5x5/depthwise", "StatefulPartitionedCall/model/MobileNetV3_Small/StatefulPartitionedCall/StatefulPartitionedCall/Bneck/Bneck7/Bneck7/Bneck/Depthwise/SEBottleneck/Excite/HardSigmoid/truediv"], "attr": {"T": {"type": "DT_FLOAT"}}}, {"name": "StatefulPartitionedCall/model/MobileNetV3_Small/StatefulPartitionedCall/StatefulPartitionedCall/Bneck/Bneck7/Bneck7/Bneck/Depthwise/HardSwish/HardSigmoid/truediv", "op": "Mul", "input": ["ConstantFolding/StatefulPartitionedCall/model/MobileNetV3_Small/StatefulPartitionedCall/StatefulPartitionedCall/Bneck/Bneck7/Bneck7/Bneck/Depthwise/HardSwish/HardSigmoid/truediv_recip", "StatefulPartitionedCall/model/MobileNetV3_Small/StatefulPartitionedCall/StatefulPartitionedCall/Bneck/Bneck7/Bneck7/Bneck/Depthwise/SEBottleneck/mul"], "attr": {"T": {"type": "DT_FLOAT"}, "_grappler_ArithmeticOptimizer_MinimizeBroadcasts": {"b": true}}}, {"name": "StatefulPartitionedCall/model/MobileNetV3_Small/StatefulPartitionedCall/StatefulPartitionedCall/Bneck/Bneck7/Bneck7/Bneck/Depthwise/HardSwish/HardSigmoid/add", "op": "AddV2", "input": ["StatefulPartitionedCall/model/MobileNetV3_Small/StatefulPartitionedCall/StatefulPartitionedCall/Bneck/Bneck7/Bneck7/Bneck/Depthwise/SEBottleneck/mul", "StatefulPartitionedCall/model/MobileNetV3_Small/StatefulPartitionedCall/StatefulPartitionedCall/Bneck/Bneck7/Bneck7/Bneck/Depthwise/HardSwish/HardSigmoid/add/y"], "attr": {"T": {"type": "DT_FLOAT"}}}, {"name": "StatefulPartitionedCall/model/MobileNetV3_Small/StatefulPartitionedCall/StatefulPartitionedCall/Bneck/Bneck7/Bneck7/Bneck/Depthwise/HardSwish/HardSigmoid/ReLU6/ReLU6/Relu6", "op": "Relu6", "input": ["StatefulPartitionedCall/model/MobileNetV3_Small/StatefulPartitionedCall/StatefulPartitionedCall/Bneck/Bneck7/Bneck7/Bneck/Depthwise/HardSwish/HardSigmoid/add"], "attr": {"T": {"type": "DT_FLOAT"}}}, {"name": "StatefulPartitionedCall/model/MobileNetV3_Small/StatefulPartitionedCall/StatefulPartitionedCall/Bneck/Bneck7/Bneck7/Bneck/Depthwise/HardSwish/mul", "op": "Mul", "input": ["StatefulPartitionedCall/model/MobileNetV3_Small/StatefulPartitionedCall/StatefulPartitionedCall/Bneck/Bneck7/Bneck7/Bneck/Depthwise/HardSwish/HardSigmoid/truediv", "StatefulPartitionedCall/model/MobileNetV3_Small/StatefulPartitionedCall/StatefulPartitionedCall/Bneck/Bneck7/Bneck7/Bneck/Depthwise/HardSwish/HardSigmoid/ReLU6/ReLU6/Relu6"], "attr": {"T": {"type": "DT_FLOAT"}, "_grappler_ArithmeticOptimizer_MinimizeBroadcasts": {"b": true}}}, {"name": "StatefulPartitionedCall/model/MobileNetV3_Small/StatefulPartitionedCall/StatefulPartitionedCall/Bneck/Bneck7/Bneck7/Bneck/Project/BatchNormalization/BatchNormalization/FusedBatchNormV3", "op": "_FusedConv2D", "input": ["StatefulPartitionedCall/model/MobileNetV3_Small/StatefulPartitionedCall/StatefulPartitionedCall/Bneck/Bneck7/Bneck7/Bneck/Depthwise/HardSwish/mul", "StatefulPartitionedCall/model/MobileNetV3_Small/StatefulPartitionedCall/StatefulPartitionedCall/Bneck/Bneck7/Bneck7/Bneck/Project/Conv1x1/Conv2D_weights", "StatefulPartitionedCall/model/MobileNetV3_Small/StatefulPartitionedCall/StatefulPartitionedCall/Bneck/Bneck7/Bneck7/Bneck/Project/Conv1x1/Conv2D_bn_offset"], "device": "/device:CPU:0", "attr": {"epsilon": {"f": 0.0}, "dilations": {"list": {"i": ["1", "1", "1", "1"]}}, "T": {"type": "DT_FLOAT"}, "padding": {"s": "VkFMSUQ="}, "data_format": {"s": "TkhXQw=="}, "num_args": {"i": "1"}, "fused_ops": {"list": {"s": ["Qmlhc0FkZA=="]}}, "strides": {"list": {"i": ["1", "1", "1", "1"]}}, "explicit_paddings": {"list": {}}, "use_cudnn_on_gpu": {"b": true}}}, {"name": "StatefulPartitionedCall/model/MobileNetV3_Small/StatefulPartitionedCall/StatefulPartitionedCall/Bneck/Bneck7/Bneck7/Bneck/add", "op": "AddV2", "input": ["StatefulPartitionedCall/model/MobileNetV3_Small/StatefulPartitionedCall/StatefulPartitionedCall/Bneck/Bneck6/Bneck6/Bneck/Project/BatchNormalization/BatchNormalization/FusedBatchNormV3", "StatefulPartitionedCall/model/MobileNetV3_Small/StatefulPartitionedCall/StatefulPartitionedCall/Bneck/Bneck7/Bneck7/Bneck/Project/BatchNormalization/BatchNormalization/FusedBatchNormV3"], "attr": {"T": {"type": "DT_FLOAT"}}}, {"name": "StatefulPartitionedCall/model/MobileNetV3_Small/StatefulPartitionedCall/StatefulPartitionedCall/Bneck/Bneck8/Bneck8/Bneck/Expand/BatchNormalization/BatchNormalization/FusedBatchNormV3", "op": "_FusedConv2D", "input": ["StatefulPartitionedCall/model/MobileNetV3_Small/StatefulPartitionedCall/StatefulPartitionedCall/Bneck/Bneck7/Bneck7/Bneck/add", "StatefulPartitionedCall/model/MobileNetV3_Small/StatefulPartitionedCall/StatefulPartitionedCall/Bneck/Bneck8/Bneck8/Bneck/Expand/Conv1x1/Conv2D_weights", "StatefulPartitionedCall/model/MobileNetV3_Small/StatefulPartitionedCall/StatefulPartitionedCall/Bneck/Bneck8/Bneck8/Bneck/Expand/Conv1x1/Conv2D_bn_offset"], "device": "/device:CPU:0", "attr": {"data_format": {"s": "TkhXQw=="}, "padding": {"s": "VkFMSUQ="}, "strides": {"list": {"i": ["1", "1", "1", "1"]}}, "epsilon": {"f": 0.0}, "num_args": {"i": "1"}, "T": {"type": "DT_FLOAT"}, "fused_ops": {"list": {"s": ["Qmlhc0FkZA=="]}}, "explicit_paddings": {"list": {}}, "use_cudnn_on_gpu": {"b": true}, "dilations": {"list": {"i": ["1", "1", "1", "1"]}}}}, {"name": "StatefulPartitionedCall/model/MobileNetV3_Small/StatefulPartitionedCall/StatefulPartitionedCall/Bneck/Bneck8/Bneck8/Bneck/Expand/HardSwish/HardSigmoid/truediv", "op": "Mul", "input": ["ConstantFolding/StatefulPartitionedCall/model/MobileNetV3_Small/StatefulPartitionedCall/StatefulPartitionedCall/Bneck/Bneck8/Bneck8/Bneck/Expand/HardSwish/HardSigmoid/truediv_recip", "StatefulPartitionedCall/model/MobileNetV3_Small/StatefulPartitionedCall/StatefulPartitionedCall/Bneck/Bneck8/Bneck8/Bneck/Expand/BatchNormalization/BatchNormalization/FusedBatchNormV3"], "attr": {"T": {"type": "DT_FLOAT"}, "_grappler_ArithmeticOptimizer_MinimizeBroadcasts": {"b": true}}}, {"name": "StatefulPartitionedCall/model/MobileNetV3_Small/StatefulPartitionedCall/StatefulPartitionedCall/Bneck/Bneck8/Bneck8/Bneck/Expand/HardSwish/HardSigmoid/add", "op": "AddV2", "input": ["StatefulPartitionedCall/model/MobileNetV3_Small/StatefulPartitionedCall/StatefulPartitionedCall/Bneck/Bneck8/Bneck8/Bneck/Expand/BatchNormalization/BatchNormalization/FusedBatchNormV3", "StatefulPartitionedCall/model/MobileNetV3_Small/StatefulPartitionedCall/StatefulPartitionedCall/Bneck/Bneck8/Bneck8/Bneck/Expand/HardSwish/HardSigmoid/add/y"], "attr": {"T": {"type": "DT_FLOAT"}}}, {"name": "StatefulPartitionedCall/model/MobileNetV3_Small/StatefulPartitionedCall/StatefulPartitionedCall/Bneck/Bneck8/Bneck8/Bneck/Expand/HardSwish/HardSigmoid/ReLU6/ReLU6/Relu6", "op": "Relu6", "input": ["StatefulPartitionedCall/model/MobileNetV3_Small/StatefulPartitionedCall/StatefulPartitionedCall/Bneck/Bneck8/Bneck8/Bneck/Expand/HardSwish/HardSigmoid/add"], "attr": {"T": {"type": "DT_FLOAT"}}}, {"name": "StatefulPartitionedCall/model/MobileNetV3_Small/StatefulPartitionedCall/StatefulPartitionedCall/Bneck/Bneck8/Bneck8/Bneck/Expand/HardSwish/mul", "op": "Mul", "input": ["StatefulPartitionedCall/model/MobileNetV3_Small/StatefulPartitionedCall/StatefulPartitionedCall/Bneck/Bneck8/Bneck8/Bneck/Expand/HardSwish/HardSigmoid/truediv", "StatefulPartitionedCall/model/MobileNetV3_Small/StatefulPartitionedCall/StatefulPartitionedCall/Bneck/Bneck8/Bneck8/Bneck/Expand/HardSwish/HardSigmoid/ReLU6/ReLU6/Relu6"], "attr": {"T": {"type": "DT_FLOAT"}, "_grappler_ArithmeticOptimizer_MinimizeBroadcasts": {"b": true}}}, {"name": "StatefulPartitionedCall/model/MobileNetV3_Small/StatefulPartitionedCall/StatefulPartitionedCall/Bneck/Bneck8/Bneck8/Bneck/Depthwise/Padding2x2/Pad", "op": "Pad", "input": ["StatefulPartitionedCall/model/MobileNetV3_Small/StatefulPartitionedCall/StatefulPartitionedCall/Bneck/Bneck8/Bneck8/Bneck/Expand/HardSwish/mul", "StatefulPartitionedCall/model/MobileNetV3_Small/StatefulPartitionedCall/StatefulPartitionedCall/Bneck/Bneck8/Bneck8/Bneck/Depthwise/Padding2x2/Pad/paddings"], "attr": {"T": {"type": "DT_FLOAT"}, "Tpaddings": {"type": "DT_INT32"}}}, {"name": "StatefulPartitionedCall/model/MobileNetV3_Small/StatefulPartitionedCall/StatefulPartitionedCall/Bneck/Bneck8/Bneck8/Bneck/Depthwise/DWConv5x5/depthwise", "op": "FusedDepthwiseConv2dNative", "input": ["StatefulPartitionedCall/model/MobileNetV3_Small/StatefulPartitionedCall/StatefulPartitionedCall/Bneck/Bneck8/Bneck8/Bneck/Depthwise/Padding2x2/Pad", "StatefulPartitionedCall/model/MobileNetV3_Small/StatefulPartitionedCall/StatefulPartitionedCall/Bneck/Bneck8/Bneck8/Bneck/Depthwise/DWConv5x5/depthwise_weights", "StatefulPartitionedCall/model/MobileNetV3_Small/StatefulPartitionedCall/StatefulPartitionedCall/Bneck/Bneck8/Bneck8/Bneck/Depthwise/DWConv5x5/depthwise_bn_offset"], "attr": {"padding": {"s": "VkFMSUQ="}, "dilations": {"list": {"i": ["1", "1", "1", "1"]}}, "explicit_paddings": {"list": {}}, "fused_ops": {"list": {"s": ["Qmlhc0FkZA=="]}}, "num_args": {"i": "1"}, "data_format": {"s": "TkhXQw=="}, "T": {"type": "DT_FLOAT"}, "strides": {"list": {"i": ["1", "2", "2", "1"]}}}}, {"name": "StatefulPartitionedCall/model/MobileNetV3_Small/StatefulPartitionedCall/StatefulPartitionedCall/Bneck/Bneck8/Bneck8/Bneck/Depthwise/SEBottleneck/GlobalAveragePooling2D/AvgPool8x4/AvgPool", "op": "AvgPool", "input": ["StatefulPartitionedCall/model/MobileNetV3_Small/StatefulPartitionedCall/StatefulPartitionedCall/Bneck/Bneck8/Bneck8/Bneck/Depthwise/DWConv5x5/depthwise"], "attr": {"data_format": {"s": "TkhXQw=="}, "ksize": {"list": {"i": ["1", "8", "4", "1"]}}, "strides": {"list": {"i": ["1", "8", "4", "1"]}}, "T": {"type": "DT_FLOAT"}, "padding": {"s": "VkFMSUQ="}}}, {"name": "StatefulPartitionedCall/model/MobileNetV3_Small/StatefulPartitionedCall/StatefulPartitionedCall/Bneck/Bneck8/Bneck8/Bneck/Depthwise/SEBottleneck/Squeeze/Conv1x1/Conv2D", "op": "Conv2D", "input": ["StatefulPartitionedCall/model/MobileNetV3_Small/StatefulPartitionedCall/StatefulPartitionedCall/Bneck/Bneck8/Bneck8/Bneck/Depthwise/SEBottleneck/GlobalAveragePooling2D/AvgPool8x4/AvgPool", "StatefulPartitionedCall/model/MobileNetV3_Small/StatefulPartitionedCall/StatefulPartitionedCall/Bneck/Bneck8/Bneck8/Bneck/Depthwise/SEBottleneck/Squeeze/Conv1x1/Conv2D/ReadVariableOp"], "device": "/device:CPU:0", "attr": {"explicit_paddings": {"list": {}}, "T": {"type": "DT_FLOAT"}, "strides": {"list": {"i": ["1", "1", "1", "1"]}}, "data_format": {"s": "TkhXQw=="}, "padding": {"s": "VkFMSUQ="}, "dilations": {"list": {"i": ["1", "1", "1", "1"]}}, "use_cudnn_on_gpu": {"b": true}}}, {"name": "StatefulPartitionedCall/model/MobileNetV3_Small/StatefulPartitionedCall/StatefulPartitionedCall/Bneck/Bneck8/Bneck8/Bneck/Depthwise/SEBottleneck/Squeeze/ReLU/Relu", "op": "Relu", "input": ["StatefulPartitionedCall/model/MobileNetV3_Small/StatefulPartitionedCall/StatefulPartitionedCall/Bneck/Bneck8/Bneck8/Bneck/Depthwise/SEBottleneck/Squeeze/Conv1x1/Conv2D"], "attr": {"T": {"type": "DT_FLOAT"}}}, {"name": "StatefulPartitionedCall/model/MobileNetV3_Small/StatefulPartitionedCall/StatefulPartitionedCall/Bneck/Bneck8/Bneck8/Bneck/Dept…
 ["1", "1", "1", "1"]}}, "use_cudnn_on_gpu": {"b": true}, "T": {"type": "DT_FLOAT"}, "strides": {"list": {"i": ["1", "1", "1", "1"]}}, "padding": {"s": "VkFMSUQ="}, "data_format": {"s": "TkhXQw=="}}}, {"name": "StatefulPartitionedCall/model/MobileNetV3_Small/StatefulPartitionedCall/StatefulPartitionedCall/Bneck/Bneck10/Bneck10/Bneck/Depthwise/SEBottleneck/Excite/HardSigmoid/add", "op": "AddV2", "input": ["StatefulPartitionedCall/model/MobileNetV3_Small/StatefulPartitionedCall/StatefulPartitionedCall/Bneck/Bneck10/Bneck10/Bneck/Depthwise/SEBottleneck/Excite/Conv1x1/Conv2D", "StatefulPartitionedCall/model/MobileNetV3_Small/StatefulPartitionedCall/StatefulPartitionedCall/Bneck/Bneck10/Bneck10/Bneck/Depthwise/SEBottleneck/Excite/HardSigmoid/add/y"], "attr": {"T": {"type": "DT_FLOAT"}}}, {"name": "StatefulPartitionedCall/model/MobileNetV3_Small/StatefulPartitionedCall/StatefulPartitionedCall/Bneck/Bneck10/Bneck10/Bneck/Depthwise/SEBottleneck/Excite/HardSigmoid/ReLU6/ReLU6/Relu6", "op": "Relu6", "input": ["StatefulPartitionedCall/model/MobileNetV3_Small/StatefulPartitionedCall/StatefulPartitionedCall/Bneck/Bneck10/Bneck10/Bneck/Depthwise/SEBottleneck/Excite/HardSigmoid/add"], "attr": {"T": {"type": "DT_FLOAT"}}}, {"name": "StatefulPartitionedCall/model/MobileNetV3_Small/StatefulPartitionedCall/StatefulPartitionedCall/Bneck/Bneck10/Bneck10/Bneck/Depthwise/SEBottleneck/Excite/HardSigmoid/truediv", "op": "Mul", "input": ["StatefulPartitionedCall/model/MobileNetV3_Small/StatefulPartitionedCall/StatefulPartitionedCall/Bneck/Bneck10/Bneck10/Bneck/Depthwise/SEBottleneck/Excite/HardSigmoid/ReLU6/ReLU6/Relu6", "ConstantFolding/StatefulPartitionedCall/model/MobileNetV3_Small/StatefulPartitionedCall/StatefulPartitionedCall/Bneck/Bneck10/Bneck10/Bneck/Depthwise/SEBottleneck/Excite/HardSigmoid/truediv_recip"], "attr": {"T": {"type": "DT_FLOAT"}}}, {"name": "StatefulPartitionedCall/model/MobileNetV3_Small/StatefulPartitionedCall/StatefulPartitionedCall/Bneck/Bneck10/Bneck10/Bneck/Depthwise/SEBottleneck/mul", "op": "Mul", "input": ["StatefulPartitionedCall/model/MobileNetV3_Small/StatefulPartitionedCall/StatefulPartitionedCall/Bneck/Bneck10/Bneck10/Bneck/Depthwise/DWConv5x5/depthwise", "StatefulPartitionedCall/model/MobileNetV3_Small/StatefulPartitionedCall/StatefulPartitionedCall/Bneck/Bneck10/Bneck10/Bneck/Depthwise/SEBottleneck/Excite/HardSigmoid/truediv"], "attr": {"T": {"type": "DT_FLOAT"}}}, {"name": "StatefulPartitionedCall/model/MobileNetV3_Small/StatefulPartitionedCall/StatefulPartitionedCall/Bneck/Bneck10/Bneck10/Bneck/Depthwise/HardSwish/HardSigmoid/add", "op": "AddV2", "input": ["StatefulPartitionedCall/model/MobileNetV3_Small/StatefulPartitionedCall/StatefulPartitionedCall/Bneck/Bneck10/Bneck10/Bneck/Depthwise/SEBottleneck/mul", "StatefulPartitionedCall/model/MobileNetV3_Small/StatefulPartitionedCall/StatefulPartitionedCall/Bneck/Bneck10/Bneck10/Bneck/Depthwise/HardSwish/HardSigmoid/add/y"], "attr": {"T": {"type": "DT_FLOAT"}}}, {"name": "StatefulPartitionedCall/model/MobileNetV3_Small/StatefulPartitionedCall/StatefulPartitionedCall/Bneck/Bneck10/Bneck10/Bneck/Depthwise/HardSwish/HardSigmoid/truediv", "op": "Mul", "input": ["ConstantFolding/StatefulPartitionedCall/model/MobileNetV3_Small/StatefulPartitionedCall/StatefulPartitionedCall/Bneck/Bneck10/Bneck10/Bneck/Depthwise/HardSwish/HardSigmoid/truediv_recip", "StatefulPartitionedCall/model/MobileNetV3_Small/StatefulPartitionedCall/StatefulPartitionedCall/Bneck/Bneck10/Bneck10/Bneck/Depthwise/SEBottleneck/mul"], "attr": {"_grappler_ArithmeticOptimizer_MinimizeBroadcasts": {"b": true}, "T": {"type": "DT_FLOAT"}}}, {"name": "StatefulPartitionedCall/model/MobileNetV3_Small/StatefulPartitionedCall/StatefulPartitionedCall/Bneck/Bneck10/Bneck10/Bneck/Depthwise/HardSwish/HardSigmoid/ReLU6/ReLU6/Relu6", "op": "Relu6", "input": ["StatefulPartitionedCall/model/MobileNetV3_Small/StatefulPartitionedCall/StatefulPartitionedCall/Bneck/Bneck10/Bneck10/Bneck/Depthwise/HardSwish/HardSigmoid/add"], "attr": {"T": {"type": "DT_FLOAT"}}}, {"name": "StatefulPartitionedCall/model/MobileNetV3_Small/StatefulPartitionedCall/StatefulPartitionedCall/Bneck/Bneck10/Bneck10/Bneck/Depthwise/HardSwish/mul", "op": "Mul", "input": ["StatefulPartitionedCall/model/MobileNetV3_Small/StatefulPartitionedCall/StatefulPartitionedCall/Bneck/Bneck10/Bneck10/Bneck/Depthwise/HardSwish/HardSigmoid/truediv", "StatefulPartitionedCall/model/MobileNetV3_Small/StatefulPartitionedCall/StatefulPartitionedCall/Bneck/Bneck10/Bneck10/Bneck/Depthwise/HardSwish/HardSigmoid/ReLU6/ReLU6/Relu6"], "attr": {"_grappler_ArithmeticOptimizer_MinimizeBroadcasts": {"b": true}, "T": {"type": "DT_FLOAT"}}}, {"name": "StatefulPartitionedCall/model/MobileNetV3_Small/StatefulPartitionedCall/StatefulPartitionedCall/Bneck/Bneck10/Bneck10/Bneck/Project/BatchNormalization/BatchNormalization/FusedBatchNormV3", "op": "_FusedConv2D", "input": ["StatefulPartitionedCall/model/MobileNetV3_Small/StatefulPartitionedCall/StatefulPartitionedCall/Bneck/Bneck10/Bneck10/Bneck/Depthwise/HardSwish/mul", "StatefulPartitionedCall/model/MobileNetV3_Small/StatefulPartitionedCall/StatefulPartitionedCall/Bneck/Bneck10/Bneck10/Bneck/Project/Conv1x1/Conv2D_weights", "StatefulPartitionedCall/model/MobileNetV3_Small/StatefulPartitionedCall/StatefulPartitionedCall/Bneck/Bneck10/Bneck10/Bneck/Project/Conv1x1/Conv2D_bn_offset"], "device": "/device:CPU:0", "attr": {"fused_ops": {"list": {"s": ["Qmlhc0FkZA=="]}}, "padding": {"s": "VkFMSUQ="}, "dilations": {"list": {"i": ["1", "1", "1", "1"]}}, "strides": {"list": {"i": ["1", "1", "1", "1"]}}, "use_cudnn_on_gpu": {"b": true}, "explicit_paddings": {"list": {}}, "num_args": {"i": "1"}, "data_format": {"s": "TkhXQw=="}, "epsilon": {"f": 0.0}, "T": {"type": "DT_FLOAT"}}}, {"name": "StatefulPartitionedCall/model/MobileNetV3_Small/StatefulPartitionedCall/StatefulPartitionedCall/Bneck/Bneck10/Bneck10/Bneck/add", "op": "AddV2", "input": ["StatefulPartitionedCall/model/MobileNetV3_Small/StatefulPartitionedCall/StatefulPartitionedCall/Bneck/Bneck9/Bneck9/Bneck/add", "StatefulPartitionedCall/model/MobileNetV3_Small/StatefulPartitionedCall/StatefulPartitionedCall/Bneck/Bneck10/Bneck10/Bneck/Project/BatchNormalization/BatchNormalization/FusedBatchNormV3"], "attr": {"T": {"type": "DT_FLOAT"}}}, {"name": "StatefulPartitionedCall/model/MobileNetV3_Small/StatefulPartitionedCall/StatefulPartitionedCall/LastStage/ConvNormAct/BatchNormalization/BatchNormalization/FusedBatchNormV3", "op": "_FusedConv2D", "input": ["StatefulPartitionedCall/model/MobileNetV3_Small/StatefulPartitionedCall/StatefulPartitionedCall/Bneck/Bneck10/Bneck10/Bneck/add", "StatefulPartitionedCall/model/MobileNetV3_Small/StatefulPartitionedCall/StatefulPartitionedCall/LastStage/ConvNormAct/Conv1x1/Conv2D_weights", "StatefulPartitionedCall/model/MobileNetV3_Small/StatefulPartitionedCall/StatefulPartitionedCall/LastStage/ConvNormAct/Conv1x1/Conv2D_bn_offset"], "device": "/device:CPU:0", "attr": {"explicit_paddings": {"list": {}}, "padding": {"s": "VkFMSUQ="}, "T": {"type": "DT_FLOAT"}, "fused_ops": {"list": {"s": ["Qmlhc0FkZA=="]}}, "data_format": {"s": "TkhXQw=="}, "use_cudnn_on_gpu": {"b": true}, "epsilon": {"f": 0.0}, "strides": {"list": {"i": ["1", "1", "1", "1"]}}, "dilations": {"list": {"i": ["1", "1", "1", "1"]}}, "num_args": {"i": "1"}}}, {"name": "StatefulPartitionedCall/model/MobileNetV3_Small/StatefulPartitionedCall/StatefulPartitionedCall/LastStage/ConvNormAct/HardSwish/HardSigmoid/truediv", "op": "Mul", "input": ["ConstantFolding/StatefulPartitionedCall/model/MobileNetV3_Small/StatefulPartitionedCall/StatefulPartitionedCall/LastStage/ConvNormAct/HardSwish/HardSigmoid/truediv_recip", "StatefulPartitionedCall/model/MobileNetV3_Small/StatefulPartitionedCall/StatefulPartitionedCall/LastStage/ConvNormAct/BatchNormalization/BatchNormalization/FusedBatchNormV3"], "attr": {"T": {"type": "DT_FLOAT"}, "_grappler_ArithmeticOptimizer_MinimizeBroadcasts": {"b": true}}}, {"name": "StatefulPartitionedCall/model/MobileNetV3_Small/StatefulPartitionedCall/StatefulPartitionedCall/LastStage/ConvNormAct/HardSwish/HardSigmoid/add", "op": "AddV2", "input": ["StatefulPartitionedCall/model/MobileNetV3_Small/StatefulPartitionedCall/StatefulPartitionedCall/LastStage/ConvNormAct/BatchNormalization/BatchNormalization/FusedBatchNormV3", "StatefulPartitionedCall/model/MobileNetV3_Small/StatefulPartitionedCall/StatefulPartitionedCall/LastStage/ConvNormAct/HardSwish/HardSigmoid/add/y"], "attr": {"T": {"type": "DT_FLOAT"}}}, {"name": "StatefulPartitionedCall/model/MobileNetV3_Small/StatefulPartitionedCall/StatefulPartitionedCall/LastStage/ConvNormAct/HardSwish/HardSigmoid/ReLU6/ReLU6/Relu6", "op": "Relu6", "input": ["StatefulPartitionedCall/model/MobileNetV3_Small/StatefulPartitionedCall/StatefulPartitionedCall/LastStage/ConvNormAct/HardSwish/HardSigmoid/add"], "attr": {"T": {"type": "DT_FLOAT"}}}, {"name": "StatefulPartitionedCall/model/MobileNetV3_Small/StatefulPartitionedCall/StatefulPartitionedCall/LastStage/ConvNormAct/HardSwish/mul", "op": "Mul", "input": ["StatefulPartitionedCall/model/MobileNetV3_Small/StatefulPartitionedCall/StatefulPartitionedCall/LastStage/ConvNormAct/HardSwish/HardSigmoid/truediv", "StatefulPartitionedCall/model/MobileNetV3_Small/StatefulPartitionedCall/StatefulPartitionedCall/LastStage/ConvNormAct/HardSwish/HardSigmoid/ReLU6/ReLU6/Relu6"], "attr": {"_grappler_ArithmeticOptimizer_MinimizeBroadcasts": {"b": true}, "T": {"type": "DT_FLOAT"}}}, {"name": "StatefulPartitionedCall/model/MobileNetV3_Small/StatefulPartitionedCall/StatefulPartitionedCall/LastStage/GlobalAveragePooling2D/AvgPool8x4/AvgPool", "op": "AvgPool", "input": ["StatefulPartitionedCall/model/MobileNetV3_Small/StatefulPartitionedCall/StatefulPartitionedCall/LastStage/ConvNormAct/HardSwish/mul"], "attr": {"data_format": {"s": "TkhXQw=="}, "T": {"type": "DT_FLOAT"}, "ksize": {"list": {"i": ["1", "8", "4", "1"]}}, "padding": {"s": "VkFMSUQ="}, "strides": {"list": {"i": ["1", "8", "4", "1"]}}}}, {"name": "StatefulPartitionedCall/model/MobileNetV3_Small/StatefulPartitionedCall/StatefulPartitionedCall/LastStage/ConvNormAct/Conv1x1/BiasAdd", "op": "_FusedConv2D", "input": ["StatefulPartitionedCall/model/MobileNetV3_Small/StatefulPartitionedCall/StatefulPartitionedCall/LastStage/GlobalAveragePooling2D/AvgPool8x4/AvgPool", "StatefulPartitionedCall/model/MobileNetV3_Small/StatefulPartitionedCall/StatefulPartitionedCall/LastStage/ConvNormAct/Conv1x1/Conv2D_1/ReadVariableOp", "StatefulPartitionedCall/model/MobileNetV3_Small/StatefulPartitionedCall/StatefulPartitionedCall/LastStage/ConvNormAct/Conv1x1/BiasAdd/ReadVariableOp"], "device": "/device:CPU:0", "attr": {"padding": {"s": "VkFMSUQ="}, "T": {"type": "DT_FLOAT"}, "epsilon": {"f": 0.0}, "fused_ops": {"list": {"s": ["Qmlhc0FkZA=="]}}, "data_format": {"s": "TkhXQw=="}, "dilations": {"list": {"i": ["1", "1", "1", "1"]}}, "use_cudnn_on_gpu": {"b": true}, "strides": {"list": {"i": ["1", "1", "1", "1"]}}, "num_args": {"i": "1"}, "explicit_paddings": {"list": {}}}}, {"name": "StatefulPartitionedCall/model/MobileNetV3_Small/StatefulPartitionedCall/StatefulPartitionedCall/LastStage/ConvNormAct/HardSwish/HardSigmoid/truediv_1", "op": "Mul", "input": ["ConstantFolding/StatefulPartitionedCall/model/MobileNetV3_Small/StatefulPartitionedCall/StatefulPartitionedCall/LastStage/ConvNormAct/HardSwish/HardSigmoid/truediv_1_recip", "StatefulPartitionedCall/model/MobileNetV3_Small/StatefulPartitionedCall/StatefulPartitionedCall/LastStage/ConvNormAct/Conv1x1/BiasAdd"], "attr": {"_grappler_ArithmeticOptimizer_MinimizeBroadcasts": {"b": true}, "T": {"type": "DT_FLOAT"}}}, {"name": "StatefulPartitionedCall/model/MobileNetV3_Small/StatefulPartitionedCall/StatefulPartitionedCall/LastStage/ConvNormAct/HardSwish/HardSigmoid/add_1", "op": "AddV2", "input": ["StatefulPartitionedCall/model/MobileNetV3_Small/StatefulPartitionedCall/StatefulPartitionedCall/LastStage/ConvNormAct/Conv1x1/BiasAdd", "StatefulPartitionedCall/model/MobileNetV3_Small/StatefulPartitionedCall/StatefulPartitionedCall/LastStage/ConvNormAct/HardSwish/HardSigmoid/add_1/y"], "attr": {"T": {"type": "DT_FLOAT"}}}, {"name": "StatefulPartitionedCall/model/MobileNetV3_Small/StatefulPartitionedCall/StatefulPartitionedCall/LastStage/ConvNormAct/HardSwish/HardSigmoid/ReLU6/ReLU6/Relu6_1", "op": "Relu6", "input": ["StatefulPartitionedCall/model/MobileNetV3_Small/StatefulPartitionedCall/StatefulPartitionedCall/LastStage/ConvNormAct/HardSwish/HardSigmoid/add_1"], "attr": {"T": {"type": "DT_FLOAT"}}}, {"name": "StatefulPartitionedCall/model/MobileNetV3_Small/StatefulPartitionedCall/StatefulPartitionedCall/LastStage/ConvNormAct/HardSwish/mul_1", "op": "Mul", "input": ["StatefulPartitionedCall/model/MobileNetV3_Small/StatefulPartitionedCall/StatefulPartitionedCall/LastStage/ConvNormAct/HardSwish/HardSigmoid/truediv_1", "StatefulPartitionedCall/model/MobileNetV3_Small/StatefulPartitionedCall/StatefulPartitionedCall/LastStage/ConvNormAct/HardSwish/HardSigmoid/ReLU6/ReLU6/Relu6_1"], "attr": {"T": {"type": "DT_FLOAT"}, "_grappler_ArithmeticOptimizer_MinimizeBroadcasts": {"b": true}}}, {"name": "StatefulPartitionedCall/model/MobileNetV3_Small/StatefulPartitionedCall/StatefulPartitionedCall/LastStage/ConvNormAct/Conv1x1/BiasAdd_1", "op": "_FusedConv2D", "input": ["StatefulPartitionedCall/model/MobileNetV3_Small/StatefulPartitionedCall/StatefulPartitionedCall/LastStage/ConvNormAct/HardSwish/mul_1", "StatefulPartitionedCall/model/MobileNetV3_Small/StatefulPartitionedCall/StatefulPartitionedCall/LastStage/ConvNormAct/Conv1x1/Conv2D_2/ReadVariableOp", "StatefulPartitionedCall/model/MobileNetV3_Small/StatefulPartitionedCall/StatefulPartitionedCall/LastStage/ConvNormAct/Conv1x1/BiasAdd_1/ReadVariableOp"], "device": "/device:CPU:0", "attr": {"fused_ops": {"list": {"s": ["Qmlhc0FkZA=="]}}, "T": {"type": "DT_FLOAT"}, "use_cudnn_on_gpu": {"b": true}, "dilations": {"list": {"i": ["1", "1", "1", "1"]}}, "epsilon": {"f": 0.0}, "data_format": {"s": "TkhXQw=="}, "explicit_paddings": {"list": {}}, "strides": {"list": {"i": ["1", "1", "1", "1"]}}, "padding": {"s": "VkFMSUQ="}, "num_args": {"i": "1"}}}, {"name": "StatefulPartitionedCall/model/MobileNetV3_Small/StatefulPartitionedCall/StatefulPartitionedCall/LastStage/ConvNormAct/Sigmoid/Sigmoid", "op": "Sigmoid", "input": ["StatefulPartitionedCall/model/MobileNetV3_Small/StatefulPartitionedCall/StatefulPartitionedCall/LastStage/ConvNormAct/Conv1x1/BiasAdd_1"], "attr": {"T": {"type": "DT_FLOAT"}}}, {"name": "StatefulPartitionedCall/model/MobileNetV3_Small/StatefulPartitionedCall/StatefulPartitionedCall/LastStage/Squeeze/Squeeze", "op": "Squeeze", "input": ["StatefulPartitionedCall/model/MobileNetV3_Small/StatefulPartitionedCall/StatefulPartitionedCall/LastStage/ConvNormAct/Sigmoid/Sigmoid"], "attr": {"T": {"type": "DT_FLOAT"}, "squeeze_dims": {"list": {"i": ["1"]}}}}, {"name": "StatefulPartitionedCall/model/MobileNetV3_Small/StatefulPartitionedCall/StatefulPartitionedCall/LastStage/Squeeze/Squeeze_1", "op": "Squeeze", "input": ["StatefulPartitionedCall/model/MobileNetV3_Small/StatefulPartitionedCall/StatefulPartitionedCall/LastStage/Squeeze/Squeeze"], "attr": {"T": {"type": "DT_FLOAT"}, "squeeze_dims": {"list": {"i": ["1"]}}}}, {"name": "Identity", "op": "Identity", "input": ["StatefulPartitionedCall/model/MobileNetV3_Small/StatefulPartitionedCall/StatefulPartitionedCall/LastStage/Squeeze/Squeeze_1"], "attr": {"T": {"type": "DT_FLOAT"}}}], "library": {}, "versions": {"producer": 1087}}, "weightsManifest": [{"paths": ["group1-shard1of2.bin", "group1-shard2of2.bin"], "weights": [{"name": "StatefulPartitionedCall/model/MobileNetV3_Small/StatefulPartitionedCall/StatefulPartitionedCall/FirstLayer/Conv3x3/Conv2D_weights", "shape": [3, 3, 3, 16], "dtype": "float32"}, {"name": "StatefulPartitionedCall/model/MobileNetV3_Small/StatefulPartitionedCall/StatefulPartitionedCall/FirstLayer/Conv3x3/Conv2D_bn_offset", "shape": [16], "dtype": "float32"}, {"name": "StatefulPartitionedCall/model/MobileNetV3_Small/StatefulPartitionedCall/StatefulPartitionedCall/Bneck/Bneck0/Bneck0/Bneck/Expand/Conv1x1/Conv2D_weights", "shape": [1, 1, 16, 16], "dtype": "float32"}, {"name": "StatefulPartitionedCall/model/MobileNetV3_Small/StatefulPartitionedCall/StatefulPartitionedCall/Bneck/Bneck0/Bneck0/Bneck/Expand/Conv1x1/Conv2D_bn_offset", "shape": [16], "dtype": "float32"}, {"name": "StatefulPartitionedCall/model/MobileNetV3_Small/StatefulPartitionedCall/StatefulPartitionedCall/Bneck/Bneck0/Bneck0/Bneck/Depthwise/DWConv3x3/depthwise_weights", "shape": [3, 3, 16, 1], "dtype": "float32"}, {"name": "StatefulPartitionedCall/model/MobileNetV3_Small/StatefulPartitionedCall/StatefulPartitionedCall/Bneck/Bneck0/Bneck0/Bneck/Depthwise/DWConv3x3/depthwise_bn_offset", "shape": [16], "dtype": "float32"}, {"name": "StatefulPartitionedCall/model/MobileNetV3_Small/StatefulPartitionedCall/StatefulPartitionedCall/Bneck/Bneck0/Bneck0/Bneck/Project/Conv1x1/Conv2D_weights", "shape": [1, 1, 16, 16], "dtype": "float32"}, {"name": "StatefulPartitionedCall/model/MobileNetV3_Small/StatefulPartitionedCall/StatefulPartitionedCall/Bneck/Bneck10/Bneck10/Bneck/Project/Conv1x1/Conv2D_weights", "shape": [1, 1, 576, 96], "dtype": "float32"}, {"name": "StatefulPartitionedCall/model/MobileNetV3_Small/StatefulPartitionedCall/StatefulPartitionedCall/Bneck/Bneck0/Bneck0/Bneck/Project/Conv1x1/Conv2D_bn_offset", "shape": [16], "dtype": "float32"}, {"name": "StatefulPartitionedCall/model/MobileNetV3_Small/StatefulPartitionedCall/StatefulPartitionedCall/Bneck/Bneck1/Bneck1/Bneck/Expand/Conv1x1/Conv2D_weights", "shape": [1, 1, 16, 72], "dtype": "float32"}, {"name": "StatefulPartitionedCall/model/MobileNetV3_Small/StatefulPartitionedCall/StatefulPartitionedCall/Bneck/Bneck1/Bneck1/Bneck/Expand/Conv1x1/Conv2D_bn_offset", "shape": [72], "dtype": "float32"}, {"name": "StatefulPartitionedCall/model/MobileNetV3_Small/StatefulPartitionedCall/StatefulPartitionedCall/Bneck/Bneck10/Bneck10/Bneck/Project/Conv1x1/Conv2D_bn_offset", "shape": [96], "dtype": "float32"}, {"name": "StatefulPartitionedCall/model/MobileNetV3_Small/StatefulPartitionedCall/StatefulPartitionedCall/Bneck/Bneck1/Bneck1/Bneck/Depthwise/DWConv3x3/depthwise_weights", "shape": [3, 3, 72, 1], "dtype": "float32"}, {"name": "StatefulPartitionedCall/model/MobileNetV3_Small/StatefulPartitionedCall/StatefulPartitionedCall/Bneck/Bneck1/Bneck1/Bneck/Depthwise/DWConv3x3/depthwise_bn_offset", "shape": [72], "dtype": "float32"}, {"name": "StatefulPartitionedCall/model/MobileNetV3_Small/StatefulPartitionedCall/StatefulPartitionedCall/Bneck/Bneck1/Bneck1/Bneck/Project/Conv1x1/Conv2D_weights", "shape": [1, 1, 72, 24], "dtype": "float32"}, {"name": "StatefulPartitionedCall/model/MobileNetV3_Small/StatefulPartitionedCall/StatefulPartitionedCall/Bneck/Bneck1/Bneck1/Bneck/Project/Conv1x1/Conv2D_bn_offset", "shape": [24], "dtype": "float32"}, {"name": "StatefulPartitionedCall/model/MobileNetV3_Small/StatefulPartitionedCall/StatefulPartitionedCall/Bneck/Bneck2/Bneck2/Bneck/Expand/Conv1x1/Conv2D_weights", "shape": [1, 1, 24, 88], "dtype": "float32"}, {"name": "StatefulPartitionedCall/model/MobileNetV3_Small/StatefulPartitionedCall/StatefulPartitionedCall/Bneck/Bneck2/Bneck2/Bneck/Expand/Conv1x1/Conv2D_bn_offset", "shape": [88], "dtype": "float32"}, {"name": "StatefulPartitionedCall/model/MobileNetV3_Small/StatefulPartitionedCall/StatefulPartitionedCall/LastStage/ConvNormAct/Conv1x1/Conv2D_weights", "shape": [1, 1, 96, 576], "dtype": "float32"}, {"name": "StatefulPartitionedCall/model/MobileNetV3_Small/StatefulPartitionedCall/StatefulPartitionedCall/Bneck/Bneck2/Bneck2/Bneck/Depthwise/DWConv3x3/depthwise_weights", "shape": [3, 3, 88, 1], "dtype": "float32"}, {"name": "StatefulPartitionedCall/model/MobileNetV3_Small/StatefulPartitionedCall/StatefulPartitionedCall/Bneck/Bneck2/Bneck2/Bneck/Depthwise/DWConv3x3/depthwise_bn_offset", "shape": [88], "dtype": "float32"}, {"name": "StatefulPartitionedCall/model/MobileNetV3_Small/StatefulPartitionedCall/StatefulPartitionedCall/Bneck/Bneck2/Bneck2/Bneck/Project/Conv1x1/Conv2D_weights", "shape": [1, 1, 88, 24], "dtype": "float32"}, {"name": "StatefulPartitionedCall/model/MobileNetV3_Small/StatefulPartitionedCall/StatefulPartitionedCall/Bneck/Bneck2/Bneck2/Bneck/Project/Conv1x1/Conv2D_bn_offset", "shape": [24], "dtype": "float32"}, {"name": "StatefulPartitionedCall/model/MobileNetV3_Small/StatefulPartitionedCall/StatefulPartitionedCall/Bneck/Bneck3/Bneck3/Bneck/Expand/Conv1x1/Conv2D_weights", "shape": [1, 1, 24, 96], "dtype": "float32"}, {"name": "StatefulPartitionedCall/model/MobileNetV3_Small/StatefulPartitionedCall/StatefulPartitionedCall/LastStage/ConvNormAct/Conv1x1/Conv2D_bn_offset", "shape": [576], "dtype": "float32"}, {"name": "StatefulPartitionedCall/model/MobileNetV3_Small/StatefulPartitionedCall/StatefulPartitionedCall/Bneck/Bneck3/Bneck3/Bneck/Expand/Conv1x1/Conv2D_bn_offset", "shape": [96], "dtype": "float32"}, {"name": "StatefulPartitionedCall/model/MobileNetV3_Small/StatefulPartitionedCall/StatefulPartitionedCall/Bneck/Bneck3/Bneck3/Bneck/Depthwise/DWConv5x5/depthwise_weights", "shape": [5, 5, 96, 1], "dtype": "float32"}, {"name": "StatefulPartitionedCall/model/MobileNetV3_Small/StatefulPartitionedCall/StatefulPartitionedCall/Bneck/Bneck3/Bneck3/Bneck/Depthwise/DWConv5x5/depthwise_bn_offset", "shape": [96], "dtype": "float32"}, {"name": "StatefulPartitionedCall/model/MobileNetV3_Small/StatefulPartitionedCall/StatefulPartitionedCall/Bneck/Bneck3/Bneck3/Bneck/Project/Conv1x1/Conv2D_weights", "shape": [1, 1, 96, 40], "dtype": "float32"}, {"name": "StatefulPartitionedCall/model/MobileNetV3_Small/StatefulPartitionedCall/StatefulPartitionedCall/Bneck/Bneck3/Bneck3/Bneck/Project/Conv1x1/Conv2D_bn_offset", "shape": [40], "dtype": "float32"}, {"name": "StatefulPartitionedCall/model/MobileNetV3_Small/StatefulPartitionedCall/StatefulPartitionedCall/Bneck/Bneck4/Bneck4/Bneck/Expand/Conv1x1/Conv2D_weights", "shape": [1, 1, 40, 240], "dtype": "float32"}, {"name": "StatefulPartitionedCall/model/MobileNetV3_Small/StatefulPartitionedCall/StatefulPartitionedCall/Bneck/Bneck4/Bneck4/Bneck/Expand/Conv1x1/Conv2D_bn_offset", "shape": [240], "dtype": "float32"}, {"name": "StatefulPartitionedCall/model/MobileNetV3_Small/StatefulPartitionedCall/StatefulPartitionedCall/Bneck/Bneck4/Bneck4/Bneck/Depthwise/DWConv5x5/depthwise_weights", "shape": [5, 5, 240, 1], "dtype": "float32"}, {"name": "StatefulPartitionedCall/model/MobileNetV3_Small/StatefulPartitionedCall/StatefulPartitionedCall/Bneck/Bneck4/Bneck4/Bneck/Depthwise/DWConv5x5/depthwise_bn_offset", "shape": [240], "dtype": "float32"}, {"name": "StatefulPartitionedCall/model/MobileNetV3_Small/StatefulPartitionedCall/StatefulPartitionedCall/Bneck/Bneck4/Bneck4/Bneck/Project/Conv1x1/Conv2D_weights", "shape": [1, 1, 240, 40], "dtype": "float32"}, {"name": "StatefulPartitionedCall/model/MobileNetV3_Small/StatefulPartitionedCall/StatefulPartitionedCall/Bneck/Bneck4/Bneck4/Bneck/Project/Conv1x1/Conv2D_bn_offset", "shape": [40], "dtype": "float32"}, {"name": "StatefulPartitionedCall/model/MobileNetV3_Small/StatefulPartitionedCall/StatefulPartitionedCall/Bneck/Bneck5/Bneck5/Bneck/Expand/Conv1x1/Conv2D_weights", "shape": [1, 1, 40, 240], "dtype": "float32"}, {"name": "StatefulPartitionedCall/model/MobileNetV3_Small/StatefulPartitionedCall/StatefulPartitionedCall/Bneck/Bneck5/Bneck5/Bneck/Expand/Conv1x1/Conv2D_bn_offset", "shape": [240], "dtype": "float32"}, {"name": "StatefulPartitionedCall/model/MobileNetV3_Small/StatefulPartitionedCall/StatefulPartitionedCall/Bneck/Bneck5/Bneck5/Bneck/Depthwise/DWConv5x5/depthwise_weights", "shape": [5, 5, 240, 1], "dtype": "float32"}, {"name": "StatefulPartitionedCall/model/MobileNetV3_Small/StatefulPartitionedCall/StatefulPartitionedCall/Bneck/Bneck5/Bneck5/Bneck/Depthwise/DWConv5x5/depthwise_bn_offset", "shape": [240], "dtype": "float32"}, {"name": "StatefulPartitionedCall/model/MobileNetV3_Small/StatefulPartitionedCall/StatefulPartitionedCall/Bneck/Bneck5/Bneck5/Bneck/Project/Conv1x1/Conv2D_weights", "shape": [1, 1, 240, 40], "dtype": "float32"}, {"name": "StatefulPartitionedCall/model/MobileNetV3_Small/StatefulPartitionedCall/StatefulPartitionedCall/Bneck/Bneck5/Bneck5/Bneck/Project/Conv1x1/Conv2D_bn_offset", "shape": [40], "dtype": "float32"}, {"name": "StatefulPartitionedCall/model/MobileNetV3_Small/StatefulPartitionedCall/StatefulPartitionedCall/Bneck/Bneck6/Bneck6/Bneck/Expand/Conv1x1/Conv2D_weights", "shape": [1, 1, 40, 120], "dtype": "float32"}, {"name": "StatefulPartitionedCall/model/MobileNetV3_Small/StatefulPartitionedCall/StatefulPartitionedCall/Bneck/Bneck6/Bneck6/Bneck/Expand/Conv1x1/Conv2D_bn_offset", "shape": [120], "dtype": "float32"}, {"name": "StatefulPartitionedCall/model/MobileNetV3_Small/StatefulPartitionedCall/StatefulPartitionedCall/Bneck/Bneck6/Bneck6/Bneck/Depthwise/DWConv5x5/depthwise_weights", "shape": [5, 5, 120, 1], "dtype": "float32"}, {"name": "StatefulPartitionedCall/model/MobileNetV3_Small/StatefulPartitionedCall/StatefulPartitionedCall/Bneck/Bneck6/Bneck6/Bneck/Depthwise/DWConv5x5/depthwise_bn_offset", "shape": [120], "dtype": "float32"}, {"name": "StatefulPartitionedCall/model/MobileNetV3_Small/StatefulPartitionedCall/StatefulPartitionedCall/Bneck/Bneck6/Bneck6/Bneck/Project/Conv1x1/Conv2D_weights", "shape": [1, 1, 120, 48], "dtype": "float32"}, {"name": "StatefulPartitionedCall/model/MobileNetV3_Small/StatefulPartitionedCall/StatefulPartitionedCall/Bneck/Bneck6/Bneck6/Bneck/Project/Conv1x1/Conv2D_bn_offset", "shape": [48], "dtype": "float32"}, {"name": "StatefulPartitionedCall/model/MobileNetV3_Small/StatefulPartitionedCall/StatefulPartitionedCall/Bneck/Bneck7/Bneck7/Bneck/Expand/Conv1x1/Conv2D_weights", "shape": [1, 1, 48, 144], "dtype": "float32"}, {"name": "StatefulPartitionedCall/model/MobileNetV3_Small/StatefulPartitionedCall/StatefulPartitionedCall/Bneck/Bneck7/Bneck7/Bneck/Expand/Conv1x1/Conv2D_bn_offset", "shape": [144], "dtype": "float32"}, {"name": "StatefulPartitionedCall/model/MobileNetV3_Small/StatefulPartitionedCall/StatefulPartitionedCall/Bneck/Bneck7/Bneck7/Bneck/Depthwise/DWConv5x5/depthwise_weights", "shape": [5, 5, 144, 1], "dtype": "float32"}, {"name": "StatefulPartitionedCall/model/MobileNetV3_Small/StatefulPartitionedCall/StatefulPartitionedCall/Bneck/Bneck7/Bneck7/Bneck/Depthwise/DWConv5x5/depthwise_bn_offset", "shape": [144], "dtype": "float32"}, {"name": "StatefulPartitionedCall/model/MobileNetV3_Small/StatefulPartitionedCall/StatefulPartitionedCall/Bneck/Bneck7/Bneck7/Bneck/Project/Conv1x1/Conv2D_weights", "shape": [1, 1, 144, 48], "dtype": "float32"}, {"name": "StatefulPartitionedCall/model/MobileNetV3_Small/StatefulPartitionedCall/StatefulPartitionedCall/Bneck/Bneck7/Bneck7/Bneck/Project/Conv1x1/Conv2D_bn_offset", "shape": [48], "dtype": "float32"}, {"name": "StatefulPartitionedCall/model/MobileNetV3_Small/StatefulPartitionedCall/StatefulPartitionedCall/Bneck/Bneck8/Bneck8/Bneck/Expand/Conv1x1/Conv2D_weights", "shape": [1, 1, 48, 288], "dtype": "float32"}, {"name": "StatefulPartitionedCall/model/MobileNetV3_Small/StatefulPartitionedCall/StatefulPartitionedCall/Bneck/Bneck8/Bneck8/Bneck/Expand/Conv1x1/Conv2D_bn_offset", "shape": [288], "dtype": "float32"}, {"name": "StatefulPartitionedCall/model/MobileNetV3_Small/StatefulPartitionedCall/StatefulPartitionedCall/Bneck/Bneck8/Bneck8/Bneck/Depthwise/DWConv5x5/depthwise_weights", "shape": [5, 5, 288, 1], "dtype": "float32"}, {"name": "StatefulPartitionedCall/model/MobileNetV3_Small/StatefulPartitionedCall/StatefulPartitionedCall/Bneck/Bneck8/Bneck8/Bneck/Depthwise/DWConv5x5/depthwise_bn_offset", "shape": [288], "dtype": "float32"}, {"name": "StatefulPartitionedCall/model/MobileNetV3_Small/StatefulPartitionedCall/StatefulPartitionedCall/Bneck/Bneck8/Bneck8/Bneck/Project/Conv1x1/Conv2D_weights", "shape": [1, 1, 288, 96], "dtype": "float32"}, {"name": "StatefulPartitionedCall/model/MobileNetV3_Small/StatefulPartitionedCall/StatefulPartitionedCall/Bneck/Bneck8/Bneck8/Bneck/Project/Conv1x1/Conv2D_bn_offset", "shape": [96], "dtype": "float32"}, {"name": "StatefulPartitionedCall/model/MobileNetV3_Small/StatefulPartitionedCall/StatefulPartitionedCall/Bneck/Bneck9/Bneck9/Bneck/Expand/Conv1x1/Conv2D_weights", "shape": [1, 1, 96, 576], "dtype": "float32"}, {"name": "StatefulPartitionedCall/model/MobileNetV3_Small/StatefulPartitionedCall/StatefulPartitionedCall/Bneck/Bneck9/Bneck9/Bneck/Expand/Conv1x1/Conv2D_bn_offset", "shape": [576], "dtype": "float32"}, {"name": "StatefulPartitionedCall/model/MobileNetV3_Small/StatefulPartitionedCall/StatefulPartitionedCall/Bneck/Bneck9/Bneck9/Bneck/Depthwise/DWConv5x5/depthwise_weights", "shape": [5, 5, 576, 1], "dtype": "float32"}, {"name": "StatefulPartitionedCall/model/MobileNetV3_Small/StatefulPartitionedCall/StatefulPartitionedCall/Bneck/Bneck9/Bneck9/Bneck/Depthwise/DWConv5x5/depthwise_bn_offset", "shape": [576], "dtype": "float32"}, {"name": "StatefulPartitionedCall/model/MobileNetV3_Small/StatefulPartitionedCall/StatefulPartitionedCall/Bneck/Bneck9/Bneck9/Bneck/Project/Conv1x1/Conv2D_weights", "shape": [1, 1, 576, 96], "dtype": "float32"}, {"name": "StatefulPartitionedCall/model/MobileNetV3_Small/StatefulPartitionedCall/StatefulPartitionedCall/Bneck/Bneck9/Bneck9/Bneck/Project/Conv1x1/Conv2D_bn_offset", "shape": [96], "dtype": "float32"}, {"name": "StatefulPartitionedCall/model/MobileNetV3_Small/StatefulPartitionedCall/StatefulPartitionedCall/Bneck/Bneck10/Bneck10/Bneck/Expand/Conv1x1/Conv2D_weights", "shape": [1, 1, 96, 576], "dtype": "float32"}, {"name": "StatefulPartitionedCall/model/MobileNetV3_Small/StatefulPartitionedCall/StatefulPartitionedCall/Bneck/Bneck10/Bneck10/Bneck/Expand/Conv1x1/Conv2D_bn_offset", "shape": [576], "dtype": "float32"}, {"name": "StatefulPartitionedCall/model/MobileNetV3_Small/StatefulPartitionedCall/StatefulPartitionedCall/Bneck/Bneck10/Bneck10/Bneck/Depthwise/DWConv5x5/depthwise_weights", "shape": [5, 5, 576, 1], "dtype": "float32"}, {"name": "StatefulPartitionedCall/model/MobileNetV3_Small/StatefulPartitionedCall/StatefulPartitionedCall/Bneck/Bneck10/Bneck10/Bneck/Depthwise/DWConv5x5/depthwise_bn_offset", "shape": [576], "dtype": "float32"}, {"name": "ConstantFolding/StatefulPartitionedCall/model/MobileNetV3_Small/StatefulPartitionedCall/StatefulPartitionedCall/LastStage/ConvNormAct/HardSwish/HardSigmoid/truediv_1_recip", "shape": [], "dtype": "float32"}, {"name": "ConstantFolding/StatefulPartitionedCall/model/MobileNetV3_Small/StatefulPartitionedCall/StatefulPartitionedCall/LastStage/ConvNormAct/HardSwish/HardSigmoid/truediv_recip", "shape": [], "dtype": "float32"}, {"name": "ConstantFolding/StatefulPartitionedCall/model/MobileNetV3_Small/StatefulPartitionedCall/StatefulPartitionedCall/Bneck/Bneck10/Bneck10/Bneck/Depthwise/HardSwish/HardSigmoid/truediv_recip", "shape": [], "dtype": "float32"}, {"name": "ConstantFolding/StatefulPartitionedCall/model/MobileNetV3_Small/StatefulPartitionedCall/StatefulPartitionedCall/Bneck/Bneck10/Bneck10/Bneck/Expand/HardSwish/HardSigmoid/truediv_recip", "shape": [], "dtype": "float32"}, {"name": "ConstantFolding/StatefulPartitionedCall/model/MobileNetV3_Small/StatefulPartitionedCall/StatefulPartitionedCall/Bneck/Bneck9/Bneck9/Bneck/Depthwise/HardSwish/HardSigmoid/truediv_recip", "shape": [], "dtype": "float32"}, {"name": "ConstantFolding/StatefulPartitionedCall/model/MobileNetV3_Small/StatefulPartitionedCall/StatefulPartitionedCall/Bneck/Bneck9/Bneck9/Bneck/Expand/HardSwish/HardSigmoid/truediv_recip", "shape": [], "dtype": "float32"}, {"name": "ConstantFolding/StatefulPartitionedCall/model/MobileNetV3_Small/StatefulPartitionedCall/StatefulPartitionedCall/Bneck/Bneck8/Bneck8/Bneck/Depthwise/HardSwish/HardSigmoid/truediv_recip", "shape": [], "dtype": "float32"}, {"name": "ConstantFolding/StatefulPartitionedCall/model/MobileNetV3_Small/StatefulPartitionedCall/StatefulPartitionedCall/Bneck/Bneck8/Bneck8/Bneck/Expand/HardSwish/HardSigmoid/truediv_recip", "shape": [], "dtype": "float32"}, {"name": "ConstantFolding/StatefulPartitionedCall/model/MobileNetV3_Small/StatefulPartitionedCall/StatefulPartitionedCall/Bneck/Bneck7/Bneck7/Bneck/Depthwise/HardSwish/HardSigmoid/truediv_recip", "shape": [], "dtype": "float32"}, {"name": "ConstantFolding/StatefulPartitionedCall/model/MobileNetV3_Small/StatefulPartitionedCall/StatefulPartitionedCall/Bneck/Bneck7/Bneck7/Bneck/Expand/HardSwish/HardSigmoid/truediv_recip", "shape": [], "dtype": "float32"}, {"name": "ConstantFolding/StatefulPartitionedCall/model/MobileNetV3_Small/StatefulPartitionedCall/StatefulPartitionedCall/Bneck/Bneck6/Bneck6/Bneck/Depthwise/HardSwish/HardSigmoid/truediv_recip", "shape": [], "dtype": "float32"}, {"name": "ConstantFolding/StatefulPartitionedCall/model/MobileNetV3_Small/StatefulPartitionedCall/StatefulPartitionedCall/Bneck/Bneck6/Bneck6/Bneck/Expand/HardSwish/HardSigmoid/truediv_recip", "shape": [], "dtype": "float32"}, {"name": "ConstantFolding/StatefulPartitionedCall/model/MobileNetV3_Small/StatefulPartitionedCall/StatefulPartitionedCall/Bneck/Bneck5/Bneck5/Bneck/Depthwise/HardSwish/HardSigmoid/truediv_recip", "shape": [], "dtype": "float32"}, {"name": "ConstantFolding/StatefulPartitionedCall/model/MobileNetV3_Small/StatefulPartitionedCall/StatefulPartitionedCall/Bneck/Bneck5/Bneck5/Bneck/Expand/HardSwish/HardSigmoid/truediv_recip", "shape": [], "dtype": "float32"}, {"name": "ConstantFolding/StatefulPartitionedCall/model/MobileNetV3_Small/StatefulPartitionedCall/StatefulPartitionedCall/Bneck/Bneck4/Bneck4/Bneck/Depthwise/HardSwish/HardSigmoid/truediv_recip", "shape": [], "dtype": "float32"}, {"name": "ConstantFolding/StatefulPartitionedCall/model/MobileNetV3_Small/StatefulPartitionedCall/StatefulPartitionedCall/Bneck/Bneck4/Bneck4/Bneck/Expand/HardSwish/HardSigmoid/truediv_recip", "shape": [], "dtype": "float32"}, {"name": "ConstantFolding/StatefulPartitionedCall/model/MobileNetV3_Small/StatefulPartitionedCall/StatefulPartitionedCall/Bneck/Bneck3/Bneck3/Bneck/Depthwise/HardSwish/HardSigmoid/truediv_recip", "shape": [], "dtype": "float32"}, {"name": "ConstantFolding/StatefulPartitionedCall/model/MobileNetV3_Small/StatefulPartitionedCall/StatefulPartitionedCall/Bneck/Bneck3/Bneck3/Bneck/Expand/HardSwish/HardSigmoid/truediv_recip", "shape": [], "dtype": "float32"}, {"name": "ConstantFolding/StatefulPartitionedCall/model/MobileNetV3_Small/StatefulPartitionedCall/StatefulPartitionedCall/FirstLayer/HardSwish/HardSigmoid/truediv_recip", "shape": [], "dtype": "float32"}, {"name": "StatefulPartitionedCall/model/MobileNetV3_Small/StatefulPartitionedCall/StatefulPartitionedCall/FirstLayer/Padding1x1/Pad/paddings", "shape": [4, 2], "dtype": "int32"}, {"name": "StatefulPartitionedCall/model/MobileNetV3_Small/StatefulPartitionedCall/StatefulPartitionedCall/FirstLayer/HardSwish/HardSigmoid/add/y", "shape": [], "dtype": "float32"}, {"name": "StatefulPartitionedCall/model/MobileNetV3_Small/StatefulPartitionedCall/StatefulPartitionedCall/Bneck/Bneck0/Bneck0/Bneck/Depthwise/Padding1x1/Pad/paddings", "shape": [4, 2], "dtype": "int32"}, {"name": "StatefulPartitionedCall/model/MobileNetV3_Small/StatefulPartitionedCall/StatefulPartitionedCall/Bneck/Bneck0/Bneck0/Bneck/Depthwise/SEBottleneck/Squeeze/Conv1x1/Conv2D/ReadVariableOp", "shape": [1, 1, 16, 4], "dtype": "float32"}, {"name": "StatefulPartitionedCall/model/MobileNetV3_Small/StatefulPartitionedCall/StatefulPartitionedCall/Bneck/Bneck0/Bneck0/Bneck/Depthwise/SEBottleneck/Excite/Conv1x1/Conv2D/ReadVariableOp", "shape": [1, 1, 4, 16], "dtype": "float32"}, {"name": "StatefulPartitionedCall/model/MobileNetV3_Small/StatefulPartitionedCall/StatefulPartitionedCall/Bneck/Bneck0/Bneck0/Bneck/Depthwise/SEBottleneck/Excite/HardSigmoid/add/y", "shape": [], "dtype": "float32"}, {"name": "ConstantFolding/StatefulPartitionedCall/model/MobileNetV3_Small/StatefulPartitionedCall/StatefulPartitionedCall/Bneck/Bneck0/Bneck0/Bneck/Depthwise/SEBottleneck/Excite/HardSigmoid/truediv_recip", "shape": [], "dtype": "float32"}, {"name": "StatefulPartitionedCall/model/MobileNetV3_Small/StatefulPartitionedCall/StatefulPartitionedCall/Bneck/Bneck1/Bneck1/Bneck/Depthwise/Padding1x1/Pad/paddings", "shape": [4, 2], "dtype": "int32"}, {"name": "StatefulPartitionedCall/model/MobileNetV3_Small/StatefulPartitionedCall/StatefulPartitionedCall/Bneck/Bneck2/Bneck2/Bneck/Depthwise/Padding1x1/Pad/paddings", "shape": [4, 2], "dtype": "int32"}, {"name": "StatefulPartitionedCall/model/MobileNetV3_Small/StatefulPartitionedCall/StatefulPartitionedCall/Bneck/Bneck3/Bneck3/Bneck/Expand/HardSwish/HardSigmoid/add/y", "shape": [], "dtype": "float32"}, {"name": "StatefulPartitionedCall/model/MobileNetV3_Small/StatefulPartitionedCall/StatefulPartitionedCall/Bneck/Bneck3/Bneck3/Bneck/Depthwise/Padding2x2/Pad/paddings", "shape": [4, 2], "dtype": "int32"}, {"name": "StatefulPartitionedCall/model/MobileNetV3_Small/StatefulPartitionedCall/StatefulPartitionedCall/Bneck/Bneck3/Bneck3/Bneck/Depthwise/SEBottleneck/Squeeze/Conv1x1/Conv2D/ReadVariableOp", "shape": [1, 1, 96, 24], "dtype": "float32"}, {"name": "StatefulPartitionedCall/model/MobileNetV3_Small/StatefulPartitionedCall/StatefulPartitionedCall/Bneck/Bneck3/Bneck3/Bneck/Depthwise/SEBottleneck/Excite/Conv1x1/Conv2D/ReadVariableOp", "shape": [1, 1, 24, 96], "dtype": "float32"}, {"name": "StatefulPartitionedCall/model/MobileNetV3_Small/StatefulPartitionedCall/StatefulPartitionedCall/Bneck/Bneck3/Bneck3/Bneck/Depthwise/SEBottleneck/Excite/HardSigmoid/add/y", "shape": [], "dtype": "float32"}, {"name": "ConstantFolding/StatefulPartitionedCall/model/MobileNetV3_Small/StatefulPartitionedCall/StatefulPartitionedCall/Bneck/Bneck3/Bneck3/Bneck/Depthwise/SEBottleneck/Excite/HardSigmoid/truediv_recip", "shape": [], "dtype": "float32"}, {"name": "StatefulPartitionedCall/model/MobileNetV3_Small/StatefulPartitionedCall/StatefulPartitionedCall/Bneck/Bneck3/Bneck3/Bneck/Depthwise/HardSwish/HardSigmoid/add/y", "shape": [], "dtype": "float32"}, {"name": "StatefulPartitionedCall/model/MobileNetV3_Small/StatefulPartitionedCall/StatefulPartitionedCall/Bneck/Bneck4/Bneck4/Bneck/Expand/HardSwish/HardSigmoid/add/y", "shape": [], "dtype": "float32"}, {"name": "StatefulPartitionedCall/model/MobileNetV3_Small/StatefulPartitionedCall/StatefulPartitionedCall/Bneck/Bneck4/Bneck4/Bneck/Depthwise/Padding2x2/Pad/paddings", "shape": [4, 2], "dtype": "int32"}, {"name": "StatefulPartitionedCall/model/MobileNetV3_Small/StatefulPartitionedCall/StatefulPartitionedCall/Bneck/Bneck4/Bneck4/Bneck/Depthwise/SEBottleneck/Squeeze/Conv1x1/Conv2D/ReadVariableOp", "shape": [1, 1, 240, 60], "dtype": "float32"}, {"name": "StatefulPartitionedCall/model/MobileNetV3_Small/StatefulPartitionedCall/StatefulPartitionedCall/Bneck/Bneck4/Bneck4/Bneck/Depthwise/SEBottleneck/Excite/Conv1x1/Conv2D/ReadVariableOp", "shape": [1, 1, 60, 240], "dtype": "float32"}, {"name": "StatefulPartitionedCall/model/MobileNetV3_Small/StatefulPartitionedCall/StatefulPartitionedCall/Bneck/Bneck4/Bneck4/Bneck/Depthwise/SEBottleneck/Excite/HardSigmoid/add/y", "shape": [], "dtype": "float32"}, {"name": "ConstantFolding/StatefulPartitionedCall/model/MobileNetV3_Small/StatefulPartitionedCall/StatefulPartitionedCall/Bneck/Bneck4/Bneck4/Bneck/Depthwise/SEBottleneck/Excite/HardSigmoid/truediv_recip", "shape": [], "dtype": "float32"}, {"name": "StatefulPartitionedCall/model/MobileNetV3_Small/StatefulPartitionedCall/StatefulPartitionedCall/Bneck/Bneck4/Bneck4/Bneck/Depthwise/HardSwish/HardSigmoid/add/y", "shape": [], "dtype": "float32"}, {"name": "StatefulPartitionedCall/model/MobileNetV3_Small/StatefulPartitionedCall/StatefulPartitionedCall/Bneck/Bneck5/Bneck5/Bneck/Expand/HardSwish/HardSigmoid/add/y", "shape": [], "dtype": "float32"}, {"name": "StatefulPartitionedCall/model/MobileNetV3_Small/StatefulPartitionedCall/StatefulPartitionedCall/Bneck/Bneck5/Bneck5/Bneck/Depthwise/Padding2x2/Pad/paddings", "shape": [4, 2], "dtype": "int32"}, {"name": "StatefulPartitionedCall/model/MobileNetV3_Small/StatefulPartitionedCall/StatefulPartitionedCall/Bneck/Bneck5/Bneck5/Bneck/Depthwise/SEBottleneck/Squeeze/Conv1x1/Conv2D/ReadVariableOp", "shape": [1, 1, 240, 60], "dtype": "float32"}, {"name": "StatefulPartitionedCall/model/MobileNetV3_Small/StatefulPartitionedCall/StatefulPartitionedCall/Bneck/Bneck5/Bneck5/Bneck/Depthwise/SEBottleneck/Excite/Conv1x1/Conv2D/ReadVariableOp", "shape": [1, 1, 60, 240], "dtype": "float32"}, {"name": "StatefulPartitionedCall/model/MobileNetV3_Small/StatefulPartitionedCall/StatefulPartitionedCall/Bneck/Bneck5/Bneck5/Bneck/Depthwise/SEBottleneck/Excite/HardSigmoid/add/y", "shape": [], "dtype": "float32"}, {"name": "ConstantFolding/StatefulPartitionedCall/model/MobileNetV3_Small/StatefulPartitionedCall/StatefulPartitionedCall/Bneck/Bneck5/Bneck5/Bneck/Depthwise/SEBottleneck/Excite/HardSigmoid/truediv_recip", "shape": [], "dtype": "float32"}, {"name": "StatefulPartitionedCall/model/MobileNetV3_Small/StatefulPartitionedCall/StatefulPartitionedCall/Bneck/Bneck5/Bneck5/Bneck/Depthwise/HardSwish/HardSigmoid/add/y", "shape": [], "dtype": "float32"}, {"name": "StatefulPartitionedCall/model/MobileNetV3_Small/StatefulPartitionedCall/StatefulPartitionedCall/Bneck/Bneck6/Bneck6/Bneck/Expand/HardSwish/HardSigmoid/add/y", "shape": [], "dtype": "float32"}, {"name": "StatefulPartitionedCall/model/MobileNetV3_Small/StatefulPartitionedCall/StatefulPartitionedCall/Bneck/Bneck6/Bneck6/Bneck/Depthwise/Padding2x2/Pad/paddings", "shape": [4, 2], "dtype": "int32"}, {"name": "StatefulPartitionedCall/model/MobileNetV3_Small/StatefulPartitionedCall/StatefulPartitionedCall/Bneck/Bneck6/Bneck6/Bneck/Depthwise/SEBottleneck/Squeeze/Conv1x1/Conv2D/ReadVariableOp", "shape": [1, 1, 120, 30], "dtype": "float32"}, {"name": "StatefulPartitionedCall/model/MobileNetV3_Small/StatefulPartitionedCall/StatefulPartitionedCall/Bneck/Bneck6/Bneck6/Bneck/Depthwise/SEBottleneck/Excite/Conv1x1/Conv2D/ReadVariableOp", "shape": [1, 1, 30, 120], "dtype": "float32"}, {"name": "StatefulPartitionedCall/model/MobileNetV3_Small/StatefulPartitionedCall/StatefulPartitionedCall/Bneck/Bneck6/Bneck6/Bneck/Depthwise/SEBottleneck/Excite/HardSigmoid/add/y", "shape": [], "dtype": "float32"}, {"name": "ConstantFolding/StatefulPartitionedCall/model/MobileNetV3_Small/StatefulPartitionedCall/StatefulPartitionedCall/Bneck/Bneck6/Bneck6/Bneck/Depthwise/SEBottleneck/Excite/HardSigmoid/truediv_recip", "shape": [], "dtype": "float32"}, {"name": "StatefulPartitionedCall/model/MobileNetV3_Small/StatefulPartitionedCall/StatefulPartitionedCall/Bneck/Bneck6/Bneck6/Bneck/Depthwise/HardSwish/HardSigmoid/add/y", "shape": [], "dtype": "float32"}, {"name": "StatefulPartitionedCall/model/MobileNetV3_Small/StatefulPartitionedCall/StatefulPartitionedCall/Bneck/Bneck7/Bneck7/Bneck/Expand/HardSwish/HardSigmoid/add/y", "shape": [], "dtype": "float32"}, {"name": "StatefulPartitionedCall/model/MobileNetV3_Small/StatefulPartitionedCall/StatefulPartitionedCall/Bneck/Bneck7/Bneck7/Bneck/Depthwise/Padding2x2/Pad/paddings", "shape": [4, 2], "dtype": "int32"}, {"name": "StatefulPartitionedCall/model/MobileNetV3_Small/StatefulPartitionedCall/StatefulPartitionedCall/Bneck/Bneck7/Bneck7/Bneck/Depthwise/SEBottleneck/Squeeze/Conv1x1/Conv2D/ReadVariableOp", "shape": [1, 1, 144, 36], "dtype": "float32"}, {"name": "StatefulPartitionedCall/model/MobileNetV3_Small/StatefulPartitionedCall/StatefulPartitionedCall/Bneck/Bneck7/Bneck7/Bneck/Depthwise/SEBottleneck/Excite/Conv1x1/Conv2D/ReadVariableOp", "shape": [1, 1, 36, 144], "dtype": "float32"}, {"name": "StatefulPartitionedCall/model/MobileNetV3_Small/StatefulPartitionedCall/StatefulPartitionedCall/Bneck/Bneck7/Bneck7/Bneck/Depthwise/SEBottleneck/Excite/HardSigmoid/add/y", "shape": [], "dtype": "float32"}, {"name": "ConstantFolding/StatefulPartitionedCall/model/MobileNetV3_Small/StatefulPartitionedCall/StatefulPartitionedCall/Bneck/Bneck7/Bneck7/Bneck/Depthwise/SEBottleneck/Excite/HardSigmoid/truediv_recip", "shape": [], "dtype": "float32"}, {"name": "StatefulPartitionedCall/model/MobileNetV3_Small/StatefulPartitionedCall/StatefulPartitionedCall/Bneck/Bneck7/Bneck7/Bneck/Depthwise/HardSwish/HardSigmoid/add/y", "shape": [], "dtype": "float32"}, {"name": "StatefulPartitionedCall/model/MobileNetV3_Small/StatefulPartitionedCall/StatefulPartitionedCall/Bneck/Bneck8/Bneck8/Bneck/Expand/HardSwish/HardSigmoid/add/y", "shape": [], "dtype": "float32"}, {"name": "StatefulPartitionedCall/model/MobileNetV3_Small/StatefulPartitionedCall/StatefulPartitionedCall/Bneck/Bneck8/Bneck8/Bneck/Depthwise/Padding2x2/Pad/paddings", "shape": [4, 2], "dtype": "int32"}, {"name": "StatefulPartitionedCall/model/MobileNetV3_Small/StatefulPartitionedCall/StatefulPartitionedCall/Bneck/Bneck8/Bneck8/Bneck/Depthwise/SEBottleneck/Squeeze/Conv1x1/Conv2D/ReadVariableOp", "shape": [1, 1, 288, 72], "dtype": "float32"}, {"name": "StatefulPartitionedCall/model/MobileNetV3_Small/StatefulPartitionedCall/StatefulPartitionedCall/Bneck/Bneck8/Bneck8/Bneck/Depthwise/SEBottleneck/Excite/Conv1x1/Conv2D/ReadVariableOp", "shape": [1, 1, 72, 288], "dtype": "float32"}, {"name": "StatefulPartitionedCall/model/MobileNetV3_Small/StatefulPartitionedCall/StatefulPartitionedCall/Bneck/Bneck8/Bneck8/Bneck/Depthwise/SEBottleneck/Excite/HardSigmoid/add/y", "shape": [], "dtype": "float32"}, {"name": "ConstantFolding/StatefulPartitionedCall/model/MobileNetV3_Small/StatefulPartitionedCall/StatefulPartitionedCall/Bneck/Bneck8/Bneck8/Bneck/Depthwise/SEBottleneck/Excite/HardSigmoid/truediv_recip", "shape": [], "dtype": "float32"}, {"name": "StatefulPartitionedCall/model/MobileNetV3_Small/StatefulPartitionedCall/StatefulPartitionedCall/Bneck/Bneck8/Bneck8/Bneck/Depthwise/HardSwish/HardSigmoid/add/y", "shape": [], "dtype": "float32"}, {"name": "StatefulPartitionedCall/model/MobileNetV3_Small/StatefulPartitionedCall/StatefulPartitionedCall/Bneck/Bneck9/Bneck9/Bneck/Expand/HardSwish/HardSigmoid/add/y", "shape": [], "dtype": "float32"}, {"name": "StatefulPartitionedCall/model/MobileNetV3_Small/StatefulPartitionedCall/StatefulPartitionedCall/Bneck/Bneck9/Bneck9/Bneck/Depthwise/Padding2x2/Pad/paddings", "shape": [4, 2], "dtype": "int32"}, {"name": "StatefulPartitionedCall/model/MobileNetV3_Small/StatefulPartitionedCall/StatefulPartitionedCall/Bneck/Bneck9/Bneck9/Bneck/Depthwise/SEBottleneck/Squeeze/Conv1x1/Conv2D/ReadVariableOp", "shape": [1, 1, 576, 144], "dtype": "float32"}, {"name": "StatefulPartitionedCall/model/MobileNetV3_Small/StatefulPartitionedCall/StatefulPartitionedCall/Bneck/Bneck9/Bneck9/Bneck/Depthwise/SEBottleneck/Excite/Conv1x1/Conv2D/ReadVariableOp", "shape": [1, 1, 144, 576], "dtype": "float32"}, {"name": "StatefulPartitionedCall/model/MobileNetV3_Small/StatefulPartitionedCall/StatefulPartitionedCall/Bneck/Bneck9/Bneck9/Bneck/Depthwise/SEBottleneck/Excite/HardSigmoid/add/y", "shape": [], "dtype": "float32"}, {"name": "ConstantFolding/StatefulPartitionedCall/model/MobileNetV3_Small/StatefulPartitionedCall/StatefulPartitionedCall/Bneck/Bneck9/Bneck9/Bneck/Depthwise/SEBottleneck/Excite/HardSigmoid/truediv_recip", "shape": [], "dtype": "float32"}, {"name": "StatefulPartitionedCall/model/MobileNetV3_Small/StatefulPartitionedCall/StatefulPartitionedCall/Bneck/Bneck9/Bneck9/Bneck/Depthwise/HardSwish/HardSigmoid/add/y", "shape": [], "dtype": "float32"}, {"name": "StatefulPartitionedCall/model/MobileNetV3_Small/StatefulPartitionedCall/StatefulPartitionedCall/Bneck/Bneck10/Bneck10/Bneck/Expand/HardSwish/HardSigmoid/add/y", "shape": [], "dtype": "float32"}, {"name": "StatefulPartitionedCall/model/MobileNetV3_Small/StatefulPartitionedCall/StatefulPartitionedCall/Bneck/Bneck10/Bneck10/Bneck/Depthwise/Padding2x2/Pad/paddings", "shape": [4, 2], "dtype": "int32"}, {"name": "StatefulPartitionedCall/model/MobileNetV3_Small/StatefulPartitionedCall/StatefulPartitionedCall/Bneck/Bneck10/Bneck10/Bneck/Depthwise/SEBottleneck/Squeeze/Conv1x1/Conv2D/ReadVariableOp", "shape": [1, 1, 576, 144], "dtype": "float32"}, {"name": "StatefulPartitionedCall/model/MobileNetV3_Small/StatefulPartitionedCall/StatefulPartitionedCall/Bneck/Bneck10/Bneck10/Bneck/Depthwise/SEBottleneck/Excite/Conv1x1/Conv2D/ReadVariableOp", "shape": [1, 1, 144, 576], "dtype": "float32"}, {"name": "StatefulPartitionedCall/model/MobileNetV3_Small/StatefulPartitionedCall/StatefulPartitionedCall/Bneck/Bneck10/Bneck10/Bneck/Depthwise/SEBottleneck/Excite/HardSigmoid/add/y", "shape": [], "dtype": "float32"}, {"name": "ConstantFolding/StatefulPartitionedCall/model/MobileNetV3_Small/StatefulPartitionedCall/StatefulPartitionedCall/Bneck/Bneck10/Bneck10/Bneck/Depthwise/SEBottleneck/Excite/HardSigmoid/truediv_recip", "shape": [], "dtype": "float32"}, {"name": "StatefulPartitionedCall/model/MobileNetV3_Small/StatefulPartitionedCall/StatefulPartitionedCall/Bneck/Bneck10/Bneck10/Bneck/Depthwise/HardSwish/HardSigmoid/add/y", "shape": [], "dtype": "float32"}, {"name": "StatefulPartitionedCall/model/MobileNetV3_Small/StatefulPartitionedCall/StatefulPartitionedCall/LastStage/ConvNormAct/HardSwish/HardSigmoid/add/y", "shape": [], "dtype": "float32"}, {"name": "StatefulPartitionedCall/model/MobileNetV3_Small/StatefulPartitionedCall/StatefulPartitionedCall/LastStage/ConvNormAct/Conv1x1/Conv2D_1/ReadVariableOp", "shape": [1, 1, 576, 1280], "dtype": "float32"}, {"name": "StatefulPartitionedCall/model/MobileNetV3_Small/StatefulPartitionedCall/StatefulPartitionedCall/LastStage/ConvNormAct/Conv1x1/BiasAdd/ReadVariableOp", "shape": [1280], "dtype": "float32"}, {"name": "StatefulPartitionedCall/model/MobileNetV3_Small/StatefulPartitionedCall/StatefulPartitionedCall/LastStage/ConvNormAct/HardSwish/HardSigmoid/add_1/y", "shape": [], "dtype": "float32"}, {"name": "StatefulPartitionedCall/model/MobileNetV3_Small/StatefulPartitionedCall/StatefulPartitionedCall/LastStage/ConvNormAct/Conv1x1/Conv2D_2/ReadVariableOp", "shape": [1, 1, 1280, 4], "dtype": "float32"}, {"name": "StatefulPartitionedCall/model/MobileNetV3_Small/StatefulPartitionedCall/StatefulPartitionedCall/LastStage/ConvNormAct/Conv1x1/BiasAdd_1/ReadVariableOp", "shape": [4], "dtype": "float32"}]}]}